simulation/saved_models/global_model_gamma_11-25_22-50.pth (torch, 409416 bytes, 4 tensors)

1.weight f4 [128, 784]
0	0x3b9756f4	0.00461852
1	0x3c1481ea	0.009064177
2	0x3c747a73	0.014921772
3	0xbc505fef	-0.012718185
4	0xbb2e67cc	-0.002661216
5	0xbbaa7389	-0.005201761
6	0xbd032597	-0.03201827
7	0xbd0f4c96	-0.034985147
8	0x3cb218b5	0.021740297
9	0xbd13472c	-0.035956547
10	0xbbf9e3f1	-0.0076260497
11	0xbbcbb416	-0.0062165363
12	0xbc85d6cf	-0.01633778
13	0xbbf24e75	-0.0073946067
14	0x3cb43025	0.021995613
15	0x3caef7f5	0.02135847
16	0x3ccde018	0.02513127
17	0x3c9742d2	0.01846448
18	0xbc866b74	-0.01640866
19	0x3cb5cbee	0.022191968
20	0x3ce803e4	0.028322168
21	0x3c0659b2	0.008200096
22	0xbcee35bb	-0.029078355
23	0xbc864d10	-0.016394168
24	0xbc8a7962	-0.016903583
25	0x3b883a1a	0.004157317
26	0x3c854e49	0.01627268
27	0xbc331776	-0.0109308865
28	0xbcb373ae	-0.021905746
29	0x3c87b30b	0.016564867
30	0xb8e9c592	-0.00011147106
31	0x3ba851dc	0.0051367115
32	0x3cf69dd3	0.030104553
33	0xbd036594	-0.032079294
34	0xbc8eb992	-0.017422471
35	0xba8d7fca	-0.001079553
36	0x3c7cc58d	0.015427959
37	0xbc901c22	-0.01759154
38	0x3d05c4b4	0.032658294
39	0x3c5341e5	0.012894128
40	0x3c2ba8ae	0.010477228
41	0xbb32d52c	-0.0027287705
42	0x3c854034	0.016265966
43	0x3c784e42	0.015155377
44	0xbc639670	-0.013890848
45	0xbc99fbad	-0.018796766
46	0xbc82bf13	-0.015960252
47	0x3c189e86	0.009315139
48	0x3c8cf11e	0.017204817
49	0xbd1c8570	-0.038213193
50	0x3c095206	0.008381372
51	0xbc94eff6	-0.018180829
52	0xbd0413a4	-0.032245293
53	0xbd1b487a	-0.037910916
54	0x3b1d1be4	0.0023972923
55	0x3c225a02	0.009909155
56	0xbcb492c2	-0.022042636
57	0x3c855993	0.016278064
58	0xbc558b29	-0.013033667
59	0xbd16d0f8	-0.036820382
60	0xbcb80ee8	-0.022468045
61	0xbb9d808d	-0.004806584
62	0xbcad548a	-0.021158475
63	0xbc6510b8	-0.013981037
64	0x3c72a593	0.014809984
65	0x3cce0cfc	0.025152676
66	0xbc7565d3	-0.01497789
67	0xbd0d36eb	-0.034476202
68	0x3c016713	0.00789811
69	0xba63fecb	-0.000869733
70	0xbd0e7406	-0.034778617
71	0x3c5a33c9	0.013318011
72	0xbc393f2c	-0.011306565
73	0x3c4d234f	0.012520625
74	0xbc610964	-0.013735149
75	0xbc223b51	-0.009901837
76	0xbcbf6909	-0.023365514
77	0x3c99000b	0.018676778
78	0xbccf5767	-0.025310231
79	0x3cc4e78d	0.024036193
80	0x3bf50ab5	0.007478083
81	0x3cc71e50	0.024306446
82	0x3cf3c228	0.029755667
83	0xbbd81cad	-0.0065952153
84	0xbc1eccd7	-0.009692392
85	0xbcdc1560	-0.026865661
86	0x3ccc9638	0.024973974
87	0xbd035fc1	-0.03207374
88	0xbd0a1a31	-0.033716384
89	0xbd0e1ffd	-0.034698475
90	0x3cfa641a	0.03056531
91	0xbd242b15	-0.04008015
92	0x3a2bb28f	0.00065497396
93	0x3cc33423	0.023828572
94	0xbc207c0b	-0.009795199
95	0xbcba4473	-0.022737717
96	0xbd447a6f	-0.047968324
97	0xbc8f5319	-0.017495679
98	0xbcad6642	-0.021166924
99	0xbcf0894d	-0.029362345
100	0xbd05b458	-0.032642692
101	0xbce9a0b2	-0.028519008
102	0xbb4b942c	-0.003106366
103	0xbd5d29b0	-0.053994834
104	0xbc59f4f2	-0.013303028
105	0xbd14f481	-0.03636599
106	0xbbd8f8b8	-0.0066214465
107	0x3cb832ec	0.022485219
108	0xbc7afb17	-0.015318654
109	0x3c9a5fba	0.018844474
110	0x3c69720c	0.014248382
111	0xbbff6afe	-0.007794737
112	0xbce8d518	-0.028421924
113	0x3c110224	0.008850608
114	0xbbe74786	-0.007058087
115	0xbcc2cec6	-0.023780238
116	0x3bd4cb4a	0.0064939605
117	0x3beff4d2	0.007322886
118	0x3c16dd54	0.009208042
119	0x3cb4cc47	0.022070063
120	0xbcad23e8	-0.021135285
121	0xbd0fcb84	-0.035106197
122	0xbd0e1a64	-0.034693137
123	0xbbb1afa8	-0.005422551
124	0xbb9142b0	-0.0044329986
125	0xbbc76409	-0.006084923
126	0x3c5c2261	0.013435931
127	0x3d1037d1	0.03520948
128	0x3cf61e71	0.030043812
129	0x3d8b5256	0.06802814
130	0x3cb67506	0.022272598
131	0x3cf71ee2	0.030166093
132	0xbc5bb574	-0.013409961
133	0xbd4329df	-0.047647353
134	0xbc979efa	-0.018508423
135	0x3b1af478	0.002364425
136	0xbc79bd8d	-0.015242946
137	0x3c7b21a6	0.015327847
138	0xbcc94e71	-0.024573537
139	0x3d0071f8	0.03135869
140	0xbc057611	-0.008145825
141	0xbbd3350f	-0.006445534
142	0xbc9c9172	-0.019112322
143	0x3ccda599	0.025103377
144	0xbd0a6b33	-0.03379364
145	0xbb4350a4	-0.0029802704
146	0xbd1843b5	-0.037173945
147	0x3c950b1f	0.01819378
148	0xbca1bb00	-0.019742489
149	0xbcbf1758	-0.02332656
150	0x3c88f3ca	0.01671781
151	0xbc6c3a9f	-0.014418273
152	0x3d1078f2	0.035271592
153	0x3d74dae2	0.059779055
154	0x3d8dfc27	0.0693286
155	0x3d5108ef	0.05103391
156	0x3da798b5	0.081834234
157	0x3de1ca7c	0.11024949
158	0x3d54960b	0.051900905
159	0x3d70f19e	0.058824174
160	0x3cf07bdc	0.029355936
161	0x3cdbde6f	0.026839463
162	0xbc1b0dc8	-0.009463735
163	0xbcb2abd8	-0.021810457
164	0x3baaf6f2	0.0052174265
165	0x3c9bae6d	0.019004071
166	0xbcafe702	-0.021472458
167	0xbc98fe38	-0.018675908
168	0x3c8b7a08	0.017025962
169	0xbbb034e8	-0.0053774007
170	0xbcbe2b93	-0.023214137
171	0x3c0af826	0.008482015
172	0xbd09fd9e	-0.033689134
173	0x3cc03e67	0.023467256
174	0xbca8eb5a	-0.020620037
175	0xbd3caa5b	-0.0460609
176	0xbcf08cf3	-0.029364085
177	0xbcc395a2	-0.023875061
178	0xbbb4a3a1	-0.00551267
179	0x3c6e362c	0.014539283
180	0x3c462394	0.012093443
181	0xbad299ba	-0.0016067543
182	0x3bc70bc3	0.0060744
183	0x3d91ca38	0.07118648
184	0x3d4e2882	0.0503316
185	0x3da39c70	0.079888225
186	0x3dbca0a4	0.09210327
187	0x3d1f2ac8	0.03885916
188	0x3d45a7e3	0.048255812
189	0x3c5aaa34	0.013346244
190	0x3d2a6a70	0.041605413
191	0x3bc08cbd	0.0058761523
192	0xbcc52fae	-0.024070587
193	0xbb5010b2	-0.0031748232
194	0x3cacae53	0.021079218
195	0xbd113aa3	-0.03545631
196	0x3bada5c8	0.0052993037
197	0xbcb26f5b	-0.021781614
198	0x3cc3a953	0.023884451
199	0x3a5a3477	0.0008323858
200	0xbbb8e602	-0.0056426534
201	0xbcc9c039	-0.024627792
202	0xbceb33d9	-0.028711246
203	0xbd34a3dd	-0.044101585
204	0xbc1c0112	-0.00952174
205	0x3c9069ce	0.017628577
206	0x3ca878cc	0.020565413
207	0x3b028271	0.0019914175
208	0xbc9937ed	-0.018703425
209	0x3cdfa27f	0.027299164
210	0xbb15ae3c	-0.0022839447
211	0xbcc90693	-0.024539268
212	0x3d37c304	0.044863716
213	0x3d7a70f5	0.06114288
214	0x3d0da240	0.03457856
215	0x3d2c995d	0.042138446
216	0x3d0de4bb	0.034641962
217	0x3d900d5f	0.070338
218	0x3d897840	0.06712389
219	0x3ba4a2fc	0.005024312
220	0x3c4e7c93	0.012602943
221	0xbc67d702	-0.014150383
222	0x3c94edca	0.018179793
223	0xbc27d25f	-0.0102430275
224	0xbc37feb5	-0.0112301605
225	0xbbc818cf	-0.006106473
226	0xbcc5f464	-0.024164386
227	0xbce4a880	-0.027912378
228	0xbb839229	-0.0040152264
229	0xbcb74dae	-0.022375908
230	0xbd1f950c	-0.0389605
231	0xbcbf946d	-0.023386205
232	0x3c06ef6f	0.008235796
233	0x3a3f560c	0.0007298894
234	0xbb20eb05	-0.0024554145
235	0xbd31029f	-0.04321539
236	0x3cea0271	0.028565617
237	0xbcf83288	-0.030297533
238	0x3b88bd99	0.0041729924
239	0x3c2d64fb	0.010583158
240	0x3d66b478	0.056324452
241	0x3c8878b1	0.016659113
242	0x3ca3b458	0.019983456
243	0x3d7aeec4	0.06126286
244	0x3cf896d1	0.030345352
245	0x3cb317f7	0.021862013
246	0x3dacc293	0.084355496
247	0x3d72eeeb	0.05930988
248	0xbd15206e	-0.03640788
249	0xbd372418	-0.044712156
250	0x3ca0a4c3	0.019609815
251	0xbc363237	-0.011120371
252	0x3bc7bb78	0.006095346
253	0xbce4544e	-0.02787223
254	0x3bd08fc3	0.006364794
255	0x3cbd94b9	0.023142206

1.bias f4 [128]
0	0xbcff0e69	-0.031134801
1	0xbc4e9a9b	-0.012610103
2	0x3ce20238	0.027588949
3	0xbd019f57	-0.0316461
4	0x3c8d119b	0.017220309
5	0xbbecbe64	-0.007224845
6	0x3c8a8eb0	0.016913742
7	0xbcf486da	-0.029849458
8	0x3c8aaa86	0.016927015
9	0x3c26a47b	0.010171051
10	0xbc07bb3a	-0.008284384
11	0xbd1bdb89	-0.038051162
12	0x3d083198	0.03325042
13	0xbbb26b57	-0.005444925
14	0x3c3fcde1	0.0117068
15	0x3ce9aa7e	0.02852368
16	0xbc63a283	-0.013893726
17	0x3b32cd5c	0.0027283048
18	0x3d089d5f	0.033353206
19	0xbcde165d	-0.027110273
20	0xbd098a84	-0.033579364
21	0xbc908776	-0.017642718
22	0x3d072520	0.03299439
23	0x3caed53e	0.021341916
24	0x3d1497d6	0.036277615
25	0x3c738353	0.014862853
26	0xbbf705e9	-0.0075385463
27	0x3c4f9185	0.012668972
28	0x3cc287b5	0.02374635
29	0x3cd5130f	0.026010064
30	0xbc437bcb	-0.01193137
31	0x3c34b524	0.011029515
32	0xbc943513	-0.018091714
33	0xbce9ddcb	-0.028548142
34	0xbcf5cf04	-0.03000594
35	0x3c9fbc8b	0.019499084
36	0x3b0be770	0.0021347664
37	0x3c6c0eff	0.014407872
38	0x3bc6e8c0	0.0060702264
39	0xbb24627c	-0.0025083115
40	0x3d0114a5	0.03151383
41	0x3caa393c	0.020779245
42	0x3b98f0f7	0.004667397
43	0xbc999c48	-0.018751279
44	0x3bc83645	0.006109985
45	0x3c8d1159	0.017220186
46	0xbd0e7236	-0.03477689
47	0x3cd3fa8e	0.02587631
48	0x3c3518f9	0.011053317
49	0x3c1e2950	0.009653404
50	0x3cfca72b	0.03084143
51	0xbb940836	-0.0045175804
52	0x3cd0a31f	0.025468407
53	0x3bb05943	0.0053817346
54	0xbcba87cc	-0.022769831
55	0xbcfa2ede	-0.030539926
56	0xbc3bda97	-0.01146569
57	0xbca1ed99	-0.019766616
58	0x3c569667	0.013097382
59	0x3c5d2b3f	0.01349908
60	0xbd15a297	-0.03653201
61	0xbc536746	-0.01290304
62	0x3d131382	0.035907276
63	0x39490dd3	0.00019174004
64	0xbbdd0322	-0.006744758
65	0xbcf78afc	-0.03021764
66	0x3c81df09	0.015853422
67	0xbd067c5e	-0.03283345
68	0xbbb54ceb	-0.005532851
69	0x3c94a825	0.018146584
70	0xbcaeda5a	-0.021344353
71	0xbc0fbd94	-0.008773226
72	0x3cc25979	0.023724305
73	0xbc2c3abb	-0.010512049
74	0xbc605a39	-0.013693386
75	0x3cffc849	0.031223433
76	0x3b7b0977	0.0038305202
77	0x3c4a3de0	0.012343854
78	0xbd127931	-0.03576011
79	0xbcbda767	-0.023151113
80	0xbc1c7308	-0.00954891
81	0x3d08554c	0.03328447
82	0xbcb97f7a	-0.022643793
83	0xba115a35	-0.0005544753
84	0xbd09a8ef	-0.033608373
85	0x3ccf5265	0.025307843
86	0xbca1b210	-0.019738227
87	0xbceb6916	-0.028736632
88	0x3b4cee4f	0.0031269973
89	0xbd067e44	-0.03283526
90	0x3c58b526	0.013226783
91	0x3c89c325	0.016816685
92	0x3c9d3387	0.01918961
93	0x3c2991ca	0.0103497
94	0xbbd3ad7b	-0.0064598895
95	0x3c885258	0.016640827
96	0xbc29bf27	-0.010360516
97	0xbd081eb8	-0.03323242
98	0x3d06108b	0.03273062
99	0xbcebc3c9	-0.028779881
100	0x3a29495b	0.0006457769
101	0xbc99c455	-0.018770376
102	0xbbc18b53	-0.0059065013
103	0xbbc8c9c8	-0.00612757
104	0x3c9d1a0a	0.019177455
105	0x3b7b2455	0.0038321216
106	0xbba45cbb	-0.005015937
107	0xbb80a4d2	-0.003925898
108	0xbcca3c5a	-0.024686981
109	0x3c49edb9	0.012324744
110	0x3b08dbb0	0.0020882897
111	0xbcf52ceb	-0.029928645
112	0xbcc6c7a9	-0.024265127
113	0xbc93006c	-0.017944537
114	0xbd012259	-0.031526897
115	0xbc42172d	-0.011846346
116	0xba9f4164	-0.0012150225
117	0xbcfaf8e2	-0.030636255
118	0x3c916f31	0.017753216
119	0x3c97d3d0	0.018533617
120	0xbc369d1f	-0.011145859
121	0x3b5daf41	0.0033826383
122	0xbb6992df	-0.003564052
123	0xba66615c	-0.00087883114
124	0xbcd6dcce	-0.026228335
125	0x3a65bcb4	0.00087637757
126	0xbd05ed88	-0.03269723
127	0x3c367b20	0.011137754

3.weight f4 [10, 128]
0	0x3eca08fa	0.39459974
1	0xbe34066a	-0.17580572
2	0x3e9cce50	0.30626154
3	0xbdb836cc	-0.08994827
4	0xbe41c24f	-0.18921779
5	0xbc3ede5b	-0.011649693
6	0x3d827747	0.063704066
7	0xbe041218	-0.12897527
8	0x3d80f21e	0.0629618
9	0xbdc74d60	-0.09731555
10	0xbdeb2c74	-0.11483088
11	0x39bfb640	0.00036566146
12	0x3d3e9651	0.04653007
13	0x3d065e90	0.032805026
14	0x3e38db8c	0.180525
15	0x3e3d781d	0.18502851
16	0x3e177272	0.14789751
17	0x3ad6f511	0.001639994
18	0xbe817a4e	-0.25288624
19	0x3d8f9ec7	0.07012706
20	0x3bdf180d	0.006808287
21	0xbe61ba35	-0.22043689
22	0xbd0d00cc	-0.034424588
23	0x3e322cf6	0.17399964
24	0x3daeb4e6	0.085305974
25	0x3e3fd889	0.18734945
26	0x3ee3e528	0.4451077
27	0x39a446fb	0.00031333402
28	0xbe34a250	-0.17640042
29	0x3d405988	0.046960384
30	0xbe7cc577	-0.24684702
31	0x3cdb336f	0.026757924
32	0x3e96a615	0.29423586
33	0xbd007ace	-0.031367116
34	0xbe20df97	-0.15710293
35	0xbdf662f5	-0.12030593
36	0x3dc3c45f	0.09558939
37	0xbd7f51da	-0.06233392
38	0xbe45de63	-0.19323115
39	0xbe319e1e	-0.17345473
40	0x3dacb4ec	0.084329456
41	0xbd5a899c	-0.05335389
42	0x3ce4f053	0.027946627
43	0xbcbb7a3d	-0.022885436
44	0xbd6a9ee2	-0.05728043
45	0x3d668685	0.05628063
46	0x3cb35b5a	0.021894146
47	0xbd99a4ed	-0.0750216
48	0xbe783193	-0.24237661
49	0xbcea09da	-0.02856915
50	0xbe0e3566	-0.13887557
51	0x3c3a510f	0.011371865
52	0xbe4f2c2a	-0.20231691
53	0xbdf3cb20	-0.119039774
54	0xbe6bec6b	-0.23039405
55	0xbdda9c55	-0.10674349
56	0xbe36403c	-0.17797941
57	0xbd9c792f	-0.076403014
58	0x3c7a2e55	0.0152698355
59	0x3e315277	0.17316614
60	0x3b447559	0.0029977171
61	0xbd7d299a	-0.061807252
62	0x3d48d52b	0.049031418
63	0x3e2f9931	0.17148282
64	0x3d85f397	0.06540602
65	0xbc8b43ea	-0.017000157
66	0xbdfed6f5	-0.124433435
67	0xbda7b15e	-0.08188127
68	0xbc9ae3f1	-0.018907519
69	0x3e8e032b	0.27736792
70	0xbdc4dd07	-0.0961247
71	0xbe88d203	-0.26722726
72	0xbc8914f2	-0.01673362
73	0xbd731a78	-0.059351414
74	0x3e02d7c1	0.12777616
75	0xbe29b879	-0.16574277
76	0xbd8230f4	-0.06356993
77	0x3d7e077e	0.062018864
78	0xbeb2854b	-0.3486732
79	0x3daf81e5	0.08569697
80	0x3dca02d5	0.098638214
81	0x3ecbd141	0.39808086
82	0xbdc8a3a2	-0.097968355
83	0x3d88e98b	0.0668517
84	0xbe54cdb9	-0.20781602
85	0x3cc31420	0.023813307
86	0xbe6b9e2f	-0.23009561
87	0x3c6aa391	0.014321224
88	0x3e0cea45	0.13761242
89	0xbe1d486e	-0.15359661
90	0xbd9777fa	-0.073959306
91	0x3d8bc0df	0.068238966
92	0xbb90f47f	-0.0044236775
93	0xbc22699b	-0.009912874
94	0xbdcc7c20	-0.099846125
95	0x3e112fd7	0.14178406
96	0x3d9f2341	0.07770396
97	0xbda06e8b	-0.078335844
98	0x3d6a5e84	0.057219043
99	0xbe827181	-0.25477222
100	0xbdb1769f	-0.08665203
101	0xbe89e915	-0.2693564
102	0x3ceea38f	0.029130725
103	0xbe104666	-0.14089355
104	0x3e74b220	0.23896074
105	0x3df1d94b	0.118090235
106	0x3e91d489	0.28482464
107	0xbe2b2c77	-0.1671618
108	0x3e014981	0.12625696
109	0x3dbe0d84	0.09279922
110	0x3e4076b9	0.18795289
111	0xbeb8ecab	-0.36118063
112	0x3cd71b28	0.026258066
113	0xbce3b7c8	-0.027797595
114	0x3e1d8793	0.15383749
115	0xbd624443	-0.05524088
116	0x3d7c7535	0.061635215
117	0xbea65e62	-0.32493883
118	0x3e070bdb	0.13188116
119	0x3d1a1fc8	0.037627965
120	0xbd242881	-0.04007769
121	0xbe42f688	-0.19039357
122	0x3d9157fe	0.07096861
123	0x3c9638f1	0.018337699
124	0x3d02966d	0.03188174
125	0xbd54aeaf	-0.051924404
126	0xbc95660e	-0.01823714
127	0x3bd26d3a	0.006421712
128	0xbda194c5	-0.07889704
129	0x3da35827	0.07975798
130	0x3e02cce1	0.12773468
131	0x3eb8e081	0.36108783
132	0xbe2c6e05	-0.16838844
133	0xbcf26d89	-0.029593246
134	0x3c7c42a9	0.015396752
135	0x3df7b6dc	0.120954245
136	0x3d20f813	0.039299082
137	0xbd5ad5a5	-0.053426404
138	0xbd75082b	-0.059822243
139	0xbe2acd3f	-0.16679858
140	0x3dffb775	0.124861635
141	0x3d82a076	0.06378262
142	0xbe04919c	-0.1294617
143	0xbec5c464	-0.38626397
144	0x3e377e51	0.1791928
145	0x3d7c67ba	0.06162236
146	0x3c07c1b4	0.0082859285
147	0xbd84c974	-0.06483737
148	0xbda9fae9	-0.082998104
149	0x3ca04a28	0.01956661
150	0x3d16ca63	0.036814105
151	0xbdef7a8b	-0.11693295
152	0x3d79bf24	0.0609733
153	0xbd00a3a8	-0.031406075
154	0xbe9d69ba	-0.30744725
155	0x3cf0458a	0.029330034
156	0x3e5df478	0.21675289
157	0xbd8221fe	-0.0635414
158	0xbdadce34	-0.08486596
159	0xbb789998	-0.0037933346
160	0xbe9308ef	-0.28717753
161	0xbcb0d36f	-0.021585194
162	0xbe15a8fe	-0.14615247
163	0xbe4b2d76	-0.1984156
164	0x3d174d0a	0.036938705
165	0x3e1c28b9	0.1524991
166	0x3d895582	0.067057624
167	0x3e0b3dc3	0.13597779
168	0xbd8ea89d	-0.06965754
169	0x3e8213c6	0.2540571
170	0x3d97b0c7	0.074067645
171	0x3d093e7e	0.033506863
172	0xbdbdf65b	-0.09275504
173	0x3c69db9c	0.01427355
174	0x3e16cf33	0.14727478
175	0x3d707251	0.05870277
176	0x3dc78f41	0.097441204
177	0x3d050b50	0.03248149
178	0xbcfbc2b7	-0.030732496
179	0xbd7f7242	-0.062364824
180	0x3e5c277a	0.21499434
181	0x3c3348c3	0.010942641
182	0xbd83bee8	-0.06432897
183	0xbdd0626c	-0.101750225
184	0xbcd3ec36	-0.02586947
185	0x3ec7f2ed	0.39052525
186	0x3dca8135	0.098879255
187	0xbe396667	-0.1810547
188	0x3b45fa0f	0.003020886
189	0xbd5de1fb	-0.05417059
190	0xbc14b6fe	-0.009076832
191	0x3d5763bf	0.05258536
192	0x3e275c96	0.16343912
193	0x3e11b3c9	0.14228739
194	0xbc99ebc1	-0.018789174
195	0xbe917aa8	-0.28413892
196	0xbd9629d6	-0.07332198
197	0xbe178b6b	-0.14799277
198	0xbd203bae	-0.039119415
199	0xbde6210e	-0.112367734
200	0x3d447fac	0.04797332
201	0x3cb4e459	0.02208154
202	0xbe517c97	-0.20457684
203	0x3d2a164c	0.04152517
204	0xbd870b58	-0.065939605
205	0x3d91c7e8	0.07118207
206	0x3d863d64	0.06554678
207	0x3d924c48	0.07143456
208	0xbcf01fa1	-0.029311957
209	0xbd974cf1	-0.07387722
210	0xbe59e277	-0.21277796
211	0xbe2e7046	-0.17035016
212	0x3ed5869c	0.4170426
213	0xbd1e0bec	-0.03858559
214	0x3deefa8a	0.1166888
215	0xbd968b8f	-0.073508374
216	0xbcffd8dc	-0.031231336
217	0x3e51e1de	0.20496318
218	0x3aa95dd9	0.0012921646
219	0x3d2abf8d	0.041686583
220	0xbe1efd2b	-0.15526263
221	0x3b84e23c	0.0040552896
222	0xbdf868ad	-0.1212934
223	0x3c59bb38	0.013289265
224	0x3d1429ea	0.036172785
225	0x3c0a9abd	0.008459744
226	0xbd53eeb9	-0.051741336
227	0xbd1f73b8	-0.038928717
228	0x3d50496c	0.05085127
229	0x3e17e589	0.14833654
230	0xbdf476e4	-0.11936739
231	0x3ca53edd	0.020171577
232	0xbd55360c	-0.052053496
233	0x3e163d76	0.14671883
234	0xbe0e62c8	-0.1390487
235	0x3e851abd	0.25996962
236	0x3ec02f39	0.37536028
237	0xbb679228	-0.0035334919
238	0xbdb130d3	-0.086518906
239	0xbe0ff05b	-0.14056532
240	0xbe98ff73	-0.29882392
241	0x3deeb940	0.116564274
242	0xbdf95484	-0.12174323
243	0x3e4a6f68	0.1976906
244	0xbe26b25c	-0.16278976
245	0x3e96fdfd	0.29490653
246	0x3c82485b	0.015903642
247	0x3c5cc5f8	0.013474934
248	0x3e24c09d	0.16089101
249	0x3e3f7f36	0.18700871
250	0x3d90b93d	0.070665814
251	0x3d2c820d	0.042116214
252	0xbd92557e	-0.071452126
253	0xbcee2cfe	-0.029074188
254	0x3b02c032	0.0019950983
255	0xbe140276	-0.14454064

3.bias f4 [10]
0	0xbe1022b9	-0.14075746
1	0xbe03cf35	-0.12872012
2	0xbe076f3a	-0.13226023
3	0x3d2b1053	0.041763615
4	0xbcbdda61	-0.02317542
5	0xbdd06120	-0.10174775
6	0xbe1c5329	-0.15266098
7	0xbdb8394f	-0.08995306
8	0x3e8bada0	0.27280903
9	0x3e0aaa17	0.13541447
