simulation/saved_models/global_model_test_12-04_00-34.pth (torch, 409408 bytes, 4 tensors)

fc1.weight f4 [128, 784]
00000000: 26ef c2bc 287a 1cbc 99ea a2bc 6f2c 8bbb
00000010: d1c8 d5bc df65 ffb9 ff4f eb3b 7195 21bc
00000020: d133 90bb f17c 8ebc 00fb 1d3d af01 4dbc
00000030: 8936 2cb8 81f8 e3ba 9124 043c b149 3a3c
00000040: f037 e2bc 07f1 05bc 290f 09bc 1900 073d
00000050: 7fd1 2a3c dfe8 81bb e71e 133d af7d 523c
00000060: 713d 143d 3006 79ba ef03 68bc 7950 013d
00000070: 2f85 bbbb cf8a 673c f1c2 a6bc 9f9c 993c
00000080: 8605 c4bc b9c6 1f3c 8acb 4b3c 4195 60bc
00000090: 77ab 093c 699d 083d aa12 c8bb a791 06bc
000000a0: 067d c6bb 3ab9 ccbc d9be 2ebc 8f1f 003d
000000b0: ef4e 07bc 6f9e 403c 4157 d93b 0f7b 503c
000000c0: d131 aebc e1f2 debc c902 2f3c 5f45 ed3c
000000d0: 2134 563b 9f5e 3d3c e791 963c 71e5 bbbc
000000e0: 1f51 753a f6f4 49bc 7194 e53c d9f8 a5ba
000000f0: d187 d83c b961 843c 9787 013b 31bb 1fbc
00000100: f7bd 123c c05b 063d e6fa bb3c 700f c3bc
00000110: 41ce 6abc a760 023d e1d3 f63c b085 773c
00000120: 318c da3c 5f52 113d 3f06 103d f1b2 863b
00000130: c7cf 933c efbf c4bc 3128 5ebc dfd8 70bc
00000140: df8d 2bba 3193 bb3c c1a8 bf3b 4f5c 2dbc
00000150: b9a0 263b 8f80 d8bc c9d6 00bd 3ffe 483c
00000160: 4f17 903c 97e4 063c 8049 f9ba afe5 59bc
00000170: 27e8 34bc 2732 103d 0f71 1a3d 4154 56bc
00000180: 3f59 783c 00d8 733c 070d 263d 0fd6 56bc
00000190: 67c8 2c3d 6fa6 463c e1b0 dc3c 3fa6 d33c
000001a0: 4191 f03c 8f4c c13c 0fc3 abbc ff73 2abc
000001b0: 7175 0f3a c841 85bc 41ac 8dbc d1ee 73bc
000001c0: 7aa9 c6bc ef65 f83c 010e ef3c a695 c13c
000001d0: b961 a0ba b19b d03b 9106 ea3c 19b4 003c
000001e0: d743 14bc b10b a3bc 8fee 773c f1c7 4f3c
000001f0: 7f21 bb3a 694e 2f3b d033 8b3c dfbd 853c
00000200: 9f15 003d 4187 2f3c 7927 1c3d c972 98bb
00000210: 8712 853b ca41 4a3c 69b2 073d 4172 98bc
00000220: cf26 d1bc d185 e13c a184 77bc 8995 a23c
00000230: 010e e63c 076a 13bc 11e7 653b e9df 093c
00000240: ef12 9bbc a95a afba 8f44 f83c f190 3a3c
00000250: 9978 033d d13b 86bc c931 32bc 706f d4bc
00000260: 3f29 5c3c b7df ae3c c1aa a1bc f7a6 923c
00000270: 8fa1 c0bc 1fe5 c23c aae5 403c c732 9a3c
00000280: 4f92 4ebc ef0f d8bc 1f5c 00bd 69bb a53c
00000290: dfd2 d5bc 3199 cd3b bfd8 bebc d9a5 afbc
000002a0: 8fe5 8a3a 6f65 de3c c9fb 37bc d7ce 253b
000002b0: 19e2 01bd 4ffa 8abc c97c 1cbc af9c 143c
000002c0: e70e 333c 299f 9dbc df97 73bb 11d6 99ba
000002d0: aa73 ba3c 47b1 aa3c b139 67bc 47c4 0abd
000002e0: 0a1e bcbc 49b5 b33b d1d4 843c a1d4 8ebb
000002f0: 576f 883c a91b 39bb 8fe4 eabc bf5f eebc
00000300: 897a a83c 57ad 043d 3045 ca3c e7c5 0cbc
00000310: a72d abbc 4115 a9bb 29b1 b23c 0083 f8b7
00000320: 2655 473c 59a3 203d 4f09 903c 0f8a e2bc
00000330: ff9c d9bc 412b 973a e175 b9bb 07aa 18bc
00000340: b912 83b9 81fe 7cbc dfd0 d73c c9e7 02bc
00000350: af65 d43c 2116 11bd a730 a0bb e12d 303b
00000360: 7119 753c 17f8 0fbd 419a ef3c 5f08 16bd
00000370: c198 5a3c e033 eb3c 314c d1bb 398d 8abc
00000380: c168 ed3c b1a6 00bd 8ff5 ecbb bf16 f43b
00000390: 2f9e b33a a7bd 8bbc c982 813c b1a1 6fbc
000003a0: a7cf 163c 5f49 bebb 511d 53bc 3f6c 4bbb
000003b0: 2180 dbbc 9fe5 973b 06ee c23a 41cd f83c
000003c0: d1f2 02bd 67a9 a4bc d91a 853c e1b8 4dbc
000003d0: 4794 8d3c a083 bebc d125 58bc b920 b4bc
000003e0: bf3f 663c bf4e bebc 319f e6ba aa70 3e3b
000003f0: cf68 e9bc 1fef 093b 0920 1d3c 4120 9dbc
-0.023795675 -0.009550609 -0.019887256 -0.0042472403 -0.026096733 -0.0004871329 0.007181167 -0.00986229
-0.0044007082 -0.017393561 0.03856945 -0.012512608 -4.1058785e-05 -0.0017392786 0.008065359 0.011370108
-0.027614564 -0.008175141 -0.008365431 0.032959078 0.010425924 -0.003964528 0.035918143 0.012847348
0.036191408 -0.0009499518 -0.014161094 0.031570885 -0.005722664 0.014132216 -0.020356627 0.01875144
-0.023928415 0.009751969 0.012438664 -0.01370746 0.008402697 0.033353243 -0.0061057406 -0.008213437
-0.0060573844 -0.024990667 -0.010665619 0.031280097 -0.008258565 0.0117565235 0.006632716 0.012724652
-0.021263989 -0.027215423 0.010681816 0.028963743 0.003268488 0.011558204 0.018380119 -0.022936555
0.0009358096 -0.01232647 0.028024884 -0.0012662663 0.02643195 0.016159879 0.0019764656 -0.00974922
0.008956424 0.032802343 0.022946786 -0.023811072 -0.014331401 0.031830456 0.030130329 0.015107557
0.026678177 0.035478946 0.035162207 0.004110687 0.018043412 -0.024017302 -0.013559387 -0.014700144
-0.0006544273 0.022897335 0.0058489745 -0.01058109 0.0025425388 -0.026428489 -0.031454835 0.012267648
0.01758924 0.008233211 -0.0019019097 -0.01329939 -0.011041678 0.03520408 0.037705477 -0.013081611
0.015157997 0.014883041 0.040539768 -0.013112559 0.042183306 0.012124642 0.026939811 0.025836108
0.029366137 0.023596076 -0.020967035 -0.010403632 0.0005472517 -0.016266719 -0.017294051 -0.014888481
-0.024250735 0.030322043 0.029181482 0.023630928 -0.0012236155 0.006366216 0.028567584 0.007855439
-0.009049377 -0.019903036 0.01513256 0.012681947 0.001427695 0.0026749617 0.01699248 0.01632589
0.03127062 0.010713399 0.03812358 -0.0046523553 0.0040610465 0.012344787 0.03312913 -0.018609168
-0.0255312 0.027529629 -0.015107305 0.019846695 0.02808285 -0.008997447 0.0035080353 0.008415201
-0.018929927 -0.0013378459 0.030306129 0.011387096 0.032097433 -0.016385945 -0.0108761275 -0.025932044
0.013437568 0.02134691 -0.019734742 0.01790188 -0.023514537 0.023790894 0.011773506 0.01882304
-0.012608125 -0.026374785 -0.031337854 0.020230966 -0.026101528 0.0062743654 -0.023296712 -0.021441387
0.0010596978 0.027147977 -0.011229464 0.0025300288 -0.031709764 -0.01696506 -0.0095512355 0.009070559
0.010928846 -0.019240933 -0.003716938 -0.001173677 0.022760231 0.020836486 -0.014112876 -0.03387859
-0.022963542 0.0054842574 0.01621476 -0.0043588434 0.016654653 -0.0028245247 -0.028673438 -0.02909839
0.020566242 0.032391872 0.024691194 -0.0085921055 -0.020895792 -0.0051600044 0.021812992 -2.9624905e-05
0.012166297 0.03921828 0.017582564 -0.027653722 -0.02656412 0.0011533276 -0.005659804 -0.009317881
-0.00025000217 -0.015441538 0.026344715 -0.007989832 0.025927393 -0.035421494 -0.0048886123 0.0026882815
0.014959679 -0.035148706 0.029248359 -0.036629077 0.013342083 0.02871126 -0.0063872566 -0.016913043
0.028980615 -0.03140897 -0.0072314213 0.0074490006 0.0013703759 -0.017058207 0.015809434 -0.014625953
0.009204782 -0.0058070864 -0.012885408 -0.0031039861 -0.026794495 0.0046355273 0.0014871962 0.03037131
-0.03196985 -0.020100309 0.016248154 -0.012556286 0.017282618 -0.023256123 -0.01319261 -0.02198826
0.014053284 -0.023230908 -0.001759505 0.0029058852 -0.02849236 0.0021047068 0.009590157 -0.019180419

fc1.bias f4 [128]
00000000: 0037 bebc a62d f4bb ea98 9a3c 77a5 13bc
00000010: e95e 773c df7b d5bb 3f97 1d3c ff03 01bc
00000020: dc30 a23b 1f0c 7b3b ccdd 48bc 7382 fb3c
00000030: da53 ea3c a92e 4cbc 1d7a ef3c 83bb b7bc
00000040: 4f07 0c3c 41e9 55bc 1508 813c 56ca 7a3a
00000050: e1c7 e23b e446 193c 3c60 273d 9c47 a83c
00000060: e174 94ba 8a9d bfbc adfe b43c 5897 073d
00000070: b7c3 b6bc cff8 99bc 8651 f9bb 81f7 05bd
00000080: cf26 093d 5f8e 95bc 0d8a 7bbc 461a d8ba
00000090: 6915 903c 2653 3bbc d83f 13bc cf75 f83c
000000a0: cf25 08bd 1141 94bc f13a ab3c 3356 103c
000000b0: c42a fe3c a7ab d0b8 5a41 adbc d6a0 c5bc
000000c0: 09b2 b13b 2f38 77bc 9152 05bc 99a6 0fbd
000000d0: 70af 77bc 3c77 efbc 04db 2ebc 4c72 83bc
000000e0: 3120 cfbb dc77 d739 320b 2d3d 8424 5bbc
000000f0: e438 10bd f930 15bd c792 96ba c745 d33c
00000100: c9ac 0bbd 2f3f 953c c7bd fa3c baa2 7b3c
00000110: d79c 923c e0b4 d83c df39 0bbd e101 c6bc
00000120: 0de0 68bc dc07 c63c b924 a8bb e422 0f3c
00000130: 16f4 f0bc 1807 393c c6b7 c4bc ce28 833c
00000140: ecf7 a7ba 9c93 023c 2cca d03b c9fe 153c
00000150: 2989 09bd bcf5 32bb 7a8c bcbb cce7 d2bc
00000160: 9733 053d 51a5 dcba 3dc4 eebb 26f7 80bb
00000170: 75f2 053d 7150 9d3b f1c4 a3bc 14e8 8b3c
00000180: 9418 da3c c59a 8a3c 07fa 943c 96f8 ea3b
00000190: ccae 9d3c a292 0a3b 8237 11bd d3af f83c
000001a0: 498a f53c 9c69 863c 8399 db3b 8c7d b4bc
000001b0: f110 c83c dde5 f83c f0bb 4bbc b998 f53c
000001c0: 0f5e a43c 84f7 033d 6d81 ab3c afda 03bd
000001d0: 053a a13c aeec 8b3c e125 ab3b cf13 8dbc
000001e0: c098 783c e9b5 30bc b0d8 d53c 2f74 a23c
000001f0: 9bed 803b 4a96 16bd 61a6 f2ba 494c 8cbc
-0.023219585 -0.007451731 0.018871743 -0.009011618 0.015098312 -0.0065150107 0.009618579 -0.007874488
0.004949672 0.0038306785 -0.012259912 0.030701851 0.028604437 -0.0124622965 0.029233033 -0.02242828
0.008546664 -0.0130561 0.015750924 0.00095668936 0.0069208 0.009355281 0.04086326 0.020541959
-0.0011326337 -0.02339055 0.022094095 0.033103317 -0.022310121 -0.018795399 -0.0076085953 -0.03270674
0.033484276 -0.018256364 -0.015352738 -0.0016487322 0.017588334 -0.011433398 -0.0089873895 0.030329613
-0.033239182 -0.018097432 0.020902129 0.008809614 0.031026252 -9.9501856e-05 -0.021149326 -0.024124544
0.005422835 -0.015089079 -0.008137361 -0.03507099 -0.015117511 -0.02923166 -0.010672335 -0.016045712
-0.006320976 0.00041097298 0.042247005 -0.013375405 -0.035210505 -0.036423657 -0.0011487835 0.025790108
-0.034100328 0.018218605 0.030608071 0.015358621 0.017897053 0.026453435 -0.033990737 -0.024170818
-0.014213574 0.02417367 -0.005131331 0.008736346 -0.029413264 0.011293195 -0.024013411 0.016010668
-0.0012814975 0.007969763 0.006371757 0.009154984 -0.03357807 -0.0027307114 -0.005754051 -0.025745295
0.032519903 -0.0016833936 -0.007286577 -0.0039357124 0.03270193 0.004800849 -0.01999137 0.017078437
0.026623048 0.016919503 0.018185629 0.007170747 0.019248389 0.002114453 -0.035453327 0.030357277
0.029973166 0.01640778 0.0067016496 -0.022032522 0.02442214 0.030383045 -0.0124349445 0.02998005
0.020064382 0.03221847 0.020935738 -0.032190975 0.019680986 0.017080631 0.0052230214 -0.01722136
0.015173137 -0.010785558 0.026104301 0.019830791 0.003934575 -0.03676442 -0.001851272 -0.01712622

fc2.weight f4 [10, 128]
00000000: 197b aabd 219b 80bd 896c aabc a999 cc3d
00000010: c0e0 fcbd a62f aabd 7c8a adbd 199a ddbd
00000020: f27a a1bd 914d fe3c f617 e23d 3053 033d
00000030: 24bf d23d 3c74 993d 9b52 983d cd3c 963b
00000040: c677 bc3c 9f6b 91bd 61bc c63d 7706 673d
00000050: 0165 29bd b5c1 b0bd f75f 4e3d c15e f53c
00000060: ff16 e03b 2f78 d7bc ac2e da3d 9116 59bd
00000070: 79f3 673d 4f05 773d 6950 893d 6120 683c
00000080: b080 49be 07fd 9ebd 9f50 763c 6489 d53d
00000090: 4607 87bd 13e4 b9bd 4769 1abd a74a 423e
000000a0: 47f7 b8bd b14d 0abd 0646 f03d fff1 7fbd
000000b0: ff20 00be ffa8 323d e099 21be 970e a13d
000000c0: 658b 06be 11e9 1abe 6161 863d a659 dcbd
000000d0: b712 22bd 21dc c3bd 9634 c93c f650 653d
000000e0: b160 863d 6f84 0cbe cc61 f3bc 544f dbbd
000000f0: e9cc b7bd 5986 a43d 7f2a d53c 5027 a7bd
00000100: c493 163d a169 d73c 79aa 85bc 667b c4bc
00000110: 6374 e53d bc03 c2bd 3eb9 21be 8c4d 3fbc
00000120: fc91 31be aa5a 8c3d 098f 5cbc fb61 27be
00000130: 9814 1e3c 2d0b c23d be50 963d 8da2 dc3d
00000140: 6469 ecbd 748a 063e 7a39 ed3a 50de 2b3d
00000150: 9079 953d 497c c53d 71ac 89bd 29f7 30be
00000160: 03f1 483d b1fe bebd 1fe9 26be 4999 163d
00000170: fa59 b4ba b9b0 01bd f6ec 3b3d e2a4 a9bd
00000180: fde1 783d 4d19 afbd cf84 4d3d 5c24 25be
00000190: 8955 aa3a 12c2 913d 5757 8c3d f6cc 563c
000001a0: b953 7c3d 0aeb f5bd 101a babd b461 03bd
000001b0: 01af e53c 2a9e 473d 02bb 81bd f201 143d
000001c0: f6ba 46bc 077e 013d 80b3 14bb cfc6 803d
000001d0: d9e4 dfbd b0c8 3dbc 5798 9e3d 3233 0cbe
000001e0: 694b 1c3d d968 2ebe 1a2a 463d 2fac 1e3d
000001f0: 63f1 e53c bbc5 2abe 016e db3c 3d96 07be
00000200: f60d 40bd d6b5 a43a 73f1 2bbc 7f93 d63b
00000210: b6c9 ce3d 5dde 3a3d b4f0 f73c 3385 833d
00000220: 6442 cf3d 3663 32be 71b2 9c3d 6120 54be
00000230: 145e 0fbe 38a9 99bd 5c1b 243d d382 2dbe
00000240: ffab c1bc 7106 703d f185 ffbd cc6f 5e3d
00000250: 4b21 a63d dad1 053e 0461 16be 07eb 87be
00000260: 91ec 1e3d f0b8 563d 0661 2bbe a6cb babd
00000270: f213 b4bd aa97 4bbb 7d04 4fbe b14a 5cbd
00000280: 09b3 fc3d 61e9 64bc ddb1 c63d 9751 863c
00000290: b7ab 98bd 0d6d 983d 16f1 40bd 0932 11be
000002a0: 0978 293d bf9e 503d f198 33be dcb1 ccbd
000002b0: f63e f5bd ebcd adbd 60f5 993c 0a88 48be
000002c0: 01e2 b93c 60d6 bf3d a1ef a93c 70c2 673d
000002d0: 3f4a aabd b368 3fbd 7c3c 1dbe a6e2 973d
000002e0: 83e6 e5bd 5a90 f9bc 8576 16bb 91b5 e5bd
000002f0: 6c1b 413d c797 94bd 0961 863d 7d78 47bd
00000300: b0d3 0ebe ffeb 1bbe 27a8 a0bd 1aec 763d
00000310: 497d 3bbe 22ab 133d e167 4a3d cf39 49bb
00000320: bcb1 163c 5f51 23bd 4773 11be 0c30 523d
00000330: 96e1 fe3c 4055 ed3d 3858 0ebe adc9 e2bd
00000340: 6901 ac3d 718c e6bd 93c5 dc3c 1845 8e3d
00000350: 57c9 a33d 7baa 93bd 406b 76bd f977 483d
00000360: 771d 14bd 698f 0bbd b4cf c2bd 20ca 35bc
00000370: ab92 af3d 81de 5f3c c10e 4ebd 5e7e 2ebe
00000380: 534a ccbd b35f 883d c103 8fbb 3a83 94bd
00000390: 61fd 8c3d 5445 6dbc b7e9 1abe 4063 e0bd
000003a0: efce 44be 6ae6 87bd 0214 2f3d 7949 14be
000003b0: 8aff 3e3d 6dd1 2abd ba24 da3c 0c22 88be
000003c0: 67d1 8bbd 4f1b 27be 69b1 75bb 97eb a0bc
000003d0: a9ab 84bd e660 38be d71c 86bd 11b5 ab3d
000003e0: 2fb6 6dbd 5005 f73c c0c1 5d3d b770 1abb
000003f0: 0087 3f3d 5a24 e2bc dfe6 7ebd 1cff d6bd
-0.0832426 -0.062795885 -0.020803707 0.09990246 -0.12347555 -0.083098695 -0.084736794 -0.108204074
-0.07884778 0.031042846 0.110397264 0.032061756 0.102903634 0.07492873 0.07437631 0.0045848847
0.023006331 -0.07100605 0.09703899 0.05640265 -0.04135609 -0.08630697 0.050384488 0.029952409
0.006838679 -0.026302425 0.10653433 -0.053000037 0.056628678 0.060307797 0.0670479 0.014167876
-0.19677997 -0.07763105 0.01503387 0.10426596 -0.06593184 -0.09076705 -0.037698057 0.1897379
-0.090315394 -0.0337655 0.11732106 -0.062486645 -0.12512587 0.0436182 -0.15781355 0.07864111
-0.13139112 -0.1512797 0.06561542 -0.107592866 -0.03956863 -0.09563471 0.024561208 0.055985413
0.06561411 -0.13722394 -0.02970972 -0.1070849 -0.089746304 0.08033437 0.02602124 -0.08161795
0.036762014 0.026295485 -0.01631664 -0.023984622 0.1120384 -0.094733685 -0.1579332 -0.011676203
-0.17340845 0.0685323 -0.013461837 -0.1634597 0.009648465 0.09474788 0.07339619 0.107731916
-0.11543539 0.13138753 0.0018098794 0.04196006 0.07298577 0.09642846 -0.06722344 -0.17281784
0.04905797 -0.09325922 -0.16299866 0.036767278 -0.0013759725 -0.031662676 0.04588028 -0.08283402
0.060762394 -0.085497476 0.050175484 -0.16127151 0.0012995462 0.07117094 0.06852596 0.01311039
0.06160328 -0.12007721 -0.09087002 -0.0320756 0.02803755 0.04873482 -0.06334497 0.036134668
-0.012129536 0.03161433 -0.0022689998 0.0628792 -0.10932321 -0.011583492 0.077439 -0.13691404
0.038157854 -0.17032184 0.048379995 0.038738426 0.028069204 -0.1667699 0.026785852 -0.13240905
-0.046888314 0.0012566398 -0.010494578 0.0065483446 0.10097067 0.04562222 0.030266143 0.0642189
0.10120085 -0.17420658 0.076512225 -0.20715477 -0.14000732 -0.07502979 0.040065154 -0.16944437
-0.023641584 0.058599893 -0.12476719 0.054305837 0.08111819 0.13068333 -0.14685446 -0.265465
0.038799826 0.052422464 -0.1673623 -0.09120874 -0.08792867 -0.003106574 -0.20216556 -0.05378217
0.12338836 -0.0139716575 0.097018935 0.016396327 -0.07454627 0.07442675 -0.047104917 -0.14179243
0.04137424 0.050932642 -0.17538811 -0.099948615 -0.119748995 -0.08486541 0.018793762 -0.19583145
0.022690775 0.09367061 0.020744147 0.056581914 -0.083149426 -0.04673071 -0.15355104 0.07416277
-0.11225607 -0.03046434 -0.0022958827 -0.11216272 0.047145292 -0.07255512 0.06561477 -0.04869889
-0.1394794 -0.15226744 -0.078445725 0.060283758 -0.18309511 0.036051877 0.049415473 -0.0030704623
0.009197649 -0.039872523 -0.14204131 0.051315352 0.031113427 0.11588526 -0.1390084 -0.11073623
0.083987065 -0.11257256 0.02694968 0.06946772 0.07997387 -0.07210251 -0.060160875 0.04894254
-0.036160912 -0.034072313 -0.095122725 -0.011095554 0.085728966 0.013663889 -0.05030704 -0.17040393
-0.09975114 0.06658878 -0.004364461 -0.07251592 0.06884266 -0.014481861 -0.15128218 -0.109564304
-0.19219564 -0.06635745 0.04274369 -0.14481153 0.04663042 -0.04170363 0.02662884 -0.26588476
-0.0682705 -0.16319011 -0.0037489778 -0.019643588 -0.06478054 -0.18005714 -0.065484695 0.08384145
-0.058035072 0.0301539 0.054139853 -0.0023565718 0.046759605 -0.027605224 -0.062231895 -0.10497877

fc2.bias f4 [10]
00000000: bb5b a9bc fa78 55bc 3660 193d 2ed7 153c
00000010: dcc0 843d 07d3 a43d e362 f13c f165 c5bd
00000020: dc9b 3b3d 6550 11bd
-0.020673623 -0.013029331 0.03744527 0.009145541 0.064820975 0.08048063 0.029466098 -0.096385844
0.045802936 -0.03547706
