simulation/saved_models/global_model_delta_11-26_12-03.pth (torch, 409416 bytes, 4 tensors)

fc1.weight f4 [128, 784]
00000000: bf11 0a3d 2e9e 73bb 9cdc bdbc 51df 81bc
00000010: 24a7 c8bc 9d1d 8cbc a65c 31bb 26e1 a4b9
00000020: 9364 8ebb 2fbe 233c 9517 2cbb 7422 72bc
00000030: f421 f33b 844b ab3a 79c9 0cbd 047f 453c
00000040: 56f4 02bb 87f0 c03c c707 febc 8ac3 2f3b
00000050: 5843 98bc d4a9 4ebc f85f 93bc 7c9c 7abc
00000060: 21c9 a9bc fba5 f3bc 9bcc 26bc 1412 5e3c
00000070: bb9c 2fbc b963 0ebd 7900 e73c 3923 4abb
00000080: 2a8a d9bc 7ae8 be3c b59c f73b eea7 91bc
00000090: dacf ae3b 0af0 0e3d 25b6 f8bc 2678 d5bc
000000a0: eed0 f4bc 05d8 3fbc 87e1 0c3c 6070 c63c
000000b0: 99ed 2a3c 2e93 2f3c c5b8 f0ba 5cab 9c3c
000000c0: 601b 693b f74c b73c a868 e239 3cf8 3ebc
000000d0: 0da9 5dbb a4ac d03c 9c39 063d f7eb 0a3b
000000e0: c5b0 30bc b254 dd3c a455 f63c d749 b33c
000000f0: e9ca 4a3b 2ec0 603c 649f 443c f4f5 4dbb
00000100: 72f4 c83c 5b50 88bb 77ef e9bc de55 fcbc
00000110: 9564 f5bc ab12 453c 399c 11bd d19b 80bc
00000120: c53a a8bc 1bd4 683c 4389 aabc 97e7 63bb
00000130: 3cb8 fb3b b072 a73b a4ad be3c f695 c5bc
00000140: 9f8b 91bc e457 ccba 9ea8 6d3c 425f fcbb
00000150: eb04 f6bc 2c00 afbc 34c3 073d d41d b1bc
00000160: a143 e1bb cb0f 8bbc 8ce7 ec3c f0fd e9bc
00000170: a229 f03b b178 a03c 61f7 c93c 4b75 343c
00000180: d4e5 ea3c 24ca 133d 0a1c 953b 0cc2 e33c
00000190: b7c5 9dbc 9b09 013b 2858 09bd 793c fb3c
000001a0: a9bc e73b a2f4 4fbc a1e8 2dbb 1035 f93c
000001b0: 2d95 d83c ad52 30bc 04c5 de3c d925 02bd
000001c0: 0e0c e33a 5bdf 3d3c ae39 edbc e79c d73c
000001d0: 581d 333c e9fe 2f3c c10c d8bb 749a 343c
000001e0: 7480 12bc a437 0d3c d451 22ba af63 033d
000001f0: e9ef ad3c 8eac ef39 6981 17bd fa16 4cbb
00000200: fc5b 0abd 747d e8bc a4ef 843c f453 853c
00000210: f368 18bd b985 77bc 7ee4 2a3b f2ac 043d
00000220: abdc 6cbc 095c 023d 441b e7b9 7d0c 033c
00000230: 3447 c3bc a940 0abc 943f f1ba d486 3e3c
00000240: de10 883b 563b c3bc 59f8 fe3c b83a a73c
00000250: 95dd a8bc d864 8aba ac93 fdbb 8cb5 05bc
00000260: 650b c8bb 8a46 dc3c c86c a33b 9543 0c3b
00000270: 840b 0abd 6cd8 dcbc ba69 c2bc 67bf 303c
00000280: af84 23bc 53f0 9a3a 58e2 08bd 9ea8 08bc
00000290: ecbf c3bc 1de4 bfba 4bcb 03bc 8cd4 093d
000002a0: 463e c3bc 6a5d b93c e249 073d ab5b 953c
000002b0: 0424 303c c54d 1a3d 207e bc3c cdf2 113d
000002c0: 45af bf3c da3b 343c 35c1 86bc c4e0 2e3c
000002d0: 4728 9f3c feec 1a3d 9ac6 043d a563 22bc
000002e0: f42e 023d c1d2 543c e4f3 e0bc 0ecd 81bb
000002f0: d9de 2dbd 92d4 883c b025 79bc 9799 cd3b
00000300: 0bd6 1dbd 2ec3 773c b233 0d3d 8dd5 d43c
00000310: dc38 b1bc 0184 00bd c45b ae3b 8930 0f3d
00000320: 8fc0 bf3c 54dd de3c 7c96 8d38 dc40 1a3c
00000330: e70b 2dbc 29d7 98bc dbf9 2f3d 87b6 debc
00000340: 47f2 e3ba 1bc7 f03a 851e c1bb 1441 983c
00000350: 2478 453d f7e2 9a3c de36 d63c 74f8 dfbc
00000360: 1b9c e63c 068f 5abc ee0f 31bd 2413 2ebd
00000370: f62b ad3c 5c11 ea3c 4327 33bc e35d 09bd
00000380: 5c53 ebbc 4c89 733c a4e6 6ebc 1e0f fc3c
00000390: 1bdc 333c 64b7 443c 0cd4 95bb 7fa4 c53a
000003a0: def8 d83c 7dc7 2f3b 1f1b 51bc eb39 0b3d
000003b0: 3ab0 a63b 8b7c 84bc 503b 03bc 930f 063d
000003c0: 0b86 203d 706b 3c3d f257 003d 400e 1c3d
000003d0: bda0 5bbc 2709 f4bc 8eea 83ba c92b d3bc
000003e0: 95fc d23c 64e1 c5bc 75ae 84bc b0e4 c53b
000003f0: 048c ba3c 9428 643c 1eb8 a03c 3e6e e53c
0.03370833 -0.003717314 -0.023176484 -0.015853556 -0.024493761 -0.017103964 -0.002706328 -0.00031448266
-0.0043454855 0.009994074 -0.0026259173 -0.014778722 0.007419819 0.001306877 -0.034371827 0.012054209
-0.0019982061 0.023552192 -0.031009568 0.0026819431 -0.0185868 -0.012613732 -0.017990097 -0.015296098
-0.020725789 -0.029742232 -0.010180618 0.013554115 -0.01071852 -0.03476307 0.028198468 -0.0030843748
-0.02655514 0.023304213 0.0075565227 -0.01778027 0.0053348364 0.034896888 -0.03036029 -0.026058268
-0.029884782 -0.011709218 0.008598692 0.024223506 0.010432624 0.010716243 -0.0018365612 0.01912468
0.0035569295 0.022375567 0.00043184054 -0.011655863 -0.0033822686 0.025472946 0.032769784 0.0021197775
-0.010784333 0.027017925 0.030070134 0.021885796 0.0030943698 0.013717694 0.012000892 -0.0031427117
0.024530623 -0.0041599697 -0.028556569 -0.030802663 -0.029955188 0.012028377 -0.035549376 -0.015699299
-0.020535836 0.014210726 -0.020817405 -0.003477549 0.0076818746 0.0051101074 0.023276158 -0.024119359
-0.017766772 -0.0015590158 0.0145055335 -0.0077017853 -0.030031642 -0.021362387 0.033145145 -0.021620668
-0.006874517 -0.016975304 0.028919004 -0.02856347 0.007329182 0.0195888 0.024654092 0.011014293
0.028674044 0.03608145 0.0045504617 0.02780249 -0.019259317 0.0019689563 -0.033531338 0.030668484
0.0070720506 -0.012692602 -0.0026536363 0.03042081 0.02643832 -0.010761899 0.027193554 -0.031774376
0.0017322318 0.011588897 -0.028958168 0.026319934 0.010932289 0.010741928 -0.0065933173 0.011023153
-0.008941758 0.008619223 -0.0006192003 0.032077488 0.021232562 0.00045714196 -0.03698865 -0.0031141625
-0.03377913 -0.028380133 0.01622755 0.016275384 -0.037209462 -0.015107566 0.0026076133 0.032391496
-0.014456908 0.031826053 -0.00044080068 0.007998583 -0.023837663 -0.008438268 -0.0018405789 0.011628825
0.0041524014 -0.023832005 0.03112428 0.020413741 -0.020613471 -0.0010558618 -0.007738551 -0.00816096
-0.006104874 0.026889104 0.004987333 0.0021402587 -0.03370239 -0.026958667 -0.023732055 0.010787821
-0.009980365 0.001182089 -0.033418983 -0.008340983 -0.023895226 -0.0014640127 -0.008044074 0.033649966
-0.023833405 0.022627551 0.033029445 0.018232187 0.010750774 0.037671823 0.02300936 0.035631943
0.023399005 0.011000598 -0.01644955 0.0106737055 0.019428385 0.03782367 0.032415964 -0.009911452
0.03178306 0.012989701 -0.027460046 -0.003961212 -0.042448852 0.016702924 -0.015206739 0.006274413
-0.038534205 0.015122218 0.03447313 0.025980735 -0.021633558 -0.03137589 0.005320998 0.034958396
0.023407249 0.027205147 6.751434e-05 0.009414878 -0.01056192 -0.018657284 0.04296289 -0.027186645
-0.001739093 0.0018369885 -0.005893531 0.01858572 0.04821028 0.018907053 0.02614921 -0.027340151
0.028150609 -0.0133397635 -0.043228082 -0.042498723 0.021139126 0.02857273 -0.010934654 -0.033536803
-0.028726272 0.014864277 -0.014581356 0.030768927 0.01097777 0.012006614 -0.004572397 0.0015078931
0.026485857 0.0026821785 -0.012762814 0.03399078 0.005086926 -0.016172668 -0.008009747 0.032729696
0.039190333 0.046000898 0.03133387 0.038099527 -0.013405022 -0.02978952 -0.001006441 -0.025777714
0.025755206 -0.024155326 -0.016196469 0.0060392246 0.022771843 0.01392569 0.019619044 0.02800667

fc1.bias f4 [128]
00000000: 458a 8dbc c789 55bc 0936 d0bc d70d 583c
00000010: 2505 a9bb f4e9 d13c 98ad a73c d476 c33a
00000020: 464c dd3c 9897 0fbb 788f 0fbd 5bc7 f6bc
00000030: 93cf ad3c 1f4e a83c 8bc4 6b3c 7ba3 71bb
00000040: 6b8c ffbc 8610 0dbd a569 723b 1154 01bd
00000050: bcb8 9e3c 1ab6 bcbc 08e7 d8bc 6015 05bd
00000060: 4b60 113d ce0a f53c e4e6 b1bc 7034 dbbc
00000070: 1a08 d33c 9cce a03b 7446 283c 21b1 953c
00000080: f28d a0bc 613a 4fbc 2699 073d 96ca 3b3c
00000090: 84ce 85bb d657 49bc cb49 863c 28e5 13bd
000000a0: bf40 a5bc e2b4 75bb 9526 99bc e92f 40bc
000000b0: 5db1 c93c 3f73 823c dc9b b43b 2c49 c43b
000000c0: 552c f73c e2a1 273c df74 02ba 9061 02bd
000000d0: b97d fdbb fbc0 ab3c fcaf 06bc 7ccf 05bd
000000e0: 9686 0c3c 0c6c 7f3c 3439 e83c 87cd 203c
000000f0: 8737 1e3c 47d0 61bc ce89 78bc 8100 d13c
00000100: f7b7 8abb 91ec 313c 3008 0cbd c5e2 8c37
00000110: 3613 d2bc a334 2fbd 976d a13c 977d 48bc
00000120: 05a5 0abd 754e 7c3c 2765 753c f44f b7bc
00000130: b4f2 82bc 8d7b 85b9 8714 babb db3c f1bb
00000140: d94a a63b c7ca df3c d123 2cbc e58e d0bc
00000150: cc38 b1bc 97c1 09bb bc1f b13c 2e09 a03c
00000160: 1f8d 01bc 8fa6 b33c c734 a9bc 524b 0e3b
00000170: 7eb3 e8bc a238 373c e40d dcbc a765 48bc
00000180: b33f 12bd 8de0 913c db6d 943c a217 a4bc
00000190: f01f 8c3c 3152 b3bc eb14 2e3b 8574 e63c
000001a0: 35af 07bd 85a7 013d 64bb de3c ce16 99bc
000001b0: 12cc bbbc 52fb b83c 549d 76bc 725c a43c
000001c0: e95a c13b 6c84 36bc 3438 943c 5623 d3ba
000001d0: fe18 063d a8ab 2cbc ecac 4bbc 598a f23b
000001e0: 45f1 ab3c 0204 2dbc e0ea c9bc bae3 0dbc
000001f0: a6e0 af3c a531 b2bc 7450 d6bc 2b7e 4f3b
-0.017277846 -0.013033337 -0.025416391 0.013186893 -0.005158084 0.025624253 0.020468518 0.0014912733
0.02701391 -0.0021910425 -0.03504893 -0.030124357 0.021217143 0.020545064 0.014390121 -0.0036871124
-0.031194886 -0.034439586 0.0036989239 -0.031574313 0.019375198 -0.023036052 -0.026477352 -0.032491088
0.035492223 0.029912379 -0.021716543 -0.026758403 0.025760699 0.0049074423 0.010270704 0.018272938
-0.019598935 -0.012648196 0.033105038 0.0114618745 -0.0040834565 -0.012289008 0.01639261 -0.036107212
-0.020172475 -0.0037491848 -0.018695155 -0.011730173 0.024620706 0.015924094 0.005511744 0.005990168
0.030172506 0.010231467 -0.00049765216 -0.031831324 -0.0077359346 0.020966044 -0.008220669 -0.032668576
0.00857701 0.015589725 0.02834759 0.009814627 0.009656793 -0.013782567 -0.015169574 0.025512936
-0.004233356 0.0108596245 -0.034187496 1.6794898e-05 -0.025643926 -0.042774808 0.019705577 -0.012236974
-0.03384878 0.015399565 0.01497773 -0.022376992 -0.01598487 -0.0002545979 -0.0056787166 -0.007361991
0.0050748405 0.027318371 -0.010506586 -0.025458762 -0.021633528 -0.002101993 0.021621577 0.019535627
-0.007907181 0.021930007 -0.020655049 0.0021712375 -0.028405901 0.011182936 -0.026862092 -0.012231267
-0.03570528 0.01780727 0.01811879 -0.0200308 0.017105073 -0.021889778 0.002656276 0.028131733
-0.033126075 0.0316539 0.027188964 -0.018687632 -0.022924457 0.022580776 -0.015052158 0.020063613
0.00590073 -0.01113997 0.018093206 -0.0016108553 0.03273868 -0.010538973 -0.0124313645 0.007401746
0.02098907 -0.010560038 -0.02464813 -0.008660251 0.021469425 -0.021752188 -0.02616141 0.0031660895

fc2.weight f4 [10, 128]
00000000: 4418 50bd 5c88 4b3c 211b 2f3d fc62 fbbd
00000010: f6e2 90bd 1215 3a3d d712 40be 53f2 5e3d
00000020: 4c5f 993e 2cd2 b3bd fb22 3a3c de19 ddbd
00000030: f168 913d f420 47bd d0e5 b13d 44b0 c43c
00000040: 8120 2abd 15e1 13bd cf7b 01bc 99ff 7b3c
00000050: dc69 9fbd 99ad 29be 5dec 523b a825 c4bb
00000060: a756 afbd 92fc 043b f62f 62bd f2fa 27be
00000070: f95f ecbc 6d9c 36bc 6fa2 94bd a42c 27be
00000080: 340c c63d d0a4 063c e63b 3bbe 3214 1abe
00000090: d8a3 dfbd 427d 3fbd 0c04 443d 10ba c03d
000000a0: 1039 29be ad1b 173d 6c34 9d3c 7ca3 acbd
000000b0: faaf 3e3d 2c9d 9cbd 2682 cc3c 53a7 8f3c
000000c0: 7a24 3c3c 0ef5 0c3d 8bd6 a6bd ef5d d1bd
000000d0: 05d0 f9bd 1f4b 39be 14cd 9b3d eb5e e43c
000000e0: 5c6d 8c3c 702c ffbd 9e7e ae3e 9014 073e
000000f0: c40f f23d 90c2 6e3d 2adc ac3c ee56 833e
00000100: bbf3 6f3d c4bc 743e fc54 b53e c720 923d
00000110: a4e1 2b3d 43f1 34be 4968 fe3d 6df1 19bc
00000120: fe49 41bd af32 22bc 398b 1abd 0066 26be
00000130: b296 6cbd 56e5 843c 3c04 41bd c7d3 64be
00000140: b65b cdbd e424 afbd 64c9 863d 447b b53d
00000150: 449d ba3d bcfe 153e e408 4ebe dc1d 6fbd
00000160: 62b7 bdbc dc20 59bc db64 203e f369 50bc
00000170: 1e83 eebd 96b9 a6bd d687 56bb 0dae c1bd
00000180: 66d3 8e3d 7e78 61bd 8113 e0bd 4878 453e
00000190: 94ee fabc 2028 2a3e b2b0 0ebe 2cee febd
000001a0: 9687 58be 090a 2b3e 21e1 92bd f479 77be
000001b0: 8cd2 1b3e e5c3 65bd d92e 43ba b176 503e
000001c0: 80dd 453d d14b 023e 3672 9dbe 0ca0 5abd
000001d0: ba37 b83d 8b81 efbc 3200 3fbd b954 6c3e
000001e0: d930 f43c abba 363e e45e 76bd 8331 dfbc
000001f0: 074f f6bd 0d2c 923c ddbc aabc 15c0 2fbc
00000200: 846e 30bc 44db 78bd fb79 56bd a041 283d
00000210: 89f7 0e3e c06b 2fbe 9698 b73d 347f 1fbe
00000220: 523d f3bd 57ea 30bd 1fda b53d c587 22bd
00000230: e932 75bd 620f 693d 9c95 10be fa87 05be
00000240: 0123 8dbd 03d4 973d 9c4a cebc ab0d 3abd
00000250: e9e6 a6bd e139 34be ecc0 8fbd 14e0 5e3d
00000260: c2a0 c5bd 1b61 6e3e 2834 393d 896e 743e
00000270: f276 11be cd7e 303d ccd9 42bc 0247 eabd
00000280: dfa2 b2bd 4f77 5b3d 058e 403e 81c4 203e
00000290: 3bfb b2bd b5ba eabb e21a 8e3d 3919 e7bd
000002a0: 0f7c ca3d fa4c 293d 4323 103e 004d 55bd
000002b0: 19b6 b73c 74cb 903c 3c74 d23c 517b 8d3d
000002c0: 4a60 e13d 3f8c 3d3d c44c 963d e955 583d
000002d0: 0425 04be 4ba0 183e 7c6b 543d 32ad e83c
000002e0: ca7e 2ebe 7290 6bbd 41dc 42be f398 97bd
000002f0: 6c27 0a3e 8bf8 85bd 44e7 62bd 49ae 05be
00000300: 5859 1ebe 7f24 47bd 0523 77bd 3de4 97bc
00000310: e76f a7bd 3431 343e 8f9f 84bc 3950 783d
00000320: 35db 123d d999 05be ad39 8e3d b707 e2bd
00000330: c5a8 0a3d da28 c33c 63bc 86bb 65b2 343e
00000340: 94b1 19be 9dc1 b0bd f36e ab3d fd08 913c
00000350: 8c67 be3b 3e2d 39bd 89b5 a23e b8be e23b
00000360: 1c2a e43c 43cc dc3d 0374 9cbd 96e3 593e
00000370: 59a9 eebc 55c6 493e 4b93 6fbd 776d 9f3d
00000380: d244 ac3c 13f7 91bc 530a 243d cc03 bcbd
00000390: 4e37 69be 26a0 0ebe bff6 e1bd 1e2b 52be
000003a0: 7b04 6b3e f11d 103d 1fbd 25bc 995f 7d3e
000003b0: d78e 43bd 6ae4 b5bc 0ffe a1bd b424 b8bd
000003c0: b2d2 8a3d 1369 abbd 657c a23d acd1 21bb
000003d0: eece 88be 0756 4c3d ba96 bd3d 141d 2abe
000003e0: dcca a53d c429 fbbc ba1b 19be b61e 3cbe
000003f0: 75cb 96bd d79f 873d 5ba5 bc3d 647b 3c3e
-0.05080439 0.012422647 0.04275048 -0.12274739 -0.07074539 0.04543025 -0.18757187 0.054430317
0.29955518 -0.087803215 0.011360879 -0.107959494 0.07100094 -0.04861541 0.086864114 0.024009831
-0.041534904 -0.036103327 -0.007903053 0.015380763 -0.07783863 -0.16570129 0.003218434 -0.0059859343
-0.085614495 0.0020292145 -0.05522152 -0.16404322 -0.028854357 -0.011145693 -0.07257544 -0.16325623
0.09670296 0.008218005 -0.18284568 -0.15046766 -0.109199226 -0.046750315 0.047855422 0.094104886
-0.16525674 0.036891628 0.019190036 -0.0842962 0.046554543 -0.07647166 0.024964403 0.017535841
0.011483306 0.03441339 -0.081463896 -0.102229945 -0.1219788 -0.18095063 0.07607475 0.027877292
0.01714199 -0.12459648 0.34080976 0.13191438 0.11819413 0.058291018 0.021101076 0.2565226
0.05858205 0.23900133 0.354164 0.07135158 0.041963235 -0.17670159 0.124222346 -0.009395939
-0.047189705 -0.009899779 -0.03773043 -0.16249847 -0.0577609 0.016222637 -0.04712318 -0.22346412
-0.10027258 -0.08551958 0.06581381 0.08861402 0.09112027 0.14647955 -0.20120579 -0.058378085
-0.023158733 -0.013252463 0.15663473 -0.012720573 -0.11646102 -0.081408665 -0.0032734773 -0.09457026
0.06973915 -0.05504655 -0.1094122 0.19284165 -0.030631341 0.16616869 -0.13934591 -0.124477714
-0.21145472 0.16703047 -0.07171846 -0.24167615 0.15217036 -0.056095023 -0.00074456405 0.20357777
0.048306942 0.12724234 -0.307512 -0.05337529 0.08995004 -0.029236576 -0.046631046 0.23079194
0.029808449 0.17844646 -0.06014909 -0.027245289 -0.12026792 0.01784327 -0.02084201 -0.010726948
-0.0107685365 -0.060755983 -0.052362423 0.04107821 0.13961615 -0.17130947 0.0896465 -0.15575868
-0.1187693 -0.043192234 0.08879494 -0.03968026 -0.059863005 0.056899436 -0.14119571 -0.13040152
-0.06891442 0.07413485 -0.02518206 -0.04542319 -0.08149511 -0.17600204 -0.07019219 0.054412916
-0.09649803 0.2327923 0.045215756 0.23870291 -0.1420553 0.043089677 -0.011892747 -0.11439325
-0.087224714 0.05358058 0.18804176 0.1569996 -0.08739325 -0.0071633705 0.06938721 -0.11284108
0.098869435 0.041333176 0.14075951 -0.052075386 0.022425698 0.017675139 0.02569019 0.06908286
0.11004694 0.046276327 0.07338861 0.052816305 -0.12904745 0.14904897 0.051860318 0.028402898
-0.17040554 -0.0575108 -0.19029333 -0.074022196 0.13491601 -0.065415464 -0.055396333 -0.13054766
-0.1546377 -0.04861879 -0.06033613 -0.01854145 -0.081756406 0.17596895 -0.016189365 0.06062338
0.035853583 -0.1304697 0.069445945 -0.11036628 0.033852357 0.02382319 -0.004111813 0.17646177
-0.15009147 -0.08630679 0.08370771 0.017704481 0.0058106836 -0.045209162 0.31779125 0.006919708
0.02785211 0.10781147 -0.07639315 0.21278223 -0.029133486 0.19704564 -0.05849008 0.07784551
0.02102891 -0.01781801 0.04004891 -0.09180412 -0.22775003 -0.1392828 -0.11033391 -0.2052426
0.22950928 0.035184804 -0.010115891 0.24743499 -0.047743645 -0.022203643 -0.07909786 -0.089913756
0.06778468 -0.08369651 0.079338826 -0.0024691625 -0.26720375 0.04988673 0.092572644 -0.16612655
0.08095333 -0.030659564 -0.14951983 -0.1837109 -0.07363025 0.06622284 0.092112266 0.18406445

fc2.bias f4 [10]
00000000: d4ba c7bd c982 6abd ae7a f93c e4f0 96bc
00000010: 2e38 ca3c 00c6 d73d 6c61 f7bc a4b3 ffbb
00000020: 1dfc bc3d 8e2a be3c
-0.097524315 -0.057253633 0.030454006 -0.018425412 0.024684992 0.105358124 -0.030197822 -0.0078033973
0.09227774 0.023213651
