simulation/saved_models/global_model_beta_1732424419.pth (torch, 409400 bytes, 4 tensors)

1.weight f4 [128, 784]
0.02588382 0.010559165 -0.017479243 0.019268902 0.026336823 0.023922207 0.009069839 0.028736476
0.026471373 0.016586991 -0.005985514 -0.008664711 -0.008207479 0.013064729 -0.027011309 -0.015737845
-0.01046528 -0.025636707 -0.011051953 -0.014605479 0.016285257 0.0036352952 -0.010067553 -0.022568448
0.026223455 -0.018696083 0.007936292 -0.013970314 0.034994032 -0.008501836 0.018260954 -0.026633296
-0.023188593 -0.025912847 -0.017436264 -0.010033398 -0.017747639 -0.016246838 -0.013123227 0.010408119
-0.026208643 0.0038076486 -0.0073404675 0.017503886 0.0070967907 0.037072424 -0.018749075 -0.012281255
-0.030823532 -0.0101564685 -0.021873606 0.008704378 0.012513159 0.013584435 0.028856393 0.03804141
0.0035291617 0.038689557 -0.0005319892 -0.0033580284 -0.028426114 0.020572605 0.022416683 0.025896665
0.025737379 -0.016278861 -0.03037354 0.0034062788 0.021163134 -0.003239255 0.033803497 -0.010863184
-0.030414078 0.0046041426 0.03845006 0.019633396 -0.0046350886 0.0138991475 0.036397602 0.011908694
-0.019394414 0.022036998 0.013536541 -0.0075029572 0.0365262 -0.0010536007 0.02800199 -0.021057816
0.029957686 0.008899436 0.0077114636 -0.019080268 0.01625535 -0.0058562537 -0.027190145 -0.00978616
-0.020902304 0.014494883 0.025291052 -0.024258854 0.0063346485 -0.027716871 0.002316978 -0.004115142
-0.009144603 0.027236696 -0.017901273 0.015761314 0.032438513 0.015627114 0.0059333523 0.026149485
0.02082585 -0.002436064 0.014316412 -0.021317987 0.013930367 0.018405376 -0.00683242 -0.02897695
0.038506653 -0.00048629806 0.010517702 -0.027437747 0.02827191 -0.017276345 0.026696239 0.0003467167
0.015805779 0.03764343 -0.0061732163 -0.01148668 0.021200018 -0.012032346 -0.016420022 -0.021357505
0.032736834 0.0027601102 0.010426388 0.025769021 0.015025198 -0.0094048465 -0.014934568 0.02691004
0.027772006 -0.016597273 0.028717343 -0.017962812 0.007464907 0.03386921 0.01917635 0.0037288698
0.026259389 0.030250128 0.021908851 -0.02803981 -0.029121723 -0.0012922735 0.0121693155 0.036891464
-0.00783898 0.03119028 0.0054346803 0.0022464504 -0.0034718025 -0.02826545 -0.025004182 0.019978898
0.028123584 0.039058838 -0.00951621 0.0051958677 -0.018544646 -0.022260578 -0.029463504 0.01772113
-0.010543018 -0.035856005 -0.034157272 -0.0014065374 -0.029715423 -0.013350649 -0.032044355 0.031905115
0.019336922 0.0035821092 0.00455857 -0.018218128 0.011197968 -0.026784603 0.03406245 -0.015431808
0.03269538 0.025747273 0.0073518967 0.02196583 0.034659747 -0.030211952 0.019374402 -0.020622136
-0.023017405 0.0040775347 0.026514623 -0.021708785 -0.013394268 0.031425115 0.01963702 0.014317719
-0.015707416 0.020797072 -0.0033746553 0.03191781 -0.02523509 -0.0219851 0.011934339 -0.007964426
0.00023903232 -0.013619823 -0.025510639 -0.008066648 0.03274825 -0.008021279 -0.0293614 0.037060414
0.024997381 0.010200373 -0.024864344 0.03053495 -0.011944412 -0.023827909 -0.02577341 -0.010665567
0.01756573 -0.012755541 -0.034265105 -0.011432872 0.025879916 -0.0064749485 0.028709259 0.023208646
0.0043756743 0.0042486717 0.0021654142 0.026604619 -0.008059555 -0.03109676 0.016071903 -0.025072161
0.022708492 0.004910045 -0.017606987 0.011424796 0.026588555 -0.025429096 0.026674453 0.021953257
00000000: 4e0a d43c 5900 2d3c a130 8fbc d1d9 9d3c
00000010: 52c0 d73c 81f8 c33c a999 143c c268 eb3c
00000020: 7eda d83c 71e1 873c 2122 c4bb 6ff6 0dbc
00000030: a978 06bc 720d 563c d246 ddbc a7ec 80bc
00000040: 9176 2bbc 1204 d2bc 4013 35bc d24b 6fbc
00000050: a968 853c 223e 6e3b 61f2 24bc 77e1 b8bc
00000060: 92d2 d63c 8728 99bc 3907 023c bee3 64bc
00000070: e755 0f3d 494b 0bbc ff97 953c 122e dabc
00000080: 01f6 bdbc 2e47 d4bc 7fd6 8ebc 1f63 24bc
00000090: 7f63 91bc 1718 85bc ce02 57bc d186 2a3c
000000a0: 82b3 d6bc be89 793b 4e88 f0bb 4f64 8f3c
000000b0: 328c e83b 41d9 173d a997 99bc 5137 49bc
000000c0: a281 fcbc 5167 26bc 4730 b3bc cf9c 0e3c
000000d0: fe03 4d3c 4091 5e3c 3e64 ec3c 4fd1 1b3d
000000e0: 8249 673b f178 1e3d 3175 0bba 5e12 5cbb
000000f0: e2dd e8bc e187 a83c 31a3 b73c 3e25 d43c
00000100: 32d7 d23c 3f5b 85bc eed1 f8bc e03b 5f3b
00000110: 4f5e ad3c ae49 54bb 8975 0a3d 7ffb 31bc
00000120: f226 f9bc 59de 963b cf7d 1d3d 37d6 a03c
00000130: f1e1 97bb 40b9 633c a715 153d af1c 433c
00000140: 09e1 9ebc ef86 b43c 5ec8 5d3c 5edb f5bb
00000150: 7f9c 153d f918 8aba 6e64 e53c 7181 acbc
00000160: d269 f53c f1ce 113c 72b0 fc3b 394e 9cbc
00000170: f129 853c d1e5 bfbb debd debc 2156 20bc
00000180: 4f3b abbc f27b 6d3c 2e2f cf3c 81ba c6bc
00000190: e292 cf3b 7e0e e3bc 71d8 173b 50d8 86bb
000001a0: 3fd3 15bc 7e1f df3c b1a5 92bc df1d 813c
000001b0: 3fde 043d 6f04 803c 916c c23b 7237 d63c
000001c0: f99a aa3c 5fa6 1fbb 628f 6a3c 0fa3 aebc
000001d0: 323c 643c dfc6 963c 7ee2 dfbb 1261 edbc
000001e0: 27b9 1d3d d2f5 feb9 7152 2c3c 20c5 e0bc
000001f0: 7e9a e73c 1f87 8dbc 12b2 da3c 87c7 b539
00000200: 1f7b 813c ff2f 1a3d b148 cabb a132 3cbc
00000210: a9ab ad3c 5123 45bc 4883 86bc eff5 aebc
00000220: 0f17 063d f7e2 343b 71d3 2a3c 8e19 d33c
00000230: 402c 763c c916 1abc 1eb0 74bc 7272 dc3c
00000240: 1e82 e33c 01f7 87bc a240 eb3c bf26 93bc
00000250: 2e9c f43b 71ba 0a3d b917 9d3c 0e60 743b
00000260: ee1d d73c 1ecf f73c 317a b33c beb3 e5bc
00000270: ae90 eebc 8161 a9ba cf61 473c 811b 173d
00000280: 116f 00bc c282 ff3c 6715 b23b 2f39 133b
00000290: 2e87 63bb f28c e7bc 92d5 ccbc c9aa a33c
000002a0: 6e63 e63c 29fc 1f3d e1e9 1bbc 1942 aa3b
000002b0: f1ea 97bc d15b b6bc 725d f1bc e72b 913c
000002c0: 9fbc 2cbc bfdd 12bd 7fe8 0bbd 905b b8ba
000002d0: c26d f3bc aebc 5abc f140 03bd f0ae 023d
000002e0: 7768 9e3c d2c1 6a3b 0f60 953b 2f3e 95bc
000002f0: af77 373c 626b dbbc 1185 0b3d b2d5 7cbc
00000300: 97eb 053d f2eb d23c 2ee8 f03b aff1 b33c
00000310: 61f7 0d3d 0e7f f7bc 11b7 9e3c c1ef a8bc
00000320: ff8e bcbc d79c 853b 3235 d93c 9fd6 b1bc
00000330: a273 5bbc 9fb7 003d d1dd a03c de94 6a3c
00000340: d7ac 80bc 9f5e aa3c 5229 5dbb 40bc 023d
00000350: d2b9 cebc 191a b4bc 3f88 433c 397d 02bc
00000360: c0a4 7a39 ae25 5fbc b0fb d0bc f929 04bc
00000370: 0723 063d af6b 03bc 5287 f0bc a9cc 173d
00000380: 4fc7 cc3c 771f 273c 4fb0 cbbc 6e24 fa3c
00000390: 7fb2 43bc bf32 c3bc c222 d3bc a1be 2ebc
000003a0: 01e6 8f3c 9efc 50bc 9159 0cbd f150 3bbc
000003b0: 1e02 d43c ce2b d4bb ae2f eb3c 0f20 be3c
000003c0: d161 8f3b 7138 8b3b 9fe9 0d3b eef1 d93c
000003d0: 390c 04bc a2be febc 39a9 833c 2264 cdbc
000003e0: 2907 ba3c 71e4 a03b 873c 90bc 112f 3b3c
000003f0: 3ed0 d93c ae50 d0bc 6284 da3c 51d7 b33c

1.bias f4 [128]
-0.030200962 -0.021819323 0.014111811 0.022544533 -0.019482978 0.010913983 -0.05199367 -0.0099023385
0.017897667 -0.0553173 -0.02259303 0.015435884 -0.0008087604 -0.012320018 -0.010934063 -0.034069363
0.003309081 0.006381782 0.00039294251 -0.036216475 -0.004276489 0.008690371 0.01682619 -0.040002085
-0.034245364 0.02114585 -0.018410742 -0.033884514 -0.008762947 -0.016914234 0.02118505 -0.027066141
-0.0076968772 0.024084928 0.0061521167 -0.016976386 0.023993561 0.0057370355 0.028722333 -0.010929029
0.006874433 -0.031797424 0.0036142215 -0.023955796 -0.032857247 -0.03009812 -0.033948112 0.0152705405
0.017137332 0.0043186685 0.04432287 0.019019393 -0.024824841 -0.039020184 -0.0038046874 -0.0051822783
-0.0041358005 0.017593129 -0.03276625 0.0004206321 -0.0408 -0.027800377 -0.030170541 0.01946433
-0.007911557 0.0115062725 -0.028304078 -0.013413734 0.0040894174 -0.005741758 -0.01206306 -0.033859164
0.02813444 -0.007822596 0.020200033 0.009960524 -0.032782488 0.0069553275 0.01055745 -0.028529638
-0.032550246 -0.005638338 -0.021750819 0.025806597 0.014901821 0.011261036 -0.00059217506 -0.013873832
-0.01340675 0.029492509 0.020514725 -0.0019161425 0.024766453 -0.030813746 0.011219975 0.001287073
-0.013227322 -0.035786632 -0.017180765 -0.044510517 -0.0064329263 -0.04925139 0.008388941 -0.016242541
0.0053160414 0.03578621 0.009174043 0.03095341 0.015523555 -0.01709393 -0.023235532 -0.005010568
-0.013365986 -0.010924571 0.019946067 0.024691794 -0.029531296 0.022719778 0.0058646034 0.018915443
-0.032588784 0.008443366 -0.009298073 0.015222525 -0.028241115 -0.039885364 0.032351743 0.017820014
00000000: 0268 f7bc 70be b2bc 3a35 673c 50af b83c
00000010: c49a 9fbc 90d0 323c 51f7 54bd 6b3d 22bc
00000020: 219e 923c 6594 62bd 0515 b9bc cae6 7c3c
00000030: fe02 54ba e7d9 49bc c924 33bc 518c 0bbd
00000040: 2bdd 583b 441e d13b da03 ce39 ba57 14bd
00000050: ca21 8cbb 0f62 0e3c 14d7 893c 3ad9 23bd
00000060: de44 0cbd 103a ad3c 20d2 96bc 7dca 0abd
00000070: 7792 0fbc b88f 8abc 458c ad3c d0b9 ddbc
00000080: 1636 fcbb c14d c53c b297 c93b 1012 8bbc
00000090: 258e c43c befd bb3b 194b eb3c ac0f 33bc
000000a0: ec42 e13b 043e 02bd 93dc 6c3b f23e c4bc
000000b0: 5295 06bd 5590 f6bc 2d0d 0bbd 4a31 7a3c
000000c0: 9763 8c3c 9e83 8d3b e68b 353d 8fce 9b3c
000000d0: 775d cbbc a1d3 1fbd 1058 79bb 1ad0 a9bb
000000e0: 9c85 87bb 771f 903c e735 06bd 4988 dc39
000000f0: e71d 27bd 9ebd e3bc 3628 f7bc a973 9f3c
00000100: 7a9f 01bc ce84 3c3c f4dd e7bc 47c5 5bbc
00000110: 8500 863b 5b25 bcbb 24a4 45bc e8af 0abd
00000120: 327a e63c 582a 00bc 8a7a a53c 7731 233c
00000130: ee46 06bd 84e9 e33b 28f9 2c3c fdb6 e9bc
00000140: 6853 05bd cfc1 b8bb c62e b2bc 5b68 d33c
00000150: c426 743c 3580 383c 323c 1bba 124f 63bc
00000160: fca7 5bbc 469a f13c 7f0e a83c 1327 fbba
00000170: 04e3 ca3c 1c6d fcbc fcd3 373c 01b3 a83a
00000180: 69b7 58bc 0195 12bd adbe 8cbc a950 36bd
00000190: 4ccb d2bb d3bb 49bd c571 093c 140f 85bc
000001a0: 3032 ae3b 9094 123d ba4e 163c 0192 fd3c
000001b0: 8256 7e3c 9208 8cbc 7158 bebc b12f a4bb
000001c0: 02fd 5abc f9fc 32bc ef65 a33c 7246 ca3c
000001d0: 9eeb f1bc d41e ba3c dc2b c03b 8ff4 9a3c
000001e0: d17b 05bd 0b56 0a3c f256 18bc e667 793c
000001f0: e959 e7bc d65e 23bd 4383 043d 47fb 913c

3.weight f4 [10, 128]
-0.04270989 -0.90045476 -0.08556317 -0.28195947 -0.059152104 -0.21436927 0.20875485 -0.27355164
-0.26889104 -0.4816889 -0.18567383 -0.22416851 0.01800677 0.13508607 -0.06730235 0.02547038
-0.030976458 0.1029398 0.20528528 -0.106246516 -0.36752367 -0.17009568 0.67500496 -0.13660857
-0.041684512 0.6048939 0.36295062 -0.089859076 0.029550552 0.034629494 -0.05349198 -0.13095605
-0.033965144 0.06404842 -0.27056736 -0.11841488 0.29613748 0.35158327 -0.031171057 0.4854213
-0.10027435 -0.4259271 -0.3803678 -0.1761553 0.48841736 0.06288094 -0.105021976 -0.07612777
-0.019728666 -0.79087514 0.5272711 -0.3262899 -0.19796333 -0.10231842 0.14579688 0.03564116
0.09757371 0.0114406925 0.055394 -0.12269911 -0.13868992 0.007894048 0.07408491 0.04300475
0.16659269 -0.021048648 -0.14259443 -0.17597918 0.07143264 -0.15583846 -0.3851392 0.039871547
-0.070873074 0.46892923 0.27017692 -0.05765063 0.28158054 -0.19542783 -0.025120169 0.22830138
-0.1442082 0.057029717 -0.0065737404 0.028803075 0.14716582 0.029090691 0.028075472 -0.038653787
-0.38284937 -0.08720345 -0.091623425 -0.072247155 0.58845395 -0.01688661 -0.5060447 -0.078589216
0.28089693 -0.020453582 0.22561611 -0.27436948 0.22659184 -0.07830762 0.3535211 -0.10241824
-0.25923705 0.51627487 -0.23304659 -0.19405101 -0.12314821 -0.30519658 -0.034348574 0.065875046
-0.034969147 -0.22828043 -0.05886106 -0.025180135 0.06274392 -0.08787143 -0.10792918 -0.040122326
0.17825647 -0.010188055 -0.4721246 0.25216222 -0.09224346 0.3261394 0.58151615 0.26458848
0.038000856 0.04844147 0.061899215 -0.07406259 0.24064475 -0.05283907 0.11944416 0.19703196
0.17954409 -0.13083985 0.30782735 -0.08055161 -0.03736374 0.13179529 0.002564235 -0.017231615
0.00041108645 -0.40626112 -0.05488512 0.455358 -0.01888991 0.16431065 0.105312645 0.52834475
-0.25684714 -0.14676253 -0.30096442 -0.062918216 0.3015453 0.12608694 -0.026391875 -0.13237773
0.04987282 -0.018729093 0.22444507 -0.0640809 -0.48824638 0.11653478 0.070289485 -0.07572069
-0.029800791 0.05719251 -0.28711483 0.29207832 -0.24744318 0.014562266 0.23192808 -0.3018455
0.11292657 0.10262903 -0.2539313 -0.055055134 0.26639152 -0.01133629 0.050216757 -0.043328192
-0.35957003 -0.04667778 -0.07316459 -0.17569965 -0.050841525 0.01831472 -0.06897349 -0.0017588793
-0.27429396 -0.056216486 0.35294127 -0.016170058 0.047543645 -0.15467568 -0.09674895 0.069671296
0.045785844 -0.12273669 0.008284161 -0.11359721 -0.46156496 0.7607804 0.024567125 0.31752402
0.2848482 -0.02296028 -0.104728386 0.20739771 0.054079242 -0.080526076 0.022029804 0.30410752
0.18611714 0.018638162 -0.003601126 -0.019692475 0.12554717 -0.070629254 0.03842994 0.13484378
0.013654472 -0.09356376 -0.18015958 0.062019214 0.17683741 -0.0035050209 -0.27673158 -0.076897666
0.011633534 -0.11662944 -0.029454296 0.026161522 0.2202193 -0.066828534 0.07019817 0.39826673
0.04800212 -0.11427863 -0.19717184 -0.0063539827 0.045783937 0.028745808 0.48114806 0.012929974
0.044087846 -0.11673394 0.13401014 0.06806213 0.56003606 0.091052055 -0.079150476 0.010027935
00000000: 91f0 2ebd 3484 66bf be3b afbd fe5c 90be
00000010: 7a49 72bd 9e83 5bbe d5c3 553e f60e 8cbe
00000020: 16ac 89be ed9f f6be 4821 3ebe 6e8c 65be
00000030: ef82 933c 0154 0a3e d1d5 89bd 42a7 d03c
00000040: 57c2 fdbc 1ad2 d23d 4e36 523e c697 d9bd
00000050: 102c bcbe 902d 2ebe 20cd 2c3f 1ee3 0bbe
00000060: 61bd 2abd 54da 1a3f aad4 b93e 0908 b8bd
00000070: 0014 f23c a8d7 0d3d 681a 5bbd 5819 06be
00000080: 091f 0bbd d12b 833d ce87 8abe 8083 f2bd
00000090: 559f 973e b902 b43e 725a ffbc 2489 f83e
000000a0: a35c cdbd 1e13 dabe 91bf c2be 0e62 34be
000000b0: d711 fa3e b9c7 803d c315 d7bd e0e8 9bbd
000000c0: 039e a1bc cb76 4abf 3dfb 063f 780f a7be
000000d0: e6b6 4abe 528c d1bd c74b 153e 77fc 113d
000000e0: bad4 c73d be71 3b3c d2e4 623d ac49 fbbd
000000f0: bb04 0ebe 0956 013c d4b9 973d c025 303d
00000100: 4697 2a3e 376e acbc 4604 12be e333 34be
00000110: 474b 923d 1e94 1fbe f730 c5be 5950 233d
00000120: e725 91bd 7e17 f03e a154 8a3e 1123 6cbd
00000130: 532b 903e 3c1e 48be d0c8 cdbc d6c7 693e
00000140: 50ab 13be fe97 693d 8868 d7bb 6df4 eb3c
00000150: a3b2 163e 9a4f ee3c 88fe e53c 6f53 1ebd
00000160: d504 c4be b997 b2bd 10a5 bbbd 51f6 93bd
00000170: eba4 163f ca55 8abc 258c 01bf 62f3 a0bd
00000180: b9d1 8f3e 458e a7bc e907 673e 287a 8cbe
00000190: b107 683e bf5f a0bd b800 b53e a7c0 d1bd
000001a0: b8ba 84be 972a 043f c4a3 6ebe 4fb5 46be
000001b0: 2135 fcbd ba42 9cbe 17b1 0cbd 7fe9 863d
000001c0: cf3b 0fbd 58c2 69be 4b18 71bd 9246 cebc
000001d0: e27f 803d f0f5 b3bd f909 ddbd 4f57 24bd
000001e0: dd88 363e cdeb 26bc 51ba f1be 681b 813e
000001f0: 24ea bcbd befb a63e 3ede 143f 2478 873e
00000200: c9a6 1b3d 906a 463d 088a 7d3d 21ae 97bd
00000210: 946b 763e c86d 58bd 249f f43d bfc2 493e
00000220: 68da 373e e2fa 05be 8c9b 9d3e 3ef8 a4bd
00000230: b90a 19bd 58f5 063e b90c 283b 5129 8dbc
00000240: 1787 d739 7501 d0be 38cf 60bd af24 e93e
00000250: 03bf 9abc 0d41 283e 28ae d73d 9a41 073f
00000260: 7881 83be eb48 16be 0218 9abe 44db 80bd
00000270: 2564 9a3e ef1c 013e c633 d8bc 078e 07be
00000280: 7147 4c3d c16d 99bc eed4 653e d93c 83bd
00000290: 6efb f9be c9a9 ee3d eff3 8f3d 7313 9bbd
000002a0: ca20 f4bc b242 6a3d b700 93be 4a8b 953e
000002b0: bf61 7dbe 9296 6e3c 8e7e 6d3e 7e8b 9abe
000002c0: 0c46 e73d 2b2f d23d 4903 82be 7e81 61bd
000002d0: 7864 883e d9bb 39bc 16b0 4d3d e778 31bd
000002e0: 9019 b8be 3331 3fbd 51d7 95bd 9cea 33be
000002f0: 343f 50bd c008 963c f941 8dbd 328a e6ba
00000300: 4270 8cbe 4243 66bd b8b4 b43e 1277 84bc
00000310: 20bd 423d 4d63 1ebe 5024 c6bd d3af 8e3d
00000320: f089 3b3d 605d fbbd 4aba 073c a7a5 e8bd
00000330: 3e52 ecbe 81c2 423f ff40 c93c 8292 a23e
00000340: a0d7 913e 3217 bcbc d67b d6bd 1160 543e
00000350: 3282 5d3d dbea a4bd d977 b43c fbb3 9b3e
00000360: 7e95 3e3e 0faf 983c de00 6cbb 1d52 a1bc
00000370: 708f 003e 12a6 90bd b668 1d3d 7d14 0a3e
00000380: 02b7 5f3c 5b9e bfbd c17b 38be dc07 7e3d
00000390: de14 353e 7eb4 65bb c3af 8dbe 867c 9dbd
000003a0: 949a 3e3c 6adb eebd 234a f1bc b050 d63c
000003b0: 2b81 613e 66dd 88bd 0fc4 8f3d 9ee9 cb3e
000003c0: df9d 443d ea0a eabd 6ae7 49be 1235 d0bb
000003d0: f087 3b3d 547c eb3c 0a59 f63e 3ed8 533c
000003e0: 7595 343d 3412 efbd f439 093e 2864 8b3d
000003f0: 865e 0f3f 8079 ba3d a519 a2bd 354c 243c

3.bias f4 [10]
-0.23528059 -0.13485087 -0.16870235 0.085182086 0.021981254 -0.24615774 -0.19216757 -0.19085594
0.7312436 0.13012779
00000000: 65ed 70be 5916 0abe 4fc0 2cbe f273 ae3d
00000010: 0812 b43c c610 7cbe 93c7 44be bd6f 43be
00000020: c832 3b3f 3840 053e
