simulation/saved_models/global_model_test_12-04_00-24.pth (torch, 409408 bytes, 4 tensors)

fc1.weight f4 [128, 784]
-0.01675764 -0.023588113 -0.012955394 0.0065697134 -0.031877905 -0.03559835 -0.033743035 -0.003440607
-0.017851537 -0.013449571 0.028478036 -0.022481773 -0.026723588 0.025966523 0.010082793 -0.021341024
-0.020638995 -0.017677864 0.012984595 -0.030409072 -8.4147265e-05 0.010841854 -0.0029005322 0.030373808
0.022399163 -0.03117498 -0.022663835 0.004936501 0.017475039 -0.016344214 0.023871131 0.031605735
-0.01659688 0.005447086 0.023626167 -0.0021150871 -0.032408804 -0.020877987 -0.02900775 0.008501759
0.004379688 -0.017781174 0.012407009 -0.034094214 -0.017158326 0.0008254556 0.022233352 0.03355264
-0.011776698 0.0023952336 -0.02213905 0.0031649095 -0.021734975 -0.028342538 0.025996886 -0.030746883
-0.0026290119 0.0048133726 0.003103677 0.013313022 -0.028621584 -0.00013895753 -0.0003627204 0.030050792
0.02402929 -0.027350552 0.012683542 0.027164355 0.0057992158 -0.03017175 0.030310426 -0.014867316
-0.041813944 0.02768989 0.010352021 0.013346455 -0.0050439048 -0.011455483 0.013440345 -0.020925485
0.03324882 -0.0068639996 -0.00397247 0.01890137 0.0317777 0.0023585106 0.028539274 -0.0015092783
0.00792123 -0.010221285 0.0108045805 -0.0006357307 0.0006211987 -0.0021780415 -0.041046895 -0.031187803
-0.0075905477 -0.027425045 0.004920794 0.0039228587 -0.033560194 -0.024453048 -0.02513886 0.018052815
0.027327718 -0.026317025 0.00203325 -0.03317862 -0.024523605 0.0033642063 0.0010010717 -0.029735891
-0.017156478 0.021142935 0.003988232 -0.0008868235 0.033833597 0.032199636 -0.026510278 -0.016192777
-0.009225847 -0.038254213 -0.03984056 0.00547114 -0.0027771494 0.003275924 0.01574989 0.007241899
0.0029132362 -0.029568065 -0.024974735 0.0177074 0.020094853 -0.012517288 -0.020337084 0.03525467
-0.03496117 -0.031049145 0.018278103 0.02207073 -0.033106104 -0.009031592 -0.021968048 -0.0017101474
-0.023389854 -0.012506569 -0.0027153965 -0.012357215 -0.028998602 -0.0154216355 -0.047710042 -0.021927847
0.041296136 0.03853872 0.028514892 0.0029889916 0.025409063 0.059558302 0.00712446 0.03348495
0.07116056 0.011334916 0.038454678 -0.010303109 -0.00823622 -0.014699667 -0.026256002 -0.025120385
-0.028916236 -0.00014537941 0.024201062 -0.009544971 -0.028171107 0.0019128298 -0.03380722 0.003925325
-0.016559318 -0.024128715 -0.012480618 0.019980887 -0.017639734 -0.01874771 -0.033581756 -0.05919273
-0.07818127 -0.040513616 0.005059948 -0.0141743785 0.012518162 0.023907898 0.021355439 0.057407197
0.044559035 -0.018717254 0.02885722 -0.012479686 -4.550771e-05 0.010947564 -0.0039225486 -0.03644271
0.0075387377 -0.012076435 -0.022324387 0.04296062 6.572003e-05 -0.0017804076 0.026206154 -0.051804986
-0.061772488 -0.045658015 -0.14128852 -0.09184794 -0.12786144 -0.13942797 -0.066525936 -0.035023727
0.037040517 0.08039984 0.06849456 0.034796543 0.051850595 -0.017180473 0.011858595 0.014191284
-0.032603912 -0.0007464899 0.030970708 0.020779029 -0.014393076 0.0011437961 0.050392326 0.08218036
0.07898564 0.055244572 0.018839305 0.0069208466 -0.02996665 -0.04683786 -0.12990925 -0.09273357
-0.055444367 -0.070871145 -0.019222535 -0.019020665 -0.011292115 0.0035345699 0.082474425 0.04563091
0.057082895 -0.026422827 -0.024944685 -0.0357379 0.006808994 -0.011436676 -0.030123163 -0.020766452
00000000: 5147 89bc dc3b c1bc dc42 54bc c046 d73b
00000010: 6892 02bd 93cf 11bd 2336 0abd cf7b 61bb
00000020: 633d 92bc 975b 5cbc c54a e93c b22b b8bc
00000030: 6deb dabc bfb7 d43c 4d32 253c 5fd3 aebc
00000040: 1c13 a9bc 2bd1 90bc 57bd 543c 721c f9bc
00000050: 3878 b0b8 08a2 313c db16 3ebb 7ed2 f83c
00000060: 737e b73c ac62 ffbc 82a9 b9bc 5fc2 a13b
00000070: d027 8f3c 4de4 85bc 648d c33c 0475 013d
00000080: 2ef6 87bc 787d b23b aa8b c13c 469d 0abb
00000090: 18bf 04bd 5008 abbc a9a1 edbc f64a 0b3c
000000a0: 7c83 8f3b d3a9 91bc c446 4b3c 60a6 0bbd
000000b0: 9e8f 8cbc 6363 583a b822 b63c 7e6e 093d
000000c0: 0df3 40bc 5af9 1c3b f45c b5bc 5f6a 4f3b
000000d0: 8c0d b2bc 9c2e e8bc 6cf7 d43c e3e0 fbbc
000000e0: 804b 2cbb 7fb9 9d3b 0f67 4b3b dd1e 5a3c
000000f0: d077 eabc 21b5 11b9 822b beb9 142d f63c
00000100: 13d9 c43c 440e e0bc a2ce 4f3c c887 de3c
00000110: 5907 be3b bf2a f7bc 924d f83c 0b96 73bc
00000120: 1945 2bbd e8d5 e23c 869b 293c 17ab 5a3c
00000130: 5747 a5bb c7af 3bbc e534 5c3c ec6b abbc
00000140: ea2f 083d 67eb e0bb 7e2b 82bb 0cd7 9a3c
00000150: 5529 023d 3e91 1a3b 32cb e93c fad2 c5ba
00000160: 0cc8 013c 2d77 27bc b205 313c 2aa7 26ba
00000170: f0d7 223a 79bd 0ebb ca20 28bd 907d ffbc
00000180: 21ba f8bb 7daa e0bc 9d3e a13b 538b 803b
00000190: 6a76 09bd c251 c8bc 03f0 cdbc 7fe3 933c
000001a0: 61de df3c cd96 d7bc 4640 053b 4ee6 07bd
000001b0: bae5 c8bc 047a 5c3b 6436 833a af98 f3bc
000001c0: be8b 8cbc f333 ad3c b7af 823b b879 68ba
000001d0: 1995 0a3d c4e3 033d 152c d9bc b7a6 84bc
000001e0: 0228 17bc 73b0 1cbd db2f 23bd 4047 b33b
000001f0: d600 36bb e2b0 563b ea05 813c 744d ed3b
00000200: feeb 3e3b ba38 f2bc d197 ccbc 1c0f 913c
00000210: f69d a43c 5015 4dbc f599 a6bc 3367 103d
00000220: 7233 0fbd c75a febc f6bb 953c adcd b43c
00000230: 449a 07bd 3ef9 13bc 56f6 b3bc 0627 e0ba
00000240: 149c bfbc 5ae8 4cbc cbf4 31bb eb75 4abc
00000250: 7a8e edbc 07ab 7cbc 9b6b 43bd 07a2 b3bc
00000260: 2326 293d c7da 1d3d 1098 e93c f5e2 433b
00000270: ab26 d03c 68f3 733d 4d74 e93b 8427 093d
00000280: a1bc 913d 15b6 393c a782 1d3d 5fce 28bc
00000290: 36f1 06bc dfd6 70bc d416 d7bc 44c9 cdbc
000002a0: bee1 ecbc fd70 18b9 4e41 c63c 8362 1cbc
000002b0: 18c7 e6bc ebb7 fa3a 7179 0abd 03a0 803b
000002c0: 68a7 87bc 95a9 c5bc 827b 4cbc f5ae a33c
000002d0: 3481 90bc cc94 99bc 068d 09bd 1374 72bd
000002e0: 801d a0bd 9bf1 25bd eccd a53b a73b 68bc
000002f0: fa18 4d3c 7fda c33c 9af1 ae3c cf23 6b3d
00000300: 8983 363d ed54 99bc fa65 ec3c 9977 4cbc
00000310: 88df 3eb8 695d 333c b988 80bb f344 15bd
00000320: 8407 f73b 3ddc 45bc a2e1 b6bc 7af7 2f3d
00000330: 2cd3 8938 915c e9ba 4aae d63c 7731 54bd
00000340: 2605 7dbd e603 3bbd f0ad 10be c61a bcbd
00000350: 1cee 02be 35c6 0ebe c03e 88bd 0a75 0fbd
00000360: ccb7 173d aca8 a43d e046 8c3d d286 0e3d
00000370: 4a61 543d 10be 8cbc 8d4a 423c 8f82 683c
00000380: ae8b 05bd 17b0 43ba 48b6 fd3c c838 aa3c
00000390: f0d0 6bbc 6eeb 953a 2f68 4e3d 2d4e a83d
000003a0: 39c3 a13d 2248 623d e354 9a3c 45c8 e23b
000003b0: 9f7c f5bc 0ed9 3fbd ee06 05be 19eb bdbd
000003c0: a219 63bd e424 91bd 9478 9dbc 3ad1 9bbc
000003d0: 9002 39bc 3ea4 673b 5ae8 a83d 7ae7 3a3d
000003e0: c1cf 693d af74 d8bc cc58 ccbc e761 12bd
000003f0: fb1d df3b e560 3bbc dac4 f6bc 681e aabc

fc1.bias f4 [128]
0.031046443 -0.014668033 -0.011534409 -0.0067339567 0.008892654 -0.031925265 0.024145536 -0.040342327
-0.010241778 0.028749017 0.027803706 0.011992729 -4.482654e-05 -0.004930148 -0.035164542 0.0126830125
-0.03493684 -0.0043302495 -0.015049581 0.008268621 -0.028972892 -0.02223251 -0.0020007298 -0.02530232
0.021226523 -0.03188278 0.021936692 0.03129897 0.0062058857 0.012428616 -0.023790795 -0.021232538
0.034401238 -0.03139684 0.02993591 -0.027855823 0.023393448 -0.024861448 -0.003389502 -9.228145e-05
0.029535534 -0.010142033 -0.0010280138 0.027301658 -0.030719638 0.022940423 -0.025259001 -0.038861334
-0.0028964207 0.015547751 0.02905861 0.001833257 -0.028762974 -0.023339432 0.02309815 -0.0012437217
0.03838218 0.014093219 -0.0063560354 0.0056526796 0.008509471 -0.003837004 -0.026050672 -0.0023759922
0.040358365 -0.013733521 0.013908822 0.013867588 -0.031686164 0.021957804 -0.0005598223 -0.038640108
0.016670043 -0.01338367 -0.0031640055 0.025428226 -0.015493213 0.028987156 -0.03983492 0.0073372596
-0.0026108765 -0.02449152 0.022241212 0.02197779 -0.020622652 0.027706774 -0.005780712 -0.023336412
-0.0023548554 0.0032547002 0.016177122 0.005776239 0.017299445 0.018534392 0.0068809693 0.020188674
-0.017574348 -0.023202637 0.0043392573 -0.036999866 0.032221444 -0.03509125 -0.01998512 0.0035209432
-0.00199046 0.013718809 -0.024248717 -0.036801826 0.019975707 0.013470904 -0.025555404 -0.01363254
0.018953564 -0.03044605 0.0061974134 0.0049666357 -0.0027474125 -0.0021025476 -0.018143253 0.02667613
-0.0104605565 0.029185187 0.0017164252 -0.034548335 -0.015208916 0.009555543 0.028833987 0.008134863
00000000: 1c55 fe3c 3152 70bc d1fa 3cbc 86a8 dcbb
00000010: 7fb2 113c 11c4 02bd dccc c53c ff3d 25bd
00000020: 21cd 27bc 0f83 eb3c 99c4 e33c 277d 443c
00000030: 2104 3cb8 148d a1bb b208 10bd 69cc 4f3c
00000040: ef19 0fbd c4e4 8dbb 8592 76bc 1c79 073c
00000050: 8f58 edbc f420 b6bc ad1e 03bb d046 cfbc
00000060: 3fe3 ad3c 8597 02bd 94b4 b33c 5933 003d
00000070: be5a cb3b 65a1 4b3c eae4 c2bc dcef adbc
00000080: 50e8 0c3d f999 00bd 273c f53c e531 e4bc
00000090: 9ea3 bf3c 3caa cbbc 6822 5ebb 3a87 c1b8
000000a0: 81f4 f13c c52a 26bc 6bbe 86ba baa7 df3c
000000b0: c0a7 fbbc 8eed bb3c f7eb cebc 102d 1fbd
000000c0: e0d1 3dbb ffbb 7e3c 520c ee3c e649 f03a
000000d0: 54a0 ebbc 5632 bfbc 5538 bd3c 6004 a3ba
000000e0: a236 1d3d 3fe7 663c 4a46 d0bb 1d3a b93b
000000f0: 4f6b 0b3c 3f76 7bbb 3868 d5bc 89b6 1bbb
00000100: d04e 253d 9002 61bc d4e1 633c e134 633c
00000110: 5ac9 01bd dae0 b33c 0ac1 12ba 1745 1ebd
00000120: 9d8f 883c 2e47 5bbc 345b 4fbb db4e d03c
00000130: 3fd7 7dbc 7976 ed3c f129 23bd 656d f03b
00000140: 3d1b 2bbb 71a2 c8bc 3433 b63c c40a b43c
00000150: d6f0 a8bc 51f9 e23c 206c bdbb 012c bfbc
00000160: eb53 1abb cf4c 553b e285 843c 9b46 bd3b
00000170: 91b7 8d3c 70d5 973c c179 e13b b862 a53c
00000180: 14f8 8fbc 7513 bebc 5430 8e3b 2c8d 17bd
00000190: a2fa 033d d8bb 0fbd d6b7 a3bc a0bf 663b
000001a0: 6172 02bb dbc4 603c 3fa5 c6bc 83bd 16bd
000001b0: 18a4 a33c 11b5 5c3c 9159 d1bc 045b 5fbc
000001c0: 8144 9b3c ff69 f9bc ac13 cb3b 29bf a23b
000001d0: ef0d 34bb e5ca 09bb 29a1 94bc e687 da3c
000001e0: c162 2bbc c615 ef3c acf9 e03a 8e82 0dbd
000001f0: d12e 79bc da8e 1c3c 4135 ec3c 1748 053c

fc2.weight f4 [10, 128]
-0.1968115 0.014243663 0.0020113399 0.053173248 0.0835946 0.031084983 0.060549214 0.072838135
-0.045248274 0.054390375 -0.033061706 -0.16881277 0.028171184 -0.06255126 -0.14637126 -0.040666513
-0.061661605 -0.04618948 0.06911112 0.11822389 -0.06305825 -0.14801128 0.04435339 -0.13123624
-0.1401288 -0.15904337 -0.109757796 -0.009141089 0.10440716 0.092257164 -0.097703986 0.09800213
0.1268242 0.050392434 -0.08916191 0.018822823 -0.1314956 -0.016561078 0.03199326 -0.041704863
-0.042978205 0.063033246 0.036443476 0.12237883 0.060970984 0.08285535 -0.08978946 0.013779311
0.08593402 0.051677283 0.077769145 -0.16859527 -0.093207575 -0.15396257 0.06921751 0.103189304
0.047743447 -0.07605005 -0.10559975 0.07838688 0.0477741 -0.024555564 0.04959604 -0.023869185
-0.039328285 -0.140941 -0.21477169 -0.07392698 -0.20467122 -0.026179584 0.004080846 0.07463473
0.096468836 -0.0132475775 -0.13015488 0.07219517 0.043155827 0.0101745315 0.0034784044 0.027363528
0.123083465 0.16022046 -0.22750747 -0.13722666 -0.2528977 0.0020210976 -0.07419509 0.016775133
0.1408868 -0.052555803 0.06759765 0.06731447 -0.013928145 -0.04815047 -0.11336875 0.008171864
-0.042371348 0.02207847 -0.023778534 -0.065397866 -0.04351458 -0.08066713 -0.064382546 0.05420727
0.05399173 0.053994037 -0.088976935 -0.25986177 0.070345104 -0.074783355 0.03968296 -0.14030847
0.021218093 -0.009914839 -0.025988463 -0.031365152 -0.26805592 -0.09813316 0.005856079 -0.09362117
-0.118058965 0.06602715 -0.066903934 0.020783305 -0.0071957256 -0.08234361 -0.079261295 0.0077636777
0.047840428 -0.013178154 0.0777644 -0.15578815 -0.0968245 0.06627404 -0.24163185 0.012314225
0.07955634 -0.105854504 -0.1423066 0.03086205 -0.0024137497 0.04469832 -0.12843783 0.033435576
0.074733324 -0.118622825 0.070139624 -0.11059509 0.022249985 -0.033422645 0.07244453 -0.006310849
0.10034768 -0.0133521445 0.004177842 -0.04605883 -0.08871374 -0.14551151 0.07965952 -0.22076565
-0.110380955 0.003960331 0.095981106 0.018870395 -0.08865808 0.06398423 -0.050667696 -0.09190859
0.020778107 -0.08736064 0.090170294 -0.052208226 -0.022996534 -0.06499118 0.07914993 0.038427472
-0.17047298 -0.006773815 0.010392789 -0.01611173 -0.040289905 0.11238813 -0.1526206 -0.08650844
-0.009010845 0.028842898 -0.11020305 0.0721319 0.07460153 -0.04676974 -0.15054244 0.024026958
-0.05233929 0.061748844 -0.024762204 -0.07873695 -0.054584876 -0.0863442 0.06043847 -0.03662696
-0.14855398 -0.07238657 0.0957048 -0.11905817 0.059596237 0.046205923 -0.04669909 -0.10214266
-0.03209891 0.00029757863 0.06815879 0.0849896 -0.0213481 0.0512557 0.008985386 0.031348314
-0.20130327 0.022863595 -0.023876254 0.07478164 -0.0041888203 -0.06611429 0.12070663 -0.091294125
-0.14409798 -0.03697891 -0.10326849 0.003883645 -0.11995558 0.026927922 -0.061153285 -0.013512701
0.038683023 -0.17202288 0.07240968 0.0925063 -0.022340382 -0.12426334 0.036171466 0.09455337
-0.04640412 0.079978414 -0.01868726 0.020586252 0.0739426 0.106514364 -0.093401544 0.111609906
-0.11437741 0.08714001 -0.1736913 0.08961091 -0.02653003 -0.08971928 -0.086370714 -0.14451718
00000000: f488 49be 415e 693c afd0 033b 31cc 593d
00000010: a533 ab3d efa5 fe3c 7402 783d 292c 953d
00000020: 4156 39bd 71c8 5e3d b66b 07bd 41dd 2cbe
00000030: 41c7 e63c e01a 80bd 59e2 15be ee91 26bd
00000040: e190 7cbd 2e31 3dbd 228a 8d3d 5e1f f23d
00000050: af24 81bd 4590 17be e6ab 353d cb62 06be
00000060: ed7d 0fbe 44dc 22be b2c8 e0bd 82c4 15bc
00000070: 6cd3 d53d 53f1 bc3d 0719 c8bd 57b5 c83d
00000080: 34de 013e 4c68 4e3d 859a b6bd 5232 9a3c
00000090: c8a6 06be 19ab 87bc 5d0b 033d b8d2 2abd
000000a0: ea09 30bd 9317 813d c145 153d c1a1 fa3d
000000b0: b6bc 793d 11b0 a93d 89e3 b7bd 9fc2 613c
000000c0: 2dfe af3d 8fab 533d 6e45 9f3d 3da4 2cbe
000000d0: 9de3 bebd 5da8 1dbe e9c1 8d3d ea54 d33d
000000e0: a28e 433d 21c0 9bbd af44 d8bd 4d89 a03d
000000f0: c6ae 433d c028 c9bc 3825 4b3d 4f89 c3bc
00000100: b216 21bd d652 10be 1ced 5bbe 0767 97bd
00000110: 5595 51be 9176 d6bc 9eb8 853b 18da 983d
00000120: 7491 c53d 5e0c 59bc 5247 05be 10db 933d
00000130: 2ac4 303d 14b3 263c f1f5 633b 7a29 e03c
00000140: 2f13 fc3d d510 243e b8f7 68be 2585 0cbe
00000150: cf7b 81be 6474 043b 98f3 97bd 016c 893c
00000160: a144 103e c144 57bd a370 8a3d 2bdc 893d
00000170: e032 64bc 6d39 45bd e02d e8bd 48e3 053c
00000180: 948d 2dbd e8dd b43c 33cb c2bc 51ef 85bd
00000190: 583c 32bd cf34 a5bd ffda 83bd 7108 5e3d
000001a0: 6f26 5d3d da28 5d3d 8a39 b6bd 9a0c 85be
000001b0: 1811 903d 0428 99bd 998a 223d 06ad 0fbe
000001c0: 91d1 ad3c d971 22bc c2e5 d4bc bf78 00bd
000001d0: a03e 89be 0afa c8bd 5ae4 bf3b 75bc bfbd
000001e0: e6c8 f1bd 3e39 873d ee04 89bd c041 aa3c
000001f0: 1fca ebbb c4a3 a8bd bf53 a2bd 7366 fe3b
00000200: 53f4 433d 2fe9 57bc f142 9f3d ee86 1fbe
00000210: ec4b c6bd afba 873d 576e 77be 9ac1 493c
00000220: 6fee a23d 3fca d8bd d2b8 11be 69d2 fc3c
00000230: 0030 1ebb 9615 373d 3585 03be bef3 083d
00000240: c90d 993d 86f0 f2bd 5da5 8f3d ae7f e2bd
00000250: 9a45 b63c 2fe6 08bd cc5d 943d 3dcb cebb
00000260: 1683 cd3d f4c2 5abc 47e6 883b 2fa8 3cbd
00000270: 8daf b5bd f800 15be 8824 a33d 6410 62be
00000280: 690f e2bd aac5 813b be91 c43d 1696 9a3c
00000290: 5e92 b5bd 2a0a 833d ee88 4fbd 923a bcbd
000002a0: d936 aa3c 23ea b2bd 34ab b83d 4bd8 55bd
000002b0: 3a63 bcbc 191a 85bd 5c19 a23d 2066 1d3d
000002c0: 7890 2ebe e1f6 ddbb 8446 2a3c bffc 83bc
000002d0: 0707 25bd bf2b e63d 9348 1cbe 562b b1bd
000002e0: 39a2 13bc f147 ec3c 23b2 e1bd e4b9 933d
000002f0: b0c8 983d a091 3fbd cc27 1abe 2fd4 c43c
00000300: b961 56bd 5bec 7c3d 1bda cabc d740 a1bd
00000310: 6494 5fbd 3ad5 b0bd 548e 773d 2706 16bd
00000320: 891e 18be 693f 94bd e100 c43d c5d4 f3bd
00000330: 2f1b 743d 6c42 3d3d 8c47 3fbd 2c30 d1bd
00000340: 267a 03bd 5404 9c39 d696 8b3d 070f ae3d
00000350: 36e2 aebc 7ff1 513d 7137 133c 1767 003d
00000360: 7222 4ebe 6f4c bb3c 2298 c3bc 1e27 993d
00000370: 5f42 89bb ee66 87bd 0a35 f73d 6af8 babd
00000380: 6c8e 13be 3377 17bd 6e7e d3bd c084 7e3b
00000390: 45ab f5bd f297 dc3c de7b 7abd 6064 5dbc
000003a0: 1772 1e3d c426 30be 874b 943d f173 bd3d
000003b0: 2d03 b7bc c77d febd 8828 143d 32a5 c13d
000003c0: 3f12 3ebd b9cb a33d 0616 99bc 80a4 a83c
000003d0: 386f 973d 3424 da3d 4f49 bfbd bc93 e43d
000003e0: b43e eabd 7676 b23d 22dc 31be ed85 b73d
000003f0: 8155 d9bc bebe b7bd 21e3 b0bd 50fc 13be

fc2.bias f4 [10]
-0.069542624 -0.069524825 -0.075322784 0.03054892 -0.06154555 -0.06836125 0.0027809127 -0.05501629
-0.018063877 0.02866389
00000000: 5d6c 8ebd 0863 8ebd d542 9abd bb41 fa3c
00000010: 3017 7cbd fc00 8cbd f93f 363b c358 61bd
00000020: b2fa 93bc 89d0 ea3c
