simulation/saved_models/global_model_beta_1732383695.pth (torch, 409400 bytes, 4 tensors)

1.weight f4 [128, 784]
000000 54 81 8f bc ec 02 5f bc d6 67 82 bb 52 8b 10 bc
       -0.017517723 -0.0136115365 -0.0039796634 -0.008822279
000010 39 c3 e2 bc 12 f3 a8 3b 55 d8 11 bc bb 2f 6f bc
       -0.02768098 0.0051559294 -0.008901675 -0.014598782
000020 f1 86 c0 3c a7 f8 d5 3c 3f a9 29 b9 87 93 ed 3c
       0.023501845 0.026119543 -0.00016180145 0.02900101
000030 50 02 0a bd ad a8 13 bd b0 ce 82 3c 77 e4 0a bd
       -0.03369361 -0.036049534 0.015967697 -0.033909287
000040 e9 b6 bf bc f3 2c 92 bb b0 d9 ab bc 53 46 f1 3b
       -0.023402648 -0.004460925 -0.020977825 0.0073631196
000050 63 34 72 bc 85 b7 84 bc 90 45 04 bd 5b d1 b3 ba
       -0.014782998 -0.01620079 -0.032292902 -0.0013719009
000060 5f b2 cc bb 06 0e 10 bd dc 1e 10 bc ff 2f cc bb
       -0.0062468494 -0.035169624 -0.00879642 -0.0062313075
000070 0b d6 7f bb 16 cc a1 3b ac 01 59 bc ef b9 97 bc
       -0.0039037492 0.004937659 -0.0132450275 -0.018521277
000080 99 10 ce bc 1f a1 cd bb 2a 5b 06 3d 2d 53 67 3b
       -0.025154399 -0.0062753106 0.032801785 0.003529738
000090 bd c4 18 3c d8 bc d1 3c ad f4 83 bc 55 c7 df bc
       0.00932425 0.025602743 -0.016107881 -0.027316729
0000a0 fb 2e ad bc a5 50 c0 3c bc 47 d5 bc 13 90 e0 38
       -0.021140566 0.023475954 -0.026035182 0.00010707988
0000b0 cb 1a 80 3c 79 ba 16 bd a5 bc b7 3c b3 f5 88 3c
       0.015637776 -0.036798928 0.02242882 0.016718721
0000c0 00 fa 4b 3b 21 43 d2 3b bb 7f 1f 3b 5c b6 58 3b
       0.0031124353 0.006416694 0.0024337608 0.003306768
0000d0 f9 b4 dc bc 2e 8a 91 3c 24 3d e1 bb 79 21 ee bc
       -0.026941763 0.017766085 -0.0068737436 -0.029068695
0000e0 37 4f dc 3c 4b 6a af 3c 4c fc 8b 3c 91 55 64 3c
       0.026893241 0.02141299 0.017088078 0.013936416
0000f0 76 9f 07 3d 79 df 08 3c 26 05 0b bd d8 a8 af 3c
       0.03311106 0.008354061 -0.033940457 0.021442816
000100 1a 59 19 bd 43 1b aa bc 01 7c a7 3c cd 0a a4 3c
       -0.03743849 -0.020764953 0.020444872 0.020024681
000110 fa 0c 88 bc 47 09 29 bd 5f 89 a4 3c 42 b9 80 3c
       -0.01660775 -0.041268613 0.020085035 0.015713338
000120 5d 45 11 bd 27 99 20 bd 90 0f 0c bd 89 ef 80 bc
       -0.03546654 -0.039208557 -0.03419453 -0.01573922
000130 c9 71 c2 bc ed 82 d4 bc 48 0b 9e 3c 57 77 55 3c
       -0.023735898 -0.025941337 0.019292489 0.013028941
000140 61 78 cb 3c a0 da 15 bd 9f 9d 00 3d d4 46 80 3b
       0.024837675 -0.03658545 0.03140032 0.0039146934
000150 8b 91 3e 3c 1d d2 f4 3b 9f 88 b2 bc 95 10 ff 3c
       0.01163138 0.0074713365 -0.021793662 0.031135837
000160 37 83 fd bc 73 2f ee 3c 9f 63 20 bc e3 63 f7 bc
       -0.030946357 0.02907536 -0.0097893765 -0.030198997
000170 b0 4b d9 bc 08 cc dc bc 18 a3 6c bc e4 fa ed bc
       -0.026525348 -0.026952758 -0.014443181 -0.029050298
000180 3f 08 c4 3a 76 03 a0 3c ad f4 f8 3c 67 5f 06 3d
       0.0014956071 0.0195329 0.030390108 0.032805827
000190 57 7d 29 3d 0e 5b 23 3d a0 43 bd 3c fc 81 7f 3c
       0.0413793 0.03988176 0.023103535 0.0155949555
0001a0 21 f0 da 3a 37 ba 16 bb 78 63 f0 bc 6b ec c6 3c
       0.0016703644 -0.0022999176 -0.029344305 0.024282655
0001b0 19 7d 62 3b 0f 74 27 3c 54 d2 e8 3b 77 67 ce 3c
       0.0034559427 0.010220542 0.007105151 0.02519582
0001c0 c5 91 a3 3c d1 35 a4 3c c0 cc ee 3c dd 70 60 3c
       0.01996697 0.020045193 0.029150367 0.013698784
0001d0 9a 23 a0 3b 7d 10 c7 bc 37 83 0e bd eb 1d cd ba
       0.0048870565 -0.024299854 -0.034793105 -0.0015649175
0001e0 37 6d c7 3b 74 2d de 3c f3 ac 55 bb f9 6b 9f 3c
       0.0060860175 0.027121283 -0.0032604306 0.019460665
0001f0 8b 8c cf ba 08 ed ef 3b 17 8f fe 3b e4 87 85 bc
       -0.0015834732 0.0073219575 0.0077685225 -0.01630015
000200 df 98 24 3d e5 33 d0 3c 7b 29 7a 3b 9f 51 3a bc
       0.04018485 0.02541537 0.0038171697 -0.011371999
000210 db c4 d5 bc e3 91 22 bd 82 c7 9b bc 44 54 06 3a
       -0.026094845 -0.03968991 -0.019016031 0.0005124251
000220 fc 97 51 ba af 19 f2 38 d5 2b 91 bc 21 3b 05 bd
       -0.0007995365 0.00011544243 -0.017721096 -0.032527093
000230 91 e5 c1 3c b9 e0 f1 bc df a6 a6 bc b4 f3 c7 3c
       0.023669036 -0.029526101 -0.020343242 0.024408199
000240 19 9c 8b 3c 3b 99 8b 3b e5 e6 d7 3c 11 e0 d4 bc
       0.017042207 0.00426021 0.026355216 -0.02598575
000250 4d 39 f0 3c f5 68 de 3c 64 22 af 3c 43 99 e8 3c
       0.029324198 0.027149657 0.021378703 0.028393393
000260 51 29 ff bc 2b a8 3c bd c0 43 e3 ba c4 28 4a bd
       -0.03114763 -0.046058815 -0.0017338917 -0.049355283
000270 4b 08 32 bb 37 f7 71 3c fd 4a 90 3c f1 af 16 3b
       -0.0027165588 0.014768413 0.017613882 0.0022993053
000280 8e 79 02 ba 7f ce 07 bd 35 1c 99 3b 98 af ff bc
       -0.00049772195 -0.033155914 0.004672552 -0.03121166
000290 0c 32 5f bb 41 48 4e bc d9 49 4c ba 14 25 30 bc
       -0.003405693 -0.012590469 -0.00077929866 -0.010751028
0002a0 29 cb 1d 3c 73 c7 6f bc d8 ac 73 bc aa 98 a8 3b
       0.009630957 -0.014634955 -0.014872752 0.005145152
0002b0 c8 5a 90 bc fa eb 94 3c 33 6d 51 3c 29 e7 11 bd
       -0.017621413 0.018178929 0.012782383 -0.035620842
0002c0 b5 02 11 3b 88 9e 44 3c 70 c0 46 bd 0c 01 6d bd
       0.0022126858 0.012000687 -0.048523366 -0.057862327
0002d0 ad 08 5f bd db 54 f2 3b 81 ce f7 3a ff 79 84 bc
       -0.054451633 0.0073953695 0.0018906147 -0.016171454
0002e0 10 63 59 bc b7 50 11 bc 55 f7 9f bc 7a 90 1e 3d
       -0.013268247 -0.008869342 -0.019527117 0.038712002
0002f0 eb 07 93 3c a1 b6 79 3c 31 0b e6 3c 20 71 3d bc
       0.017948112 0.015241296 0.028081508 -0.011562616
000300 f1 8f 79 bb bf 15 be bc c5 33 91 bc 2d ad 4d bc
       -0.003808018 -0.023203729 -0.017724881 -0.012553495
000310 fd ab ed 39 e1 1b c7 bc a8 5f cd 3c b1 99 d2 bc
       0.00045332304 -0.024305286 0.025070027 -0.025708051
000320 91 4d 43 bb 79 c6 bd 3c b9 fb 1b 3b 11 68 5d bc
       -0.0029800872 0.023165928 0.0023801161 -0.013513581
000330 f4 23 20 bd 8c 5b e8 bc b1 3b 16 bd 05 3c 2f bd
       -0.039096788 -0.028363965 -0.03667802 -0.04278185
000340 a3 4c 57 3c 7b 54 b3 bc 98 4b 2b bc 92 72 15 bb
       0.01314083 -0.02189087 -0.010455035 -0.0022803885
000350 c1 38 ff 3b e9 15 b0 bc 58 8d 2b 3d a4 9a 45 3d
       0.007788748 -0.021494823 0.041882843 0.04824318
000360 1f e1 ea 3c fc 89 4c 3d 01 9c 26 3d f4 e3 44 3b
       0.0286718 0.04993628 0.04067612 0.0030043097
000370 dd 0c fd 3c bf 9f b1 3c 65 c5 87 3c 71 11 20 39
       0.030889923 0.021682618 0.016573617 0.00015265286
000380 53 66 9b 3c 79 79 cb 3c 28 aa f5 bc d5 f6 29 bc
       0.01896969 0.024838196 -0.029988363 -0.010373791
000390 37 e6 05 bc 17 24 a2 3c 0b a8 bd bc 88 a7 34 bc
       -0.008172563 0.0197926 -0.023151418 -0.011026271
0003a0 e3 f2 bd 3c f0 49 34 ba ad c0 e0 3c d9 0a ad 3b
       0.023187106 -0.00068774726 0.027435625 0.005280834
0003b0 a7 49 b1 bc 91 85 fe 3c 59 3e 02 bb dd 20 03 3d
       -0.021641565 0.031069549 -0.0019873588 0.032013763
0003c0 f3 93 27 3c 8c 6d 8b 3c 5b 3a 5e bc 29 98 5a 3c
       0.010228145 0.01702001 -0.013563718 0.013341942
0003d0 68 f3 69 3c 07 ca 36 bb 32 3d 83 bb 57 1c ca 3c
       0.014279224 -0.0027891414 -0.004005098 0.024671717
0003e0 3b 56 0f 3d 9b 3f 1d 3d d1 09 bf 3c 7e 0f 94 bc
       0.034994345 0.038390737 0.02332011 -0.018073794
0003f0 a0 cf 18 3b 2d 38 2b 3c f1 fc c3 bb e2 b0 16 bc
       0.0023317114 0.010450405 -0.0059810807 -0.009197446

1.bias f4 [128]
000000 3a 2f 95 bb f5 1c 16 3d 17 f2 f2 bc 24 19 1a 3d
       -0.004552749 0.03664871 -0.029656453 0.037621632
000010 8e bc 04 3d b1 8b e4 bc 1b 83 b8 3b a9 06 92 3c
       0.032406382 -0.027898641 0.0056308634 0.017825441
000020 cf 95 5c 3a af 9c 2a 3d cc 65 6f bc 2e 91 11 3d
       0.0008414657 0.04165333 -0.014611673 0.035538845
000030 9f 85 12 3c 0c 79 df 3c 68 e4 cb 3c 3d 46 0d bd
       0.008942991 0.0272794 0.024889186 -0.034490813
000040 b1 91 20 3c 75 ed b7 3c e3 32 d2 bc f8 a7 b0 bc
       0.009800361 0.022452096 -0.02565903 -0.021564469
000050 3d 6a 01 3d ff 56 15 bc f0 44 9c 38 10 db 96 bc
       0.031595457 -0.00911498 7.4515e-05 -0.018415004
000060 11 b5 a9 3c 7d c1 19 bd c3 26 a7 bc 63 4c 61 bc
       0.020716222 -0.03753804 -0.020404225 -0.013751122
000070 92 79 0d bd 78 26 76 3c 17 3e a4 3c 4b c6 e6 3c
       -0.034539767 0.01502382 0.020049138 0.028170725
000080 ad 4b bd bb b9 c6 13 bd 11 f9 da 3c e8 50 d1 bc
       -0.0057768435 -0.03607819 0.026730092 -0.025551274
000090 58 20 cc bb e3 b6 5f ba 4b 2c 06 bd 2b 8e 30 bb
       -0.0062294416 -0.0008534027 -0.032757085 -0.0026940207
0000a0 0d e6 43 b9 93 82 14 bd c7 13 c8 bc 47 5d 22 3c
       -0.0001868235 -0.036257338 -0.024423493 0.009909934
0000b0 e5 4f c2 bc 09 f3 7a bc 4f f0 07 bd 67 09 8b 3c
       -0.023719737 -0.015316733 -0.03318816 0.016972257
0000c0 18 c7 ee 3c 79 c2 ac bc cf ed ee bc cc fd a5 3c
       0.02914767 -0.021088826 -0.02916613 0.020262621
0000d0 7b c2 df 3c f7 6d 12 bd 44 d8 f2 bb 97 e6 c7 3c
       0.027314415 -0.035749402 -0.007411035 0.024401946
0000e0 44 af 7e bc a7 59 fb bc 27 4b cb bc dc 55 5b 3c
       -0.015544716 -0.030682398 -0.024816109 0.01338717
0000f0 cb f1 bf 3c f0 1a c8 bb 87 a4 26 3c fb 25 88 3c
       0.023430726 -0.006106727 0.010171062 0.016619673
000100 f5 ac ee 3c 11 a6 ab bc fd 8b 11 3b 8c 8b 59 bc
       0.029135207 -0.02095321 0.0022208684 -0.0132778995
000110 68 14 da bc 10 c3 7a bb 0d a7 86 b7 67 22 77 bc
       -0.026621059 -0.003826324 -1.6051834e-05 -0.015083886
000120 5d 4c c6 3c 54 10 64 3c 8a 02 94 3c 19 67 b6 3c
       0.024206335 0.013919909 0.018067617 0.022265958
000130 73 16 49 bb 87 24 0c bd f8 e2 db bc d5 6e a7 3c
       -0.0030683547 -0.034214523 -0.026841626 0.020438591
000140 3c ba 02 bd e4 c7 b9 bc 1f f1 bc bc b9 33 93 3c
       -0.03191589 -0.022678323 -0.023064194 0.017969
000150 e5 20 ec bc c5 4f f9 ba f2 52 a0 3c 59 d8 d8 bc
       -0.02882428 -0.0019020966 0.019570801 -0.02647035
000160 35 4f cc 3c 4f 39 d0 3c 0c b5 61 bc 44 87 8e 3c
       0.024940113 0.025417952 -0.013776075 0.017398484
000170 78 8f 6d 3c d3 42 03 bd 34 82 4a 3c b7 e9 16 3d
       0.014499538 -0.03204615 0.012360144 0.03684398
000180 8f 37 6d ba 47 b6 df 3c 3d 97 80 bc 08 70 0e bd
       -0.00090491114 0.027308596 -0.015697116 -0.03477481
000190 d7 13 99 3b c7 e9 b0 3c 67 6b 04 bc 1b b5 34 bc
       0.0046715545 0.021595849 -0.008082247 -0.011029507
0001a0 cd 04 c8 bc 30 26 88 bc a6 82 1b bd 7c 29 d9 bc
       -0.024416352 -0.016619772 -0.037966393 -0.02650904
0001b0 40 60 6f bc 44 cc 21 bc 08 57 dc 3c d4 71 de 3c
       -0.01461035 -0.009875361 0.026896968 0.027153887
0001c0 3c ca 3a 3c a7 e8 89 bc 9e d6 96 3c 1d 72 f6 3c
       0.0114007555 -0.01683457 0.018412884 0.03008371
0001d0 db 34 c1 3b aa 6d 15 bd 4d 62 d7 bc 0f 19 04 bd
       0.0058961934 -0.036481537 -0.02629199 -0.03225046
0001e0 77 68 ca 3b e7 43 f9 bc 6c 96 04 bd 6f 79 2e bd
       0.006177004 -0.030427886 -0.032370016 -0.042596277
0001f0 64 5d ca 3c 81 df c5 bc 58 b3 3f 3b 0f 38 f9 3c
       0.024702735 -0.024154427 0.0029251184 0.030422239

3.weight f4 [10, 128]
000000 63 f9 bd 3c 2b 21 41 3e a8 80 3a 3d 64 20 43 bd
       0.023190206 0.18860309 0.045532852 -0.047638312
000010 8e 2e 10 bd 58 f6 e4 bd 4d 1c 4a 3e bc c5 17 bd
       -0.035200648 -0.11179799 0.19737358 -0.03705381
000020 70 0c dc 3d 43 60 58 be 71 8a 7e 3d 3b da b2 bd
       0.1074456 -0.21130471 0.062143747 -0.087330304
000030 d2 3b 23 3e de 73 1a bc e9 57 1e be 7c 5a 0c be
       0.15940788 -0.009427039 -0.15463223 -0.13706392
000040 51 0a b7 bc 3b d2 24 3e 41 db 2c be 81 57 2b 3d
       -0.022343786 0.16095822 -0.16880514 0.041831497
000050 81 36 cd bc b8 43 de bd ec 66 79 3e a5 22 8c 3e
       -0.025050404 -0.1085276 0.24355668 0.27370182
000060 4b c2 2c be 18 a9 f9 3a 78 23 32 3d f1 8e 98 3b
       -0.16870992 0.0019047586 0.043490857 0.004655712
000070 61 c6 68 be 2f d7 6c 3d 68 50 5f 3c f8 f5 6b bd
       -0.22731926 0.057822403 0.01363001 -0.05760762
000080 d3 25 ab 3d ad fe 47 be 3a 00 a0 bd 44 85 ae be
       0.08356824 -0.19530745 -0.07812543 -0.3408605
000090 71 28 04 3e 0b 72 f4 3d df 64 66 be 5c 8e f0 bd
       0.12906052 0.119358145 -0.22499417 -0.11745903
0000a0 08 a2 d9 bc 5b 29 16 bc 3c c2 80 3e ad 84 5e 3d
       -0.02656652 -0.009165133 0.2514819 0.05432575
0000b0 15 49 bd be 2e 58 84 bd 79 69 0c bd 90 31 c7 bd
       -0.3696982 -0.064621314 -0.034280274 -0.0972625
0000c0 bf 69 32 3d 04 4d 15 be 05 be 9c 3d d8 ca 52 3e
       0.04355788 -0.1458016 0.07653431 0.20585191
0000d0 90 61 f2 bc b5 c3 ec bd 3b b0 e5 3b 6d 97 8b bd
       -0.029587537 -0.11560766 0.0070095337 -0.068159916
0000e0 ca ff 9f 3d cf fe ab 3d 9b ab 5a bd 83 78 9a 3e
       0.0781246 0.0839821 -0.053386312 0.30170068
0000f0 14 d8 f6 3d 5f 07 3f 3d 36 02 1b bd 70 14 49 bd
       0.120529324 0.04663789 -0.037843905 -0.049091756
000100 91 d7 4d 3e 4f 7c b7 3c d2 4a a7 bd a4 e3 dc bd
       0.20101763 0.022398142 -0.08168568 -0.107856065
000110 b6 11 15 3d 99 e0 76 3e 83 d4 90 be 33 ea 9b 3e
       0.036393844 0.24109115 -0.28287134 0.30452117
000120 c5 2f 4f 3e 25 23 a5 3e 70 b1 55 be b0 75 4d 3e
       0.20233066 0.32253376 -0.20868468 0.20064425
000130 7b 3a d4 bd c5 94 4b be 5f e0 53 3d 9c 17 6f bd
       -0.10362717 -0.1988097 0.05172765 -0.058372125
000140 8b 84 46 3d 72 ac 87 bd 0d 9c 31 be d0 91 67 3b
       0.048466247 -0.06624688 -0.17344685 0.0035334714
000150 8d 8f f0 bc ce fd 25 be 29 23 85 3d dd fe 8a be
       -0.029365325 -0.162101 0.06500847 -0.2714757
000160 61 4d 17 3e 30 04 d1 bd 73 b1 fc 3c f4 f6 75 3e
       0.14775611 -0.10205877 0.030846333 0.24019986
000170 a5 64 dc bc 79 50 d7 bc 1f dc 54 3e 64 f4 29 be
       -0.02690346 -0.02628349 0.20787095 -0.16597134
000180 43 34 5f 3e 13 58 ea be da 2f 1a be 74 f8 a8 bd
       0.2179728 -0.4577032 -0.15057316 -0.08250514
000190 ff cf a0 3e ba a1 23 3e 79 74 a1 bd c3 6d a2 bd
       0.31408688 0.15979663 -0.078835435 -0.07931092
0001a0 f7 5d bc bd b4 96 2b 3e cf 9a 27 3e a8 64 5d be
       -0.0919761 0.16756707 0.16367649 -0.21620429
0001b0 a9 e0 03 be ec e7 f3 bd 88 69 ab be 04 4f b4 be
       -0.1287867 -0.1190947 -0.3347895 -0.35216534
0001c0 99 a0 07 bf a5 c8 34 bd f8 68 c8 3d 6b 29 86 3e
       -0.5297943 -0.044136662 0.09785646 0.26203474
0001d0 5b 4c 35 3e 53 39 0e 3e c7 26 ad 3e 21 84 83 3d
       0.17704909 0.13889055 0.33818647 0.06421686
0001e0 83 81 a2 be c1 c4 d5 be 12 31 86 3e 97 a1 58 be
       -0.31739435 -0.41751674 0.26209313 -0.21155392
0001f0 79 40 45 3e 0d c7 9d bd 84 ec d7 bd 03 ba b2 bd
       0.19262876 -0.077039815 -0.10543159 -0.08726885
000200 dc f3 3e be a8 6d eb bd 8d 9c 3d 3e c1 fb 28 be
       -0.18647712 -0.11495525 0.1851675 -0.16502286
000210 6c b6 52 bd b3 81 af 3e e1 db 24 3d 3d 51 a5 bb
       -0.051443502 0.3427864 0.040248755 -0.0050450847
000220 90 6d b0 be 20 ee e3 bd dd 11 68 3e 65 c1 54 be
       -0.3445859 -0.11129403 0.22663064 -0.20776899
000230 d3 75 07 3e ad 47 e6 bd 37 7a d6 3e 59 da 47 bb
       0.1322854 -0.1124414 0.41890118 -0.0030495136
000240 90 9f 35 bd 61 97 89 be c5 8c 0d be 28 7d ca 3c
       -0.044341624 -0.26873305 -0.1382323 0.024717882
000250 65 0d 3f 3b 3f aa 05 be f4 62 2c bd 4b 70 2b be
       0.002915227 -0.13053225 -0.042086557 -0.16742055
000260 85 df 4e 3d 3d f5 f5 bc 78 75 59 be 85 ea 79 3e
       0.050506134 -0.030024165 -0.21236217 0.24405868
000270 e3 79 7d 3e 01 cb 75 bc a9 ab c0 bd 50 2f cb bc
       0.24753527 -0.015002013 -0.094077416 -0.024802834
000280 34 de 29 3e af 10 e4 bc 85 16 1b be a9 e3 a8 3e
       0.1658867 -0.027839987 -0.1514531 0.3298619
000290 c4 af 69 be ad b8 ad bd 9b 83 a3 3e 08 04 c6 3d
       -0.22820956 -0.0848249 0.31936345 0.09668738
0002a0 03 4f 8a 3e 44 df 32 3d b5 1e f7 3d 24 12 bd 3e
       0.27013406 0.043669954 0.12066404 0.36927903
0002b0 a3 41 d4 3d e3 7d a3 3e 7c 38 1c 3f 1b c9 68 3d
       0.10364082 0.3193198 0.6102369 0.056832414
0002c0 18 41 6d be 51 24 2f be 27 b0 fd 3d 20 4a 2f be
       -0.23169363 -0.17103697 0.12387114 -0.1711812
0002d0 c8 4c 3c be 63 bd fe 3d dd 2c 98 3c 61 b7 15 bd
       -0.18388665 0.124384664 0.01857608 -0.036551837
0002e0 cf d4 a5 3c 4b cb 45 3e f3 fb 1d be 25 3a 76 bc
       0.020243077 0.19315831 -0.15428142 -0.015028511
0002f0 50 36 3d 3e 69 2b b9 3c fa 6d 8b 3e 79 2a 94 3e
       0.1847775 0.022603707 0.27232343 0.28938654
000300 b9 49 af be 8f 64 86 3d 37 45 bb bd 1d 16 3d be
       -0.34235933 0.06562149 -0.09144061 -0.18465467
000310 7f 14 46 3e d7 a0 b6 be 56 d2 12 be 19 1a 09 3e
       0.19343756 -0.35669586 -0.1433805 0.13388862
000320 06 00 8e bc 45 1e 47 be 54 91 61 be ad ab 6c be
       -0.017333996 -0.1944514 -0.22028095 -0.23112364
000330 ec b6 73 ba 69 25 a4 3c 65 cf d7 3b d5 cd 4c 3d
       -0.0009296972 0.02003737 0.0065860027 0.050000984
000340 3b c6 a9 3d b7 43 25 3e 45 44 ba bd 57 aa 68 be
       0.082897626 0.16139112 -0.09095053 -0.2272123
000350 b8 08 73 bd 23 80 a2 3d 4f e6 28 bd 7d 69 36 bd
       -0.059334487 0.079345964 -0.041235264 -0.044534195
000360 3b fc b7 be fc 48 87 3e 8b f3 ba be 7d 0c cb bd
       -0.35934624 0.2642287 -0.36513934 -0.09914491
000370 63 c3 8d bc a7 63 11 3e 1f 7d d2 3b 99 7d da bd
       -0.017305082 0.1419817 0.006423607 -0.10668487
000380 e3 b9 e0 bd ed 27 31 be 70 1b 68 3d 15 2a 07 be
       -0.10972955 -0.17300387 0.05666679 -0.13199647
000390 d7 9f 11 bd 2c d8 35 be 05 d1 a5 3e dc 20 dc 3c
       -0.035552826 -0.17758244 0.32386032 0.026871137
0003a0 2b 36 52 bd 7b f2 3e be c9 f9 1e bd 6e 1d 2a 3e
       -0.05132119 -0.18647186 -0.038812432 0.16612789
0003b0 7c d8 53 3e 48 0c 6b 3e b0 a8 5b 3e d1 fb 70 3e
       0.20688051 0.22953904 0.21451068 0.2353356
0003c0 d4 6e 1b 3e bb ec 53 3e 3c 0b aa bd 2e 5c 28 3e
       0.15178996 0.20695774 -0.08302924 0.16441414
0003d0 98 29 e4 3c f3 c0 c5 3e a9 4c 6c 3d c7 b3 25 3c
       0.027851865 0.3862377 0.057690296 0.010113663
0003e0 5d ff 0f be d9 25 95 3e df d0 15 be 51 8e 08 3e
       -0.14062257 0.29130438 -0.14630459 0.1333554
0003f0 25 68 d1 3d 4f 13 09 3d c1 43 2a 3e 0a ba 8f be
       0.10224942 0.03346568 0.16627409 -0.28071624

3.bias f4 [10]
000000 f7 d4 92 bd 7f af 01 3d e4 74 44 3d 4e 2f 1b 3d
       -0.07169526 0.031661507 0.047963038 0.03788691
000010 78 04 d2 3d 43 35 e1 bd f8 1f 7a bd a8 a6 bf bc
       0.102547586 -0.10996487 -0.061065644 -0.023394898
000020 f4 c8 09 3e 6b bc e7 3d
       0.13455564 0.11315235
