simulation/saved_models/global_model_test_noname.pth (torch, 409368 bytes, 4 tensors)

fc1.weight f4 [128, 784]
0	0x3cba9011	0.022773774
1	0x3d346b76	0.044047795
2	0x3b651e7e	0.0034960802
3	0x3bdaf401	0.0066819196
4	0x3d44c561	0.048039798
5	0x3cc6c88f	0.024265556
6	0x3d84949f	0.0647366
7	0x3cc87576	0.024470072
8	0x3d1269a9	0.035745297
9	0x3d892839	0.06697125
10	0x3d04b300	0.03239727
11	0x3d3f234f	0.046664532
12	0x3cae2956	0.021259945
13	0x3d5c7ee1	0.05383194
14	0x3c9fd3ef	0.019510238
15	0x3b9472df	0.0045302953
16	0x3ccf088e	0.025272634
17	0x3d172567	0.036900904
18	0x3d690a4e	0.056894593
19	0x3cf3f94e	0.029781964
20	0x3d6544be	0.05597376
21	0x3c99bd31	0.018766971
22	0x3caba1c1	0.020951154
23	0x3d55ce82	0.052198894
24	0x3d93bcc7	0.07213741
25	0x3c8789d8	0.016545221
26	0x3d94e201	0.07269669
27	0x3d43fb66	0.047847174
28	0x3c8e7b97	0.017392917
29	0x3d0de4af	0.034641918
30	0x3cb38976	0.021916132
31	0x3d6350ff	0.055497166
32	0x3c6e3772	0.014539586
33	0x3d187f3f	0.037230726
34	0x3d85a337	0.065252714
35	0x3ce352c2	0.027749423
36	0x3d89d35f	0.06729769
37	0x3cb6330a	0.022241134
38	0x3cb7d80f	0.022441892
39	0x3c5060ee	0.012718422
40	0x3d6163c1	0.055026773
41	0x3c8bb128	0.017052248
42	0x3d2dc03a	0.04241965
43	0x3d302ca6	0.04301133
44	0x3ce8093e	0.02832472
45	0x3ce5bec2	0.028045062
46	0x3c81c240	0.015839696
47	0x3d903249	0.07040841
48	0x3d905c51	0.07048858
49	0x3c8b0161	0.016968431
50	0x3d8aa008	0.06768805
51	0x3d187149	0.037217412
52	0x3d6d8a9e	0.057993524
53	0x3d014d49	0.031567845
54	0x3d2e4421	0.04254544
55	0x3c81c730	0.01584205
56	0x3cb8b61a	0.02254777
57	0x3d82d637	0.063885145
58	0x3d5226ef	0.05130666
59	0x3ca9c65f	0.020724474
60	0x3d15d339	0.03657839
61	0x3d01f639	0.031728957
62	0x3b862068	0.0040932186
63	0x3d0aec08	0.033916503
64	0x3c888249	0.016663687
65	0x3d16dd47	0.03683212
66	0x3c1a84af	0.009431048
67	0x3c6150cf	0.013752176
68	0xbb9eb00f	-0.004842765
69	0x3d713132	0.058884807
70	0x3c45cad6	0.012072286
71	0x3bb757d1	0.0055951853
72	0x3ccf18b1	0.025280328
73	0x3ca5da17	0.020245595
74	0x3ce1efa2	0.027580086
75	0x3c2ab9b1	0.010420249
76	0x3cdf2c4e	0.027242806
77	0x3d61e5d1	0.05515081
78	0x3d00ac27	0.031414177
79	0x3d553471	0.052051965
80	0x3c418fd6	0.011814078
81	0x3d710cf2	0.058850236
82	0x3d0a3679	0.033743355
83	0x3d30bde1	0.043149833
84	0x3d803589	0.06260211
85	0x3d2b8961	0.04187906
86	0x3d2e02a6	0.042482994
87	0x3c6003ae	0.013672752
88	0x3b1e2ab1	0.0024134333
89	0x3d62c692	0.055365153
90	0x3d2d555f	0.042317744
91	0x3c2fba10	0.010725513
92	0x3d13af61	0.036055926
93	0x3d33b67a	0.043875195
94	0x3ce73b3e	0.028226491
95	0x3c38f06f	0.011287793
96	0x3c5b0eff	0.013370275
97	0x3d04dd4f	0.03243762
98	0x3d35a2df	0.04434478
99	0x3d06ce29	0.032911453
100	0x3d487cb1	0.04894704
101	0x3d50df1e	0.05099403
102	0x3d13f199	0.036119077
103	0xbabcb39a	-0.0014396787
104	0x3d0a6437	0.03378698
105	0x3d75b0c2	0.059983023
106	0x3d284907	0.04108527
107	0x3d8f4207	0.069950156
108	0x3d8c8bbf	0.06862592
109	0x3d61f99f	0.055169698
110	0x3d8d32c1	0.06894446
111	0x3cf3f012	0.02977756
112	0x3cd865f1	0.026415797
113	0x3c3f6886	0.011682635
114	0x3d596e30	0.0530836
115	0x3c580fd1	0.013187365
116	0x3d4b73e1	0.049671058
117	0x3d318bda	0.043346263
118	0x3d51fa3f	0.051264044
119	0x3d4a5dff	0.049406048
120	0x3bc15bdf	0.0059008445
121	0x3c086909	0.008325824
122	0x3ceda59e	0.029009636
123	0xbc3a1840	-0.011358321
124	0xbc920499	-0.017824458
125	0xbc852367	-0.016252233
126	0x3b8e87c1	0.004349679
127	0x3cf3c722	0.02975804
128	0x3ca61c1f	0.020277081
129	0x3d22ca60	0.03974378
130	0xbc71489e	-0.014726786
131	0x3ceda35e	0.029008564
132	0x3d0b6af9	0.034037564
133	0x3cb54d4f	0.02213159
134	0x3d29dbd9	0.04146943
135	0x3ba991f0	0.005174868
136	0x3c9fc019	0.019500779
137	0x3c80d0a0	0.01572448
138	0x3bef3b32	0.007300758
139	0x3cd10edf	0.025519786
140	0x3d5fb1e2	0.054613
141	0x3ce5bb62	0.028043453
142	0x3d7c3c8e	0.061581187
143	0x3d43e041	0.047821287
144	0x3ceac19e	0.028656777
145	0x3ccaefb1	0.024772497
146	0x3d0cdb01	0.034388546
147	0x3bad76cf	0.005293704
148	0x3d04d1bf	0.032426592
149	0x3aff819e	0.0019493585
150	0xbd043157	-0.032273617
151	0xbd27d429	-0.040973816
152	0xbd40703f	-0.046982046
153	0xbc3a02ef	-0.0113532385
154	0x3bee08d0	0.007264234
155	0x3ce110a1	0.02747375
156	0xbb8f03b1	-0.0043644537
157	0x3d008e7f	0.031385895
158	0x3d065148	0.03279236
159	0x3d2155c1	0.039388422
160	0xbbf89b12	-0.007586845
161	0x3d7e715e	0.062119834
162	0x3d467c7f	0.048458572
163	0x3d8fbc19	0.07018299
164	0x3c10863f	0.008821069
165	0x3d81ee70	0.063443065
166	0x3c26da19	0.0101838345
167	0x3c53df0f	0.012931599
168	0x3c314590	0.010819808
169	0x3ceae2ee	0.028672662
170	0x3d54cd1f	0.05195343
171	0x3cbe1e6f	0.023207871
172	0x3d5f9cef	0.054593023
173	0x3bc659c6	0.0060531823
174	0x3d024369	0.03180257
175	0x3c25c96f	0.010118826
176	0xbd4bd5d0	-0.049764454
177	0xbd2c345a	-0.042042114
178	0xbc8e01f1	-0.01733491
179	0xbc1d65d8	-0.009606801
180	0x3bcc4da6	0.0062348424
181	0x3c8c944f	0.017160563
182	0xbc9908b1	-0.018680902
183	0xbb786620	-0.0037902668
184	0x3caab371	0.020837517
185	0xbc141979	-0.009039276
186	0x3c367011	0.011135117
187	0x3cffad10	0.031210452
188	0xba4efb90	-0.0007895762
189	0xbb7e2bfe	-0.0038783546
190	0x3d1b2799	0.03787956
191	0x3c8602b8	0.016358718
192	0x3d027247	0.031847265
193	0x3d6dc6b2	0.05805082
194	0x3c2063b1	0.009789393
195	0x3d25b4c0	0.04045558
196	0x3c6d293e	0.014475165
197	0x3cfdcab2	0.030980442
198	0x3d7439b2	0.059625335
199	0x3d832439	0.06403393
200	0xbc1041b9	-0.008804732
201	0x3cbcf16f	0.023064343
202	0xbcd51f31	-0.02601585
203	0xbc5bb2f1	-0.013409362
204	0xbc1303ff	-0.008973121
205	0xbd7a0d22	-0.06104768
206	0xbd8c16e9	-0.06840307
207	0xbd604112	-0.054749556
208	0xbd1f7cbf	-0.038937327
209	0x3d786b00	0.06064892
210	0x3cc3bed1	0.0238947
211	0x3d775752	0.06038601
212	0x3d569711	0.052390162
213	0x3ceebf62	0.029143993
214	0x3cb3b98a	0.021939058
215	0xbcc698e1	-0.02424282
216	0xbb4d1f02	-0.0031299
217	0x3ca281c1	0.019837262
218	0xbc3895d6	-0.011266192
219	0x3d17679f	0.036964055
220	0x3d22826f	0.039675172
221	0x3d6c2af2	0.057658143
222	0x3d2bed7f	0.04197454
223	0x3d352a7f	0.04422998
224	0x3d42f63a	0.0475981
225	0x3d1d728f	0.03843933
226	0x3c196100	0.0093615055
227	0x3c19c66f	0.009385689
228	0x3ce3f4ae	0.027826633
229	0x3c154b10	0.009112135
230	0xbb2e7cc1	-0.0026624652
231	0xbd448e76	-0.047987424
232	0xbd9d2d51	-0.07674659
233	0xbc7904fe	-0.015198944
234	0xbd40b43f	-0.047046896
235	0x3d13e5cf	0.036107834
236	0xbb9dc439	-0.0048146513
237	0x3c6fc790	0.014634982
238	0x3d0bc519	0.034123514
239	0x3d80d60f	0.062908284
240	0x3d77264e	0.060339265
241	0x3cbd2eda	0.02309363
242	0xbcee1942	-0.029064778
243	0xbcf72a32	-0.030171487
244	0xbbbcfb70	-0.0057672784
245	0xbb934291	-0.0044940193
246	0x3c112a81	0.008860231
247	0x3af39130	0.0018582698
248	0x3b1879e0	0.0023266003
249	0x3d895d61	0.06707264
250	0x3d1687e1	0.036750678
251	0x3d82d6c0	0.063886166
252	0x3d1eee99	0.038801763
253	0x3d8edecf	0.06976091
254	0x3bb6d6e6	0.005579817
255	0x3ca44e19	0.020056771

fc1.bias f4 [128]
0	0xbd7ef830	-0.06224841
1	0xbc711ea2	-0.014716776
2	0x39eba562	0.00044945913
3	0xbbb3e4da	-0.0054899277
4	0xbce8d6e5	-0.028422782
5	0x3d8c60b9	0.06854386
6	0xbb51d37e	-0.0032016928
7	0xbcfa33f2	-0.030542348
8	0xbd504c9e	-0.050854318
9	0xbb4b1746	-0.0030989214
10	0xbd658d3e	-0.056042902
11	0xbd6f40be	-0.058411352
12	0x3c5e76ff	0.013578176
13	0xbd146757	-0.036231365
14	0xbcc1ab71	-0.02364132
15	0x3d015159	0.03157172
16	0xbd8ca251	-0.06866897
17	0xbd943bd7	-0.07237976
18	0xbd5f3631	-0.05449504
19	0x3afcf0c0	0.0019297823
20	0xbd0cfa47	-0.03441837
21	0xba6a0b6e	-0.0008928095
22	0xbbf38450	-0.0074315444
23	0xbd729cf2	-0.059231706
24	0xbc11a1bf	-0.008888661
25	0xbcf3150e	-0.029673126
26	0xbcea62f2	-0.028611634
27	0xbd2343b9	-0.039859507
28	0xbd740640	-0.059576273
29	0xbbf73a62	-0.0075448016
30	0xbd78da7e	-0.060755245
31	0xbbf4951e	-0.007464065
32	0xbd95bb5f	-0.07311129
33	0xbd3e4c7f	-0.04645967
34	0xbda8781f	-0.08226036
35	0xbd7f9ff2	-0.062408395
36	0xbd0980ef	-0.033570226
37	0xbd6c88fe	-0.057747833
38	0xbd5fbcb1	-0.05462331
39	0xbc9714d7	-0.018442554
40	0xbc53b8e2	-0.0129224975
41	0xbd20d6b9	-0.039267275
42	0xbc7b9b65	-0.015356873
43	0x3c53129a	0.012882853
44	0xbc1c4fa8	-0.009540476
45	0xbcafdc6f	-0.021467416
46	0xbd6aea1e	-0.057352178
47	0xbacaba8a	-0.001546697
48	0xbcc78ccf	-0.024359135
49	0x3b0de377	0.0021650472
50	0xbd135ebf	-0.03597903
51	0xbd064a2f	-0.03278559
52	0xbac02380	-0.0014659017
53	0xbd41c076	-0.047302686
54	0xbb92b95c	-0.004477663
55	0xbd4e586f	-0.050377306
56	0xbcd13050	-0.025535733
57	0xbcef9ab2	-0.02924857
58	0xbc87ff67	-0.016601278
59	0xbcc03ef6	-0.023467522
60	0xbd6fbb82	-0.05852843
61	0xbd41634a	-0.04721383
62	0xbd3e26a6	-0.046423577
63	0xbd2d8a5a	-0.04236827
64	0xbd6738de	-0.056450717
65	0xbd7c29a2	-0.06156314
66	0xbd88e22f	-0.06683766
67	0xbd0cf681	-0.034414772
68	0xbd32215f	-0.043488856
69	0xbd367571	-0.044545595
70	0xbd92b932	-0.071642295
71	0xbcb8222f	-0.022477238
72	0x3d4ced69	0.0500311
73	0xbd0886b7	-0.0333316
74	0xbd8e6a59	-0.06953878
75	0xbd9f62d7	-0.07782524
76	0xbd93612f	-0.07196271
77	0xbd8aa2a1	-0.067693
78	0xbd3530b6	-0.044235907
79	0x3c0e8741	0.008699239
80	0xbd781f7e	-0.06057691
81	0x3d02a7ee	0.03189843
82	0xbd3541c0	-0.044252157
83	0xbd1aee81	-0.03782511
84	0xbd278459	-0.0408977
85	0xbbb3f721	-0.0054921065
86	0xbd1a29c7	-0.0376375
87	0xbd6bdbe2	-0.057582743
88	0xbd79a8de	-0.06095206
89	0xbd075941	-0.033044104
90	0x3bd8fa62	0.006621645
91	0xbc88c267	-0.01669426
92	0xbd525f7f	-0.051360603
93	0xbcd952e1	-0.026528778
94	0xbd4331df	-0.047654983
95	0xbd23c5e7	-0.039983656
96	0xbd40d581	-0.047078613
97	0xbd1402e8	-0.036135584
98	0xbca14307	-0.019685281
99	0xbda3cee7	-0.07998448
100	0xbd41857f	-0.047246452
101	0xbd1fb897	-0.038994398
102	0xbd147780	-0.036246777
103	0xbd2dd001	-0.042434696
104	0xbcf9cf7e	-0.030494448
105	0xbc79b362	-0.015240522
106	0xbd5a1491	-0.05324227
107	0x3c8c9394	0.017160214
108	0xbc85b73f	-0.01632273
109	0xbd911af1	-0.07085217
110	0xbb069eb8	-0.002054138
111	0xbd5b3191	-0.053514067
112	0xbd37a626	-0.044836186
113	0xbd44d43a	-0.048053958
114	0xbc5810d7	-0.013187609
115	0xbd4aca0f	-0.049509104
116	0xbd6b6ece	-0.05747872
117	0xbd796252	-0.06088478
118	0xbcf58a1e	-0.029973086
119	0x3bdf9ece	0.006824351
120	0xbc7dff22	-0.015502723
121	0xbd751612	-0.0598355
122	0xbcfa56f0	-0.030559033
123	0xbc521430	-0.012822196
124	0xbd7630c2	-0.060105093
125	0xbd178c90	-0.036999285
126	0xbd642fbe	-0.055709593
127	0xbcd518ef	-0.026012866

fc2.weight f4 [10, 128]
0	0xbd1fd237	-0.039018836
1	0xbd89d079	-0.06729216
2	0x3cd69952	0.026196156
3	0xbd5b216f	-0.05349868
4	0xbf3dfea4	-0.74216676
5	0xbeb74d29	-0.35801056
6	0xbdb1e4df	-0.08686232
7	0x3c1920a9	0.009346166
8	0x3d0d7581	0.03453589
9	0xbdd5b452	-0.10434784
10	0xbd854b37	-0.06508487
11	0xbeae9dc1	-0.34104732
12	0xbd3b3136	-0.045701228
13	0x3da1728f	0.078831784
14	0xbd611c8f	-0.054958876
15	0x3d3938e1	0.04522026
16	0x3d20a079	0.03921554
17	0xbdfbf850	-0.12303221
18	0x3d80f417	0.062965564
19	0xbcd86882	-0.02641702
20	0x3d9235f0	0.07139194
21	0x3c003140	0.007824242
22	0xbd148bd7	-0.036266174
23	0xbd8faee7	-0.07015782
24	0xbc4c127a	-0.012455577
25	0xbda48b61	-0.08034397
26	0xbda24d3f	-0.0792489
27	0x3cfa7a4e	0.030575898
28	0x3d1d7150	0.03843814
29	0xbd845fa7	-0.06463557
30	0xbd86d369	-0.06583292
31	0x3d1d0340	0.038333178
32	0x3d71ff9e	0.059081666
33	0xbb87f778	-0.0041493736
34	0xbd49b721	-0.04924691
35	0xbdb4d30f	-0.08829319
36	0x3d8741d8	0.066043556
37	0x3d9d1ea7	0.07671862
38	0x3c1c4f71	0.009540425
39	0xbd00c2a7	-0.031435635
40	0x3bf5e6a0	0.0075042993
41	0xbd1eb7f9	-0.03874967
42	0xbda6030f	-0.08106052
43	0xbf0d5484	-0.55207086
44	0x3cea4242	0.028596047
45	0x3d21c5c0	0.03949523
46	0xbc4a75e6	-0.012357211
47	0x3c5a93c1	0.013340891
48	0x3b92bc51	0.0044780155
49	0x3d93c5a7	0.072154336
50	0xbc26edbf	-0.010188519
51	0x3d277e11	0.04089171
52	0x3d4cc006	0.049987815
53	0x3d1a1af1	0.03762335
54	0xbb2ee42e	-0.0026686299
55	0x3cc55381	0.02408767
56	0xbd7cd33e	-0.061724894
57	0x3d9629c8	0.07332188
58	0xbcc17e16	-0.023619693
59	0xbdc1a7f1	-0.094558604
60	0x3b9de8af	0.004818998
61	0x3ab928da	0.0014126555
62	0xbd014401	-0.031558994
63	0x3aadc8a1	0.0013258645
64	0xbd952db1	-0.072841056
65	0xbd6f467e	-0.058416836
66	0xbcf6595e	-0.03007191
67	0x3c8c71af	0.017144052
68	0xbdd610e1	-0.10452438
69	0x3b808011	0.0039215167
70	0xbf2195a0	-0.63118935
71	0xbd4be2a6	-0.049776696
72	0xbf0624a4	-0.5239966
73	0x3cf2731e	0.029595908
74	0x3d823b9f	0.06359028
75	0xbd31fbc1	-0.04345298
76	0xbd8c3421	-0.0684588
77	0xbb5a0aaf	-0.0033270528
78	0xbd2afb4c	-0.04174356
79	0xbe025040	-0.12725925
80	0xbd1e1441	-0.038593534
81	0xbeaa6029	-0.3327649
82	0x3cd56522	0.0260492
83	0x3dd247c1	0.10267592
84	0xbc50634f	-0.0127189895
85	0xbddc924f	-0.10770094
86	0xbd0e7bd1	-0.03478605
87	0xbd2ef02a	-0.042709507
88	0xbda0050f	-0.07813465
89	0xbc5da8c1	-0.013529004
90	0x3d07f4cf	0.033192452
91	0x3d77a9c2	0.060464628
92	0xbd3b5c26	-0.045742176
93	0xbd8c06e7	-0.06837254
94	0xbdb5053f	-0.08838891
95	0xbd504fb0	-0.050857246
96	0xbdb5011a	-0.08838101
97	0xbdbecf06	-0.0931683
98	0x3d39530a	0.045245208
99	0xbd809141	-0.06277705
100	0xbd8bf2f0	-0.06833446
101	0xbd08d218	-0.033403486
102	0x3c061aef	0.008185132
103	0x3d874b81	0.06606198
104	0xbd2f9b40	-0.042872667
105	0xbd009329	-0.031390343
106	0xbd080a71	-0.033213083
107	0xbe6452a7	-0.22297154
108	0xba3fad60	-0.00073119067
109	0xbd7211b2	-0.059098907
110	0xbd70d7c2	-0.058799513
111	0xbce5ce2e	-0.028052416
112	0x3bee7abe	0.0072778156
113	0x3d694b12	0.05695636
114	0xbf0639ca	-0.5243193
115	0x3d89d491	0.06729997
116	0xbca28a8f	-0.01984146
117	0xbd95c559	-0.07313032
118	0xbd9ef367	-0.07761269
119	0xbcde805e	-0.02716082
120	0xbd108f27	-0.03529277
121	0xbd55d7e2	-0.052207835
122	0xbd6e97be	-0.05825018
123	0xbded29c0	-0.11580229
124	0xbdbd54c6	-0.09244685
125	0xbd0b1e71	-0.033964578
126	0x3d285999	0.041101072
127	0xbe074a51	-0.13211943
128	0xbb24b810	-0.0025134124
129	0x3b2fef06	0.002684535
130	0xbcd28000	-0.0256958
131	0xbd0f57c7	-0.03499582
132	0xbec17c5d	-0.37790194
133	0xbf161019	-0.58618313
134	0xbdb4e63a	-0.08832975
135	0x3cfa9e4e	0.030593064
136	0x3cd058e1	0.025433006
137	0xbb0242d0	-0.001987625
138	0xbd3d9466	-0.046284102
139	0x3cd34f91	0.025794776
140	0xbd8538cf	-0.06504976
141	0x3d9fb091	0.07797349
142	0xbde1bb02	-0.11021997
143	0xbcafd0ef	-0.021461932
144	0x3c6a575e	0.0143030565
145	0x3ca9d077	0.020729287
146	0xbd42c8c6	-0.047554754
147	0x3d3ef826	0.04662337
148	0xbdce65be	-0.100779995
149	0xbdb162ff	-0.0866146
150	0xbde52d22	-0.11190249
151	0xbd8688cf	-0.06569063
152	0x3c78308e	0.015148295
153	0x3c9e4c37	0.019323451
154	0x3d0ead1f	0.03483307
155	0xbcef9a72	-0.02924845
156	0xbd9a7b49	-0.07543046
157	0xbc24dc5f	-0.010062306
158	0xbd0e7bf1	-0.03478617
159	0xbd89ac7f	-0.06722354
160	0xbcae2b50	-0.021260887
161	0xbc8e0a71	-0.017338963
162	0xbc8d0409	-0.017213838
163	0x3ca7b12f	0.02047023
164	0x3dbb98ff	0.09160041
165	0xbaf48370	-0.0018654894
166	0xbbb45caf	-0.005504213
167	0xbcc3e31f	-0.02391201
168	0xbd8d1617	-0.06888979
169	0xb74f2c00	-1.2348406e-05
170	0xbf4d4b30	-0.8019285
171	0xbe006003	-0.12536626
172	0x3dac5d21	0.084162004
173	0x3ca71477	0.0203955
174	0xbd8810b1	-0.06643809
175	0xbd8d575f	-0.0690143
176	0xbd8e9ca9	-0.06963474
177	0x3d9e4d2f	0.07729565
178	0xbd63d07e	-0.055618756
179	0xbd36839a	-0.0445591
180	0x3ccffc6e	0.025388923
181	0x3d34397a	0.044000126
182	0xbf277a63	-0.6542112
183	0xbcf2c3fe	-0.029634472
184	0xbda8a089	-0.08233745
185	0x3a3687e1	0.00069629966
186	0xbccf58af	-0.025310842
187	0xbd697452	-0.056995697
188	0xbd9cb677	-0.0765199
189	0xbdc8e0ef	-0.09808528
190	0xbd0c0df0	-0.03419298
191	0x3d262fcf	0.040572938
192	0x3cc726fa	0.024310578
193	0x3d3ce97f	0.046121117
194	0x3d87f721	0.06638933
195	0xbb823751	-0.0039738794
196	0x3d131b9f	0.035915013
197	0x3ce9de8e	0.028548505
198	0xbf442637	-0.7662081
199	0x3d0d880f	0.034553584
200	0xbe564ac4	-0.20926958
201	0xbccfc581	-0.025362732
202	0xbda00cdf	-0.07814955
203	0xbb29c957	-0.0025907361
204	0xbd6976b2	-0.056997962
205	0xbc3b7a21	-0.011442692
206	0xbecf3e02	-0.40476996
207	0xbd575ea2	-0.052580483
208	0x3cdc88ef	0.026920764
209	0xbf19192c	-0.59804034
210	0xbd4ab286	-0.04948666
211	0xbd8ec179	-0.06970496
212	0xbca750a9	-0.020424204
213	0x3cdee9a2	0.027211014
214	0xbd1db811	-0.038505618
215	0x3c65f430	0.01403527
216	0xbd75625e	-0.059908263
217	0xbc7f1cae	-0.015570803
218	0xbdbec0ba	-0.093141034
219	0xbc4aec2f	-0.012385412
220	0x3d0d7251	0.03453285
221	0xbcfdafee	-0.030967679
222	0x3b20b06f	0.0024519225
223	0x3d20da1f	0.039270516
224	0xbdadad71	-0.08480347
225	0x3c857b9f	0.016294299
226	0xbd897a79	-0.06712813
227	0xbd3110c6	-0.043228887
228	0x3d95d8b7	0.07316726
229	0x3c6228ff	0.01380372
230	0x3cc1e341	0.023667933
231	0x3c7a76de	0.015287129
232	0xbd865ddf	-0.06560873
233	0x3cb86926	0.022511076
234	0x3cb6d106	0.022316467
235	0xbf62d202	-0.88601696
236	0x3c4e0550	0.012574509
237	0xbc8f2f78	-0.01747869
238	0x3d6ce97e	0.057839863
239	0x3bfe7a1e	0.0077660223
240	0xbc5c1ace	-0.013434125
241	0x3d9b8797	0.07594221
242	0xbf2603fc	-0.6484983
243	0x3d1d6459	0.038425777
244	0x3c7be980	0.015375495
245	0xbd8312a1	-0.064000376
246	0x3bb5a17a	0.005542931
247	0xbdbb738a	-0.09152897
248	0x3d91bc30	0.07115972
249	0xbd987817	-0.0744478
250	0x3d7e2c1e	0.062053792
251	0xbd7a66be	-0.06113314
252	0x3d8abaf7	0.06773942
253	0xbd1be7af	-0.038062748
254	0xbc1cda11	-0.009573475
255	0xbd75a612	-0.05997283

fc2.bias f4 [10]
0	0xbede45b1	-0.43412545
1	0xbf06cf22	-0.5265981
2	0xbe74e9d0	-0.23917317
3	0xbeac46ce	-0.3364777
4	0xbe5d0072	-0.21582201
5	0xbe8c5039	-0.27404955
6	0xbec4b14c	-0.38416517
7	0xbe607a8e	-0.21921751
8	0xbee56c0b	-0.44808993
9	0xbe09fdc5	-0.13475712
