simulation/saved_models/global_model_delta_11-25_22-59.pth (torch, 409416 bytes, 4 tensors)

1.weight f4 [128, 784]
0	0xba9d954b	-0.0012022642
1	0xbc6ed667	-0.014577485
2	0xbd04e21b	-0.032442193
3	0x3c49c703	0.0123155145
4	0xbcd46672	-0.025927756
5	0x3bdb05d1	0.006684043
6	0x3c9591ab	0.018257936
7	0xbc8b790c	-0.017025493
8	0xbb870c62	-0.004121349
9	0x3c934a1a	0.01797967
10	0xbc17067c	-0.009217855
11	0x3c7af78c	0.015317809
12	0xbb6e9c24	-0.0036408985
13	0xbd1118e6	-0.035424136
14	0x3d079540	0.03310132
15	0x3aaa19bc	0.001297764
16	0x3cd5bee4	0.026092
17	0x3aa64edb	0.0012688296
18	0x3cf7954c	0.030222557
19	0x3cc0031c	0.023438983
20	0x3c9ea0a5	0.01936371
21	0xbcfc64eb	-0.03080984
22	0xbce61ff2	-0.028091405
23	0x3ce73335	0.02822266
24	0x3c0724b8	0.0082485005
25	0x3c1a742b	0.009427111
26	0xbce278d2	-0.027645502
27	0xbcd15681	-0.025553944
28	0xbc59d55b	-0.013295497
29	0x3c1c98cc	0.009557914
30	0x3cb0b1a4	0.02156908
31	0x3ccdea8c	0.025136255
32	0xbc0d4260	-0.008621782
33	0x3cf99355	0.030465761
34	0xbcd668ab	-0.026172956
35	0xbcf953e0	-0.030435503
36	0x3cc3c4e0	0.023897588
37	0x38e98584	0.00011135175
38	0x3c7edf6c	0.015556198
39	0x3c33f59b	0.01098385
40	0x3bf6fb65	0.007537293
41	0x3d0364a3	0.032078397
42	0x3d0b2a9c	0.033976182
43	0xbc3329e0	-0.010935277
44	0xbc898d9b	-0.016791156
45	0xbbdba2fe	-0.00670278
46	0xba99cb01	-0.0011733474
47	0xbc87173c	-0.016490571
48	0x3c49050a	0.012269268
49	0xbbb6228a	-0.0055583166
50	0xbd07d012	-0.033157416
51	0xbb9ef710	-0.0048512295
52	0xbd017465	-0.031605143
53	0xbd06e88e	-0.032936625
54	0xbca3e7bd	-0.020007962
55	0xbc8e12b4	-0.017342903
56	0x3bb7f2a3	0.0056136413
57	0xbc749efc	-0.014930483
58	0xbd10ad25	-0.035321373
59	0x3c925354	0.017862
60	0xbce8a3ec	-0.028398477
61	0x3baf886a	0.005356838
62	0x3ba0fda9	0.004913051
63	0xbb743bbb	-0.0037267047
64	0xbce09440	-0.027414441
65	0x3c5a0d52	0.01330884
66	0xbca78a4b	-0.020451685
67	0x3c3b1ccc	0.01142044
68	0xbd0614fe	-0.032734863
69	0x38b42d44	8.5915e-05
70	0xbd07e631	-0.033178512
71	0xbd1c2c69	-0.03812829
72	0xbd0e3bfe	-0.03472518
73	0xbcf2cfeb	-0.029640159
74	0xbd0d7415	-0.034534533
75	0x3c53d6a1	0.0129295895
76	0x3cacea80	0.021107912
77	0xbca6ceb9	-0.020362245
78	0xbcb024a3	-0.021501845
79	0x3c20977a	0.00980174
80	0xbc7004b0	-0.014649555
81	0x3c8ea30e	0.017411735
82	0xbaad6b4c	-0.001323083
83	0xbc08aeab	-0.008342425
84	0xbce31db4	-0.027724124
85	0x3bbd4613	0.0057761758
86	0x3cbd4e75	0.0231087
87	0x3d0a6454	0.033787087
88	0xbc865fcf	-0.016403107
89	0x3c60cd1a	0.013720775
90	0x3cdb0e55	0.026740232
91	0xbbca93fd	-0.0061821924
92	0xbb14892a	-0.0022664764
93	0xbc77715b	-0.01510271
94	0xbd08d7cd	-0.03340893
95	0x3ac8c9a4	0.0015318883
96	0xbc3590a9	-0.011081853
97	0x3c1ca0c9	0.009559819
98	0xbc88d23c	-0.01670181
99	0xbba80914	-0.0051280353
100	0xbc5a076d	-0.0133074345
101	0x3c6a689e	0.014307169
102	0x3c618129	0.013763704
103	0x3c49d5b5	0.012319018
104	0xbc200e75	-0.009769072
105	0xbc846e2e	-0.016165819
106	0x3cd82f2c	0.02638968
107	0x3bc64ca1	0.0060516153
108	0x3d05a189	0.032624755
109	0x3c959f14	0.01826433
110	0xbd0be6c4	-0.034155622
111	0x3c147b12	0.009062545
112	0x3bbb5cdc	0.005717857
113	0xbc98e346	-0.01866306
114	0x3c41d50c	0.0118305795
115	0x3cf70e32	0.030158136
116	0xbcf6e3be	-0.030137893
117	0xbcd21835	-0.025646308
118	0x3c4bb8a7	0.012434161
119	0xbcdf767d	-0.02727818
120	0xbcb1ee71	-0.021720143
121	0x3badb900	0.0053015947
122	0xbcdbef5d	-0.026847536
123	0xbd275fc0	-0.0408628
124	0xbd490dfb	-0.0490856
125	0xbd76e734	-0.060279086
126	0xbd6e810e	-0.058228545
127	0xbcce510e	-0.025185134
128	0x3ba8f581	0.0051562195
129	0xbd0850cc	-0.03328018
130	0xbd4260b7	-0.047455516
131	0xbc6401b9	-0.013916426
132	0xbce994d7	-0.028513355
133	0x3a74388b	0.0009316287
134	0xbb9ec5b5	-0.004845346
135	0x3bd2ef0b	0.0064371875
136	0xbcd96cb7	-0.026541097
137	0x3d11d75e	0.03560578
138	0x3a8e54e2	0.0010859037
139	0x3cc62664	0.024188228
140	0x3bd8f89c	0.0066214334
141	0x3cf2f3a5	0.029657194
142	0xbce645f2	-0.028109524
143	0xb8fc9f82	-0.00012046007
144	0xbc202977	-0.009775511
145	0xbcd90646	-0.02649225
146	0x3bb77b29	0.0055993986
147	0xbce2ebe0	-0.027700365
148	0x3ca2de46	0.019881379
149	0x3caa0af1	0.02075717
150	0x3c308c54	0.010775644
151	0x3c8a156c	0.016855918
152	0xbd056b32	-0.032572933
153	0xbce0eaa3	-0.027455634
154	0xbce45262	-0.027871314
155	0xbc8089c2	-0.015690688
156	0x3c24b1db	0.01005217
157	0x3d23f9a3	0.040032994
158	0x3c8ecbfd	0.017431254
159	0xbca475a7	-0.020075632
160	0xbbe99465	-0.0071282857
161	0xbc45818a	-0.01205481
162	0x3d63400c	0.055481
163	0xbb8d88a7	-0.0043192687
164	0xbb90860a	-0.00441051
165	0xbce91440	-0.028452039
166	0xbb82f6e7	-0.003996718
167	0x3ce1ea57	0.027577562
168	0xbd144fec	-0.036209032
169	0x3cc5fc84	0.02416826
170	0xbbe3f7f2	-0.0069570476
171	0x3ceddf65	0.029037187
172	0x3c5cb4a7	0.013470805
173	0xbb3e47ac	-0.002903442
174	0x3cf9aa87	0.030476822
175	0xbcd29a30	-0.025708288
176	0x3d233c27	0.039852288
177	0x3cb52c08	0.022115722
178	0x3bd2b667	0.0064304355
179	0x3d0f13a4	0.03493084
180	0x3d1bb08d	0.03801017
181	0xbc8c0439	-0.017091857
182	0xbb98e800	-0.0046663284
183	0xbcc261e8	-0.023728326
184	0x3c0fdbe0	0.00878045
185	0x3c95922f	0.018258182
186	0x3d27a8af	0.040932354
187	0x3d7f06fb	0.062262516
188	0x3d1dfd82	0.038571842
189	0x3da37e68	0.079830945
190	0x3d8b0249	0.06787545
191	0x3cb4c0e8	0.022064641
192	0x3d78b295	0.060717184
193	0xbc51a4a4	-0.012795601
194	0xbc825818	-0.015911147
195	0x3c0a3bcc	0.008437108
196	0xbc106fce	-0.008815719
197	0xbd06666f	-0.032812532
198	0xbbe1c03e	-0.006889372
199	0xbc8b3572	-0.016993258
200	0x3c3d0839	0.011537605
201	0xbcbfbc28	-0.02340515
202	0xbc89a1c4	-0.016800769
203	0x3c964f12	0.01834825
204	0xbbac4412	-0.005257138
205	0xbca4ac4f	-0.020101694
206	0x3d1195f0	0.035543382
207	0xbabacc39	-0.0014251537
208	0x3ca0c873	0.019626832
209	0xbd0d9454	-0.034565285
210	0xbd479c30	-0.048732936
211	0xbd1a7373	-0.037707757
212	0xbc738824	-0.014864001
213	0xbc71e46e	-0.014763935
214	0xbbb1a58b	-0.0054213456
215	0x3b447238	0.0029975306
216	0x3d6ef48b	0.058338683
217	0x3d2d8a58	0.042368263
218	0x3d3675ac	0.044545814
219	0x3dbe8374	0.093024164
220	0x3d287d9b	0.04113541
221	0x3d0d0032	0.034424014
222	0x3c31aaf4	0.010843981
223	0x3c93f44c	0.018060826
224	0x3c45bbab	0.012068669
225	0xbbd8a3ee	-0.006611339
226	0x3cf1e844	0.029529698
227	0x3cb5ed82	0.02220798
228	0xbd0c83bb	-0.034305315
229	0xbc658db7	-0.014010838
230	0xbc4df484	-0.012570504
231	0x3c3ed97d	0.011648533
232	0x3d007246	0.03135898
233	0x3cacf4f0	0.021112889
234	0x3d2c2a4b	0.04203252
235	0x3d1ea1f5	0.038728673
236	0xbd36205c	-0.044464454
237	0xbd19f61d	-0.037588228
238	0xbd4f5a30	-0.05062312
239	0xbc3eb22b	-0.011639158
240	0xbc6b9265	-0.014378165
241	0xbce5fe6b	-0.028075418
242	0x3cf94417	0.030427976
243	0x3d027e70	0.03185886
244	0x3d67b474	0.056568578
245	0x3d1ae274	0.03781362
246	0x3d7272d9	0.05919156
247	0x3d632f41	0.055464987
248	0x3d4e5172	0.05037064
249	0x3d46c6c5	0.048529405
250	0x3cd69897	0.026195807
251	0x3cdd69db	0.027028015
252	0x3c397d24	0.01132134
253	0x3b2be585	0.0026229334
254	0xbc82b09c	-0.015953355
255	0x3bbe77cc	0.0058126207

1.bias f4 [128]
0	0xbcaf6b90	-0.021413594
1	0xbd24770a	-0.040152587
2	0x3cad94a0	0.021189034
3	0x3b199875	0.0023436819
4	0x3be8735e	0.007093831
5	0xbbed297e	-0.0072376123
6	0xbd053313	-0.03251941
7	0xbb9576db	-0.004561288
8	0x3cfd6f00	0.030936718
9	0xbb464644	-0.0030254284
10	0xbc049143	-0.008091274
11	0x3cb0c550	0.021578461
12	0xbc9bef10	-0.019034892
13	0xbd0711a5	-0.03297581
14	0x3a91b7d9	0.0011117413
15	0x3cda4633	0.026644802
16	0xbbe7b825	-0.0070715123
17	0xbc67da07	-0.014151103
18	0xbcc9a247	-0.024613513
19	0x3cf6a1a5	0.030106375
20	0xbc5e1b7f	-0.01355636
21	0x3d21b0a5	0.039475102
22	0xbd1a93ac	-0.037738487
23	0xbcdefb87	-0.027219547
24	0xbb4dd809	-0.0031409285
25	0xbb9eb834	-0.004843736
26	0xbc1f4934	-0.009722043
27	0x3ce741bc	0.028229587
28	0x3cab721f	0.02092844
29	0x3b95acd3	0.0045677214
30	0xbbf4d367	-0.00747149
31	0x3a9e3afd	0.0012072023
32	0x3c3dee7d	0.011592505
33	0xbd09c43a	-0.0336344
34	0xba866c27	-0.001025562
35	0x3c88915b	0.016670873
36	0x3d069a8e	0.03286224
37	0x3c901bee	0.017591443
38	0xbcb37c74	-0.02190993
39	0x3ce99bc0	0.02851665
40	0x3bd5bb92	0.0065226043
41	0x3d0731eb	0.03300659
42	0xbc0c9fb0	-0.008582994
43	0x3b22d3ca	0.0024845474
44	0x3c920efc	0.01782941
45	0xbbe1f0c9	-0.006895159
46	0x3ced1b25	0.028943608
47	0xbc6b39ec	-0.014357071
48	0xbcc372cc	-0.02385845
49	0xbc8e094c	-0.017338417
50	0x3c4b8bb2	0.012423443
51	0x3ca79981	0.020458939
52	0x3be8f490	0.0071092322
53	0x3d067bf2	0.032833047
54	0xbb8a8f61	-0.004228518
55	0x3c88990d	0.016674543
56	0xbcaafa40	-0.020871282
57	0xbcc86b43	-0.024465209
58	0x3af6446e	0.0018788704
59	0xbca5a5cc	-0.02022066
60	0xbbad48bc	-0.0052882116
61	0x3c9c1b50	0.019055992
62	0x3b3494fc	0.0027554622
63	0xbd0189e0	-0.03162563
64	0x3cc7d624	0.024394102
65	0x3bd55dbb	0.0065114177
66	0x3a9d4674	0.0011999146
67	0xbcca9f3e	-0.024734136
68	0x3d019742	0.03163839
69	0x3c5f99f4	0.013647545
70	0xbc64c68b	-0.013963352
71	0xbbc5feac	-0.006042322
72	0xbd074b8a	-0.033031024
73	0x3beca50e	0.0072218245
74	0x3b6479f7	0.0034862736
75	0x3cd986cf	0.02655354
76	0x3ce843cb	0.028352639
77	0x3cc9f508	0.024652973
78	0x3c798ab2	0.015230821
79	0xbd0386f2	-0.032111116
80	0x3c812838	0.015766248
81	0xbd11c405	-0.03558733
82	0x3c4f073d	0.012636003
83	0xbcfda20b	-0.030961057
84	0xbd03ea65	-0.032205958
85	0xbd0d91b4	-0.03456278
86	0x3b56003b	0.0032653946
87	0xbaf2eee0	-0.0018534325
88	0x3ced23dc	0.028947763
89	0xbcba7f3e	-0.022765752
90	0xbcb194f0	-0.021677464
91	0xbc3d5c9b	-0.011557723
92	0xbd005172	-0.031327672
93	0x3cb622fc	0.022233479
94	0x3cafd3a4	0.021463223
95	0x3ccb5684	0.024821527
96	0xbc5eb700	-0.013593435
97	0xbcc753c9	-0.024331944
98	0xbca279aa	-0.019833405
99	0xbcb9b546	-0.022669446
100	0x3c0011c0	0.007816732
101	0x3beca844	0.0072222073
102	0xbc3d6404	-0.01155949
103	0xba0ca89a	-0.00053657
104	0x3b837786	0.004012051
105	0x3cd8d235	0.026467422
106	0xbaaf6f29	-0.0013384569
107	0xbc8015d3	-0.015635407
108	0x3be95885	0.007121148
109	0x3c098f53	0.008395988
110	0x3c257073	0.010097611
111	0xbc3d8f03	-0.011569741
112	0x3c984def	0.01859185
113	0x3c33c454	0.010972101
114	0x3b409611	0.0029386322
115	0xbd01b4b0	-0.031666458
116	0x3c9300f9	0.0179448
117	0x3d0c39d4	0.034234837
118	0xbc2b2ce9	-0.010447719
119	0x3ca393e6	0.019967984
120	0x3c25ef04	0.010127787
121	0x3b6a7d07	0.0035780089
122	0xbcf58699	-0.029971408
123	0x3ce9edab	0.028555712
124	0x3c248f06	0.010043865
125	0xbcd9108f	-0.026497154
126	0xbd117230	-0.03550929
127	0xbafaa752	-0.0019123352

3.weight f4 [10, 128]
0	0x3bd1d247	0.006403241
1	0xbdec89d0	-0.11549723
2	0xbd835fdd	-0.06414769
3	0x3ce2d2f3	0.027688479
4	0xbc965df7	-0.018355353
5	0x3da86ffe	0.08224486
6	0x3db60f27	0.08889609
7	0xbd1b6b80	-0.037944317
8	0x3cc138ee	0.023586717
9	0x3e0db99c	0.13840336
10	0xbe4cf7d4	-0.20016414
11	0xbdf82565	-0.121165074
12	0xbdf493d2	-0.11942257
13	0xbd64ff75	-0.055907685
14	0x3d7926b0	0.06082791
15	0xbdc5356c	-0.0962933
16	0xbe71e967	-0.23624192
17	0x3d2a20cc	0.041535184
18	0x3d9647d2	0.073379174
19	0x3dfaec5b	0.122521125
20	0xbc35c113	-0.011093396
21	0x3e646965	0.2230583
22	0xbe7d2c6b	-0.24723975
23	0x3d7792ac	0.06044261
24	0x3d6ea502	0.058262832
25	0xbcc3b9bc	-0.023892276
26	0xbba9d1b6	-0.00518247
27	0x3d96ffc5	0.07373003
28	0x3d30ea7f	0.043192383
29	0xbe08b83f	-0.13351534
30	0x3d86d4df	0.06583571
31	0x3d65e2f9	0.05612466
32	0x3d9183d2	0.07105221
33	0xbe182a1c	-0.14859813
34	0xbd92b463	-0.07163312
35	0xbd6b457e	-0.05743932
36	0x3cd7fb4d	0.026364947
37	0xbbbc6b7c	-0.005750118
38	0xbc5d1c7d	-0.013495562
39	0xbdf1ab5e	-0.11800264
40	0x3dc2ad30	0.09505689
41	0xbe313f2d	-0.17309256
42	0xbda0b414	-0.07846847
43	0xbe6e41f9	-0.23267354
44	0x3e559183	0.2085629
45	0xbdd89cd0	-0.105767846
46	0x3b870758	0.0041207485
47	0xbde45167	-0.11148339
48	0x3e68798e	0.2270262
49	0xbd6268a4	-0.055275574
50	0x3e95cf54	0.2925974
51	0x3e92b3d7	0.28652832
52	0x3e481e3c	0.19542783
53	0x3d58200c	0.052764937
54	0xbda3d77a	-0.08000083
55	0xbac3c2ab	-0.0014935335
56	0xbd59fa24	-0.05321707
57	0xbd021c4f	-0.03176528
58	0x3d637285	0.055529136
59	0xbdb54c73	-0.08852472
60	0x3e737a19	0.23777045
61	0x3ca151f0	0.019692391
62	0x3e9e8347	0.30959532
63	0x3cccd636	0.025004487
64	0xbc169f89	-0.00919331
65	0xbe33f917	-0.17575489
66	0xbe1106f9	-0.14162816
67	0xbd808e06	-0.06277089
68	0x3d3c51be	0.045976393
69	0x3e5c3399	0.21504058
70	0xbd961b60	-0.0732944
71	0xbe2b67d5	-0.16738828
72	0xbe0ef45a	-0.139604
73	0x3d914cb6	0.070947096
74	0x3dc1dce2	0.09465958
75	0xbe2273dc	-0.1586451
76	0xbbe470ac	-0.0069714393
77	0xbc40e5cf	-0.011773541
78	0x3ce14da0	0.027502835
79	0x3e11d657	0.1424192
80	0xbd85103d	-0.06497238
81	0xbe067824	-0.13131768
82	0xbd5a7765	-0.05333652
83	0xbd9535f9	-0.07285685
84	0xbdd56a87	-0.10420709
85	0xbdddf244	-0.10837224
86	0xbd67a1b9	-0.056550715
87	0x3d1a48ab	0.037666958
88	0xbd8a12cb	-0.06741866
89	0xbde87115	-0.11349694
90	0xbc03136c	-0.008000236
91	0xbd67987b	-0.0565419
92	0xbd73ac4c	-0.059490487
93	0xbc0ab5d4	-0.008466203
94	0xbc4c9aeb	-0.012488107
95	0x3e47b5f6	0.19503006
96	0x3c2040be	0.009781061
97	0x3d2c2e18	0.042036146
98	0x3d74c262	0.05975569
99	0xbd07de84	-0.03317119
100	0xbd08450b	-0.03326897
101	0x3d5fc6b2	0.05463285
102	0xbda7ff7e	-0.08203028
103	0x3d2fe515	0.04294308
104	0x3d96e319	0.07367534
105	0xb999c5fd	-0.00029329947
106	0xbe30e5e1	-0.17275192
107	0xbe1af7d1	-0.15133597
108	0xbd24579c	-0.040122613
109	0xbcab8fe7	-0.020942641
110	0xbca6b53b	-0.02035009
111	0xbdb2e594	-0.08735195
112	0xbd956a59	-0.07295675
113	0x3e92135c	0.28530395
114	0xbddc2e8c	-0.107510656
115	0x3d8722f9	0.065984674
116	0xbbfe2af9	-0.0077565876
117	0x3de26c78	0.11055845
118	0xbd50d66e	-0.050985746
119	0xbe0b8504	-0.1362496
120	0x3d29d589	0.04146341
121	0x3d07a49a	0.03311596
122	0xbe10f01e	-0.14154097
123	0x3defe1ab	0.117129646
124	0x3d2720cc	0.040802762
125	0xbe2a1344	-0.16608912
126	0x3c38e92c	0.011286061
127	0xbda8be5d	-0.08239434
128	0xbdba7abc	-0.09105441
129	0x3e136df3	0.14397411
130	0xbd7cf265	-0.061754603
131	0xbd86c4a6	-0.065804765
132	0xbdacafd7	-0.08431976
133	0x3d9fef78	0.07809347
134	0xbe0000e8	-0.12500346
135	0x3d712a87	0.058878448
136	0x3d662495	0.05618723
137	0xbdf313ae	-0.11868988
138	0x3da5cdc2	0.08095886
139	0x3dcc14e5	0.09964923
140	0xbd9b99ec	-0.07597718
141	0xba44a571	-0.00075014593
142	0xbcbfd55e	-0.023417171
143	0x3df11feb	0.11773666
144	0x3d819a95	0.06328312
145	0x3d02a1ce	0.03189259
146	0x3c40a3d5	0.011757811
147	0xbe3459b7	-0.17612348
148	0x3d7ca932	0.061684795
149	0xbe7ab5b5	-0.24483378
150	0x3e920a4b	0.28523478
151	0xbd964bd5	-0.073386826
152	0xbc9c5cbc	-0.019087188
153	0xbd9b315b	-0.07577773
154	0xbdfbb0e2	-0.12289597
155	0xbd2d9b1b	-0.04238425
156	0xbe0c20a4	-0.13684326
157	0x3df5c975	0.120013155
158	0xbd283bb4	-0.041072562
159	0xbb8c8468	-0.004288245
160	0xbb5d73c4	-0.0033790926
161	0xbdbeeeb9	-0.093228765
162	0x3d687479	0.056751702
163	0xbd8c6a90	-0.06856263
164	0xbe2a37d4	-0.16622859
165	0x3d852ced	0.065027095
166	0xbdd3995a	-0.10331984
167	0xbe148c14	-0.1450656
168	0xbe988250	-0.2978692
169	0x3e85b8e9	0.26117638
170	0xbcc63799	-0.024196433
171	0x3dc91012	0.09817518
172	0xbe029581	-0.12752344
173	0xbd1e9e81	-0.03872538
174	0xbc1cd3ef	-0.009572013
175	0xbd9349a1	-0.07191778
176	0xbe51bba2	-0.20481732
177	0xbe3532d4	-0.1769517
178	0xbde509dc	-0.11183521
179	0xbd2b3ba3	-0.04180492
180	0x3e0da4b5	0.13832362
181	0x3cd14d3a	0.02554952
182	0xbd66820e	-0.056276374
183	0x3d866052	0.065613404
184	0x3dc661d4	0.09686628
185	0xbd559f90	-0.052154124
186	0x3e0c2744	0.13686854
187	0x3d9662c7	0.07343059
188	0xbd066d89	-0.032819305
189	0x3e04e7fe	0.12979123
190	0xbe09a245	-0.13440807
191	0xbe132b0d	-0.14371891
192	0x3db6ac98	0.089196384
193	0x3e5acc4e	0.21366999
194	0x3d73a907	0.05948737
195	0xbc95c7a2	-0.018283669
196	0xbd59ef9c	-0.053207025
197	0xbda354cb	-0.07975157
198	0x3d51fa84	0.0512643
199	0xbdde1524	-0.10843876
200	0xbdd94a9b	-0.10609933
201	0xbe310eef	-0.17290853
202	0xbcb2a92e	-0.021809187
203	0x3ce19507	0.027536882
204	0xbdb6146c	-0.08890614
205	0x3e058b60	0.13041449
206	0x3d55d5d7	0.052205887
207	0xbe1187db	-0.14211981
208	0x3d86e414	0.06586471
209	0x3e43abcc	0.19108504
210	0xbced4c6c	-0.028967105
211	0x3da575a4	0.08079079
212	0x3e0f2836	0.13980183
213	0x3c0ad924	0.008474622
214	0xbe32dc8f	-0.17466949
215	0x3e32fb70	0.17478728
216	0xbdc903d9	-0.09815187
217	0x3e035e0d	0.12828846
218	0x3c254147	0.010086364
219	0x3c4bba9c	0.012434628
220	0x3daf8c02	0.08571626
221	0xbdf37725	-0.118879594
222	0x3d054ecb	0.032545846
223	0xbdb152d5	-0.08658377
224	0x3d2603ad	0.04053085
225	0xbc5fc766	-0.01365838
226	0xbdccf960	-0.10008502
227	0xbd12dfc8	-0.035857946
228	0xbd56ca91	-0.052439276
229	0xbda94d37	-0.08266681
230	0xbddc2e81	-0.107510574
231	0x3c86e73c	0.016467683
232	0xbd793d72	-0.060849614
233	0x3d481b76	0.048854314
234	0x3e5c4bc4	0.21513277
235	0x3e1e80f5	0.1547888
236	0xbc89f522	-0.016840521
237	0xbdada844	-0.0847936
238	0x3d9ebcc9	0.07750852
239	0xbd8e062c	-0.06934771
240	0xbdafdc76	-0.085869715
241	0xbd1f419a	-0.038880922
242	0x3dd56455	0.104195274
243	0xbdf9b1b4	-0.12192097
244	0x3d6d31d9	0.057908867
245	0x3b02617a	0.0019894526
246	0xbd70ea2b	-0.05881707
247	0xbd36e6dc	-0.04465376
248	0xbd8aacd1	-0.06771243
249	0x3c3b1075	0.011417498
250	0xbe727a30	-0.23679423
251	0xbde15396	-0.11002271
252	0x3d333d43	0.043759596
253	0xbd0436d8	-0.032278866
254	0xbd2afc6e	-0.041744642
255	0x3cd6f42e	0.02623948

3.bias f4 [10]
0	0xbda5351b	-0.0806677
1	0xbe11cad9	-0.14237536
2	0x3d8bad04	0.068201095
3	0x3dcdeefc	0.10055348
4	0xbcbe439e	-0.023225602
5	0xbd0fdb25	-0.035121102
6	0xbc5d7675	-0.013517012
7	0x3d16a309	0.036776576
8	0x3c6c717b	0.014431353
9	0xbcf7cc54	-0.030248798
