simulation/saved_models/global_model_delta_11-26_01-07.pth (torch, 409416 bytes, 4 tensors)

fc1.weight f4 [128, 784]
0.00838602 0.022033049 0.022390472 -0.013280966 0.03636569 -0.026339399 -0.018032195 0.031377416
0.021813052 -0.013153941 -0.002212231 0.036685143 -0.011229789 0.0024015482 0.03423007 -0.020605834
-0.02075273 0.032326862 -0.00677856 -0.027346434 -0.03300388 -0.0012969756 0.02304296 -0.023504408
0.011728084 -0.009405187 -0.0041007227 0.011394793 -0.026392402 0.020230541 0.019735696 -0.013327637
-0.0023351696 0.016109033 -0.017294137 -0.010956117 0.03230746 -0.0047690147 -0.033420194 0.011700714
0.009082819 -0.032738507 -0.02544421 0.011652908 -0.019020634 0.037482064 -0.017202528 0.010836309
-0.0157544 0.016302718 -0.0011904137 0.017960308 0.030925004 0.016678683 -0.019494297 0.022434343
0.024675908 -0.01746313 0.0343534 0.027195586 -0.017330406 0.02890417 0.012427309 0.03370458
0.032280013 0.018919779 -0.019636186 0.027140943 0.005328037 -0.021811651 0.026389448 -0.0062583867
0.012084877 -0.0007883231 0.009584104 0.013931415 0.023515074 -0.030604186 0.012022748 -0.02058232
0.006759889 0.022902323 -0.0049995356 -0.01469873 0.023753066 -0.014583328 -0.013119237 0.025347592
0.01562613 0.034956556 -2.45055e-06 0.036981087 -0.032064065 -0.025531026 0.033606052 -0.010348196
0.026186315 -0.030321715 0.010639585 0.006423037 -0.033034816 0.0069795246 -0.008707984 0.017888678
-0.019356387 0.006561853 0.0064241146 0.013495802 0.029340593 -0.025114672 0.023422824 0.0046352255
-0.013821944 0.015068754 0.021147607 0.026973786 0.036762774 -0.012391076 -0.009599597 0.0035456473
-0.015305034 0.029735506 -0.0016991469 0.008783981 -0.028013958 0.014143414 -0.0063849688 0.031959783
-0.0022047525 -0.0069543347 -0.031999677 0.004452353 0.03663053 0.035012618 -0.024373876 0.024366785
-0.018329429 0.0076782326 -0.01867892 0.023223681 -0.023181977 0.032109365 -0.0041805557 -0.033414323
0.034909185 -0.017175304 0.00029265598 0.002748793 0.012732096 0.00790792 -0.027513789 -0.034905914
0.01552999 -0.028814899 -0.016885318 -0.020318737 -0.0011434966 -0.034721423 -0.017400296 -0.013496234
0.034186423 0.010472051 -0.012262702 0.035515185 0.03544554 -0.0011657448 -0.019365469 -0.026074665
-0.019162329 0.014800913 0.0262738 0.005864802 -0.015114144 0.025063857 -0.026194127 -0.028253837
-0.00394989 0.01331599 -0.0044553536 -0.028762221 0.024792535 0.021227403 0.03160621 -0.025251152
0.009599407 0.0010020096 0.018488036 -0.013689502 -0.022144096 0.0074447314 0.0011378779 -0.0028266176
0.0047014286 -0.0041604494 -0.0052454364 0.01473654 -0.0109196305 -0.010264075 0.011094475 0.02124132
-0.0127643505 0.006043427 0.032918513 -0.0022161782 -0.022819908 -0.021759108 0.026650054 -0.023470087
-0.027770521 -0.015253046 -0.031886667 0.0067916145 0.03025913 -0.0036631862 -0.014404208 -0.034978535
-0.027912898 0.0077602486 0.00838364 0.004383587 0.01325792 0.0032763348 0.004883327 0.009470846
0.0166402 -0.006482553 0.00697073 -0.0012983443 -0.012884782 0.027412204 0.033227995 0.0200996
-0.015892072 0.01533658 0.02472551 -0.03813575 -0.0046254206 -0.020123975 0.02322009 0.023388175
-0.015389583 0.0035553353 -0.03085543 0.031877983 -0.0061874236 0.007686746 -0.0014128153 -0.025757255
-0.020588772 0.028905334 0.036579233 -0.020644652 0.034147054 -0.03247899 0.02482575 -0.03356999
00000000: 8465 093c a77e b43c 396c b73c 6998 59bc
00000010: 31f4 143d b9c5 d7bc 41b8 93bc 9b85 003d
00000020: 49b1 b23c a183 57bc 14fb 10bb 2943 163d
00000030: 26fd 37bc 4b63 1d3b d434 0c3d 91cd a8bc
00000040: a101 aabc 2c69 043d af1e debb a105 e0bc
00000050: 142f 07bd 48ff a9ba 97c4 bc3c 518c c0bc
00000060: 2627 403c 3718 1abc 5b5f 86bb 3ab1 3a3c
00000070: e134 d8bc 85ba a53c c1ac a13c 295c 5abc
00000080: a509 19bb 17f7 833c 6fac 8dbc 4981 33bc
00000090: d454 043d 6545 9cbb 9de3 08bd 5ab4 3f3c
000000a0: 1bd0 143c d018 06bd 6070 d0bc d7eb 3e3c
000000b0: 29d1 9bbc cb86 193d 51ec 8cbc c68a 313c
000000c0: 5f0f 81bc 478d 853c a807 9cba 7f21 933c
000000d0: 6f56 fd3c bca1 883c 81b2 9fbc 3ac8 b73c
000000e0: 2125 ca3c d70e 8fbc 27b6 0c3d 47c9 de3c
000000f0: 7ff8 8dbc 70c8 ec3c e99b 4b3c d00d 0a3d
00000100: 0c38 043d a7fd 9a3c 11dc a0bc af56 de3c
00000110: d096 ae3b 59ae b2bc af2e d83c 2713 cdbb
00000120: a6ff 453c 78a7 4eba a506 1d3c 9740 643c
00000130: afa2 c03c a1b5 fabc 0ffb 443c 419c a8bc
00000140: 0f82 dd3b a79d bb3c 25d3 a3bb f1d2 70bc
00000150: ca95 c23c e9ee 6ebc 11f2 56bc c1a5 cf3c
00000160: 5f02 803c 9b2e 0f3d 2174 24b6 7b79 173d
00000170: 9c55 03bd 7126 d1bc 80a6 093d 7b8b 29bc
00000180: af84 d63c 3f65 f8bc a751 2e3c 5778 d23b
00000190: 844f 07bd 7fb4 e43b efab 0ebc 478b 923c
000001a0: 4991 9ebc d004 d73b 6181 d23b 7f1d 5d3c
000001b0: af5b f03c 49bd cdbc 39e1 bf3c 17e3 973b
000001c0: 6f75 62bc efe2 763c bf3d ad3c 21f8 dc3c
000001d0: 9094 163d f103 4bbc a147 1dbc 175e 683b
000001e0: f7c1 7abc e097 f33c e9b5 deba b0ea 0f3c
000001f0: 877d e5bc c7b9 673c 0039 d1bb 43e8 023d
00000200: 9c7d 10bb 30e1 e3bb 1812 03bd 0be5 913b
00000210: e509 163d 6469 0f3d b9ab c7bc da9c c73c
00000220: 9927 96bc af99 fb3b 8904 99bc 973f be3c
00000230: 21e8 bdbc 1c85 033d 0bfd 88bb 75dd 08bd
00000240: effc 0e3d 39b3 8cbc 9f6f 9939 1825 343b
00000250: 489a 503c 3890 013c 9964 e1bc 81f9 0ebd
00000260: 8071 7e3c 390d ecbc 1453 8abc 7b73 a6bc
00000270: 61e1 95ba 0d38 0ebd 118b 8ebc 4f1f 5dbc
00000280: 1007 0c3d f792 2b3c 80e9 48bc 5f78 113d
00000290: 582f 113d e8cb 98ba 55a4 9ebc 899a d5bc
000002a0: 51fa 9cbc 877f 723c 273c d73c 862d c03b
000002b0: 51a1 77bc b852 cd3c 1195 d6bc 9774 e7bc
000002c0: 146e 81bb 4f2b 5a3c 37fe 91bb c09e ebbc
000002d0: b719 cb3c 17e5 ad3c 8375 013d 81db cebc
000002e0: d546 1d3c dd55 833a 3974 973c ef49 60bc
000002f0: 8967 b5bc eff2 f33b d924 953a c63e 39bb
00000300: 710e 9a3b 6154 88bb e9e1 abbb 8771 713c
00000310: 40e8 32bc a72a 28bc 9ac5 353c 4702 ae3c
00000320: 9121 51bc f107 c63b 90d5 063d 4d3d 11bb
00000330: d1f0 babc 2840 b2bc 3751 da3c 5744 c0bc
00000340: 017f e3bc e9e7 79bc 989b 02bd 318c de3b
00000350: ffe1 f73c 1112 70bb a1ff 6bbc a745 0fbd
00000360: 97a9 e4bc af49 fe3b 895b 093c 31a4 8f3b
00000370: bf37 593c c7b7 563b 5104 a03b 9b2b 1b3c
00000380: 0751 883c 996b d4bb b96a e43b 352d aaba
00000390: b11a 53bc 8f8f e03c 141a 083d eba7 a43c
000003a0: 1730 82bc 4746 7b3c 278d ca3c 3b34 1cbd
000003b0: d790 97bb 09db a4bc 0f38 be3c 8f98 bf3c
000003c0: 9724 7cbc a100 693b 87c4 fcbc 7d92 023d
000003d0: dfbf cabb 19e1 fb3b 372e b9ba e100 d3bc
000003e0: c9a9 a8bc e1ca ec3c 1bd4 153d f91e a9bc
000003f0: c8dd 0b3d b008 05bd 5f5f cb3c b080 09bd

fc1.bias f4 [128]
0.023431959 -0.037305135 0.0018261998 0.007757993 -0.03099708 -0.002884889 0.03453757 0.008749293
0.024141833 -0.033182483 -0.019614637 -0.013426543 -0.008319254 0.001631963 -0.029285613 -0.006485858
0.0022115042 -0.008492914 0.03489755 -0.02354541 -0.025043605 0.0047150464 -0.016594335 0.016831944
-0.035075523 0.02561065 -0.018854124 -0.01974854 0.022164086 0.00046080534 -0.01076188 0.033202257
0.016644124 0.030424388 -0.0059537883 0.005671874 -0.024439227 -0.030621199 0.021201085 -0.041016195
-0.03437687 0.00090823445 0.025321778 0.015196227 0.018402983 -0.033722606 -0.02190746 0.0010415537
-0.028145239 0.024649013 0.021565216 0.029069778 -0.032454114 0.011966013 -0.029725935 -0.032442145
-0.017907029 -0.013216128 0.031894274 0.024837939 -0.012630695 0.030017998 -0.0014991885 -0.02390405
-0.022516364 0.008911655 -0.036850605 -0.016925164 0.031008272 0.0018467375 0.018155064 0.026282717
0.024111355 0.022141727 0.0065648877 0.014517309 0.0048897555 0.012985923 -0.0054587307 -0.021805385
0.022506231 -0.009612238 0.0022003902 0.0022213159 -0.009453491 0.028051605 -0.0004672345 0.02516528
-0.036265586 -0.02262283 -0.015145649 -0.01925887 -0.01786396 0.0148420045 -0.01964268 0.0063408576
-0.0054119555 0.025742756 -0.009771041 -0.034513507 -0.014689968 0.026356518 -0.012638209 0.027992485
0.004681696 0.030636808 0.030586505 0.029684378 0.009873608 -0.035901345 -0.016814237 0.032816734
0.031463064 0.0059502446 0.020617276 0.016171444 0.022126345 -0.029670069 -0.0072298204 -0.017855229
-0.028355762 -0.02631415 -0.021553356 -0.036342286 0.0334292 0.03267346 0.022161629 -0.030234272
00000000: 61f4 bf3c 45cd 18bd 195d ef3a c336 fe3b
00000010: 97ed fdbc 6810 3dbb 4477 0d3d 3259 0f3c
00000020: 18c5 c53c 5bea 07bd e0ae a0bc 01fb 5bbc
00000030: 7b4d 08bc 97e7 d53a 62e8 efbc 5287 d4bb
00000040: e2ee 103b dd25 0bbc bcf0 0e3d 4ee2 c0bc
00000050: 3f28 cdbc ad80 9a3b d8f0 87bc 25e3 893c
00000060: 5aab 0fbd 6dcd d13c f773 9abc b1c7 a1bc
00000070: 7591 b53c 3f98 f139 9952 30bc 17ff 073d
00000080: 4259 883c 913c f93c ff17 c3bb 21db b93b
00000090: c634 c8bc 4fd9 fabc e6ad ad3c 9900 28bd
000000a0: c3ce 0cbd 9516 6e3a 9e6f cf3c 98f9 783c
000000b0: dac1 963c b720 0abd 4677 b3bc be84 883a
000000c0: d890 e6bc baec c93c 89a9 b03c be23 ee3c
000000d0: 9bee 04bd 190d 443c ce83 f3bc 0ee2 04bd
000000e0: c3b1 92bc 7588 58bc 92a3 023d ef78 cb3c
000000f0: f9f0 4ebc 4ee8 f53c 6b80 c4ba 6dd2 c3bc
00000100: 3d74 b8bc 3102 123c a9f0 16bd a4a6 8abc
00000110: 0f05 fe3c 3a0e f23a eeb9 943c da4e d73c
00000120: 2d85 c53c 9162 b53c 451e d73b 02da 6d3c
00000130: 3e3a a03b e9c2 543c 27df b2bb 35a1 b2bc
00000140: fd5e b83c a67c 1dbc 6c34 103b 7f93 113b
00000150: d1e2 1abc 7bcc e53c 27f7 f4b9 6b27 ce3c
00000160: 398b 14bd 8353 b9bc 7525 78bc c7c4 9dbc
00000170: 7057 92bc e12b 733c b0e9 a0bc f8c6 cf3b
00000180: c656 b1bb 79e2 d23c b716 20bc 095e 0dbd
00000190: 31ae 70bc a0e9 d73c 7e10 4fbc 7f50 e53c
000001a0: ea68 993b 0bfa fa3c 8d90 fa3c a72c f33c
000001b0: eac4 213c 4a0d 13bd 03be 89bc d76a 063d
000001c0: 6adf 003d 45fa c23b 90e5 a83c fa79 843c
000001d0: 4f42 b53c a50e f3bc 21e8 ecbb 2145 92bc
000001e0: 584a e8bc c690 d7bc aa90 b0bc a6db 14bd
000001f0: 0fed 083d 9bd4 053d 4e8c b53c ddad f7bc

fc2.weight f4 [10, 128]
0.03114487 -0.13154031 0.08198672 -0.16829154 0.38773853 0.12059843 -0.1099305 -0.080606826
0.038115926 -0.08673917 -0.13564093 -0.014857931 0.03937206 0.053465445 0.13565741 0.06924172
0.008349544 -0.110008486 0.29434183 0.065579 0.054459512 -0.04697155 0.03432812 0.1866326
-0.046897355 -0.041897148 0.0053795725 -0.01317837 0.055350546 0.011158471 0.012968854 -0.11066487
-0.088024914 0.030681938 -0.09413896 0.09972722 -0.00603285 -0.053692557 0.032598868 0.036398116
0.22193424 0.30131516 -0.062193453 -0.05662196 -0.11078817 0.05830187 -0.06507412 0.015543246
-0.05226803 0.25684717 -0.09963318 -0.008522478 -0.1664267 -0.039987862 -0.14955243 0.0013506662
-0.010276494 -0.08018424 -0.14972833 -0.26054478 0.1452228 -0.3185423 0.014483637 0.09112932
0.038482938 -0.2028021 -0.1643589 -0.032640617 0.14988354 -0.16518463 -0.123528056 0.011174383
0.017271062 -0.03361829 -0.12983096 0.057478588 -0.25549462 -0.18420169 -0.069377564 -0.13626009
0.018624106 0.08901695 -0.013765027 0.16920093 0.37819463 -0.018873502 -0.07945878 -0.10482951
-0.08621799 0.123164706 0.0007863368 0.17181936 0.014979886 -0.061924733 -0.07943364 0.07600983
-0.14503418 -0.19071749 -0.08726052 -0.030369999 0.044082694 -0.0013398567 0.0085370485 -0.10349541
0.02012706 -0.14242092 -0.049900554 0.2598595 -0.019299528 -0.11597686 0.0745498 -0.0726016
-0.04835025 -0.02078675 -0.29786703 -0.12733962 -0.06763177 0.13723548 0.14647281 -0.086013384
0.08834714 0.28224507 -0.080437884 -0.2430608 0.030447591 -0.0031980702 -0.0001846874 0.057987805
0.07097035 0.14034908 0.05192033 0.13255191 -0.28374404 -0.030455803 -0.11162064 -0.073116206
0.06552508 0.074449 -0.042997207 -0.022574702 0.060913227 -0.0032278944 -0.33841807 0.07977543
-0.10072564 0.08203348 -0.17911793 0.00940959 -0.062610395 -0.10268531 0.07688479 -0.08526669
-0.09274062 0.23346494 0.22399005 -0.011759901 0.017524049 -0.12453224 -0.075992 -0.017501013
-0.104428515 -0.00024938807 -0.14506301 -0.018168807 0.08651728 0.05220598 0.22412677 0.17584908
-0.017222958 -0.025513073 -0.046072815 -0.09053193 -0.02809312 0.0030546319 0.031499896 0.056736547
0.3082327 -0.20836113 -0.175545 -0.0051761246 0.12962787 -0.051314205 0.119424954 0.037126
-0.012356722 0.057537403 -0.013942947 0.22980385 -0.0093367975 -0.16853568 -0.12884367 -0.13822992
-0.11002133 -0.15341769 0.1666019 0.107657865 -0.13905951 0.017970854 0.1916584 0.08923225
-0.08201016 -0.057176344 0.05885341 0.013557152 0.013223394 0.20171593 -0.009061937 0.021156471
0.2117589 0.14250126 -0.0072508054 0.09586859 -0.252353 -0.1247972 -0.029121341 -0.11114732
0.14850156 0.01671596 0.083991244 -0.019300232 0.08632834 0.08097635 0.07338827 -0.0428505
0.07175831 0.06392219 0.03658793 -0.0015699278 -0.00013010834 0.02407754 0.009915812 0.123471126
-0.07128241 -0.13475712 0.03437557 -0.21486282 -0.11757604 0.06087446 0.07022301 -0.08928759
0.06844016 0.11304351 0.18596898 0.06534366 -0.031699277 -0.09688299 -0.09526078 0.12595317
0.02463256 -0.0045466083 0.13219412 -0.06563605 0.0742579 0.036173772 -0.05981164 -0.062730625
00000000: 8723 ff3c 81b2 06be a7e8 a73d 9e54 2cbe
00000010: aa85 c63e 4ffc f63d 3e23 e1bd 3115 a5bd
00000020: 721f 1c3d 4ea4 b1bd 75e5 0abe ae6e 73bc
00000030: 9944 213d 95fe 5a3d c7e9 0a3e 9ace 8d3d
00000040: 87cc 083c 214c e1bd f9b3 963e 484e 863d
00000050: f010 5f3d 3d65 40bd a59b 0c3d 9e1c 3f3e
00000060: 7117 40bd 589c 2bbd 2047 b03b 17ea 57bc
00000070: 41b7 623d 05d2 363c 517b 543c 43a4 e2bd
00000080: 6846 b4bd b058 fb3c edcb c0bd c93d cc3d
00000090: 37af c5bb baec 5bbd 6486 053d 3116 153d
000000a0: bb42 633e fb45 9a3e 90be 7ebd 6eec 67bd
000000b0: e8e4 e2bd f1cd 6e3d 9545 85bd 19a9 7e3c
000000c0: 0017 56bd 7981 833e 7b0c ccbd dda1 0bbc
000000d0: c36b 2abe 50ca 23bd 4624 19be d608 b13a
000000e0: bd5e 28bc a337 a4bd 6252 19be 2066 85be
000000f0: 49b5 143e fa17 a3be c74c 6d3c 02a2 ba3d
00000100: 49a0 1d3d 5bab 4fbe b34d 28be 2bb2 05bd
00000110: 127b 193e 2926 29be 47fc fcbd c214 373c
00000120: 0b7c 8d3c 55b3 09bd 68f2 04be ab6e 6b3d
00000130: 31d0 82be 5e9f 3cbe d315 8ebd c487 0bbe
00000140: 9591 983c 854e b63d b586 61bc 0243 2d3e
00000150: baa2 c13e 9a9c 9abc 49bb a2bd dbb0 d6bd
00000160: 0f93 b0bd c73d fc3d 2b22 4e3a 6af1 2f3e
00000170: 326e 753c caa4 7dbd 1bae a2bd 0bab 9b3d
00000180: d783 14be 724b 43be a5b5 b2bd 81ca f8bc
00000190: 0e90 343d 219e afba fade 0b3c 67f5 d3bd
000001a0: 81e1 a43c cad6 11be 8664 4cbd 4e0c 853e
000001b0: 0b1a 9ebc 4785 edbd 91ad 983d 26b0 94bd
000001c0: e90a 46bd f948 aabc 0782 98be 5165 02be
000001d0: 8782 8abd 7587 0c3e f8fc 153e c927 b0bd
000001e0: 58ef b43d 6d82 903e 9ebc a4bd eee4 78be
000001f0: 3a6d f93c b796 51bb a5a8 41b9 9f84 6d3d
00000200: e758 913d abb7 0f3e 69aa 543d b0bb 073e
00000210: e646 91be 737e f9bc 5d99 e4bd f3bd 95bd
00000220: 0332 863d b878 983d d71d 30bd 95ee b8bc
00000230: 2680 793d 158b 53bb 2245 adbe 4d61 a33d
00000240: 3f49 cebd 2b01 a83d b16a 37be ae2a 1a3c
00000250: e139 80bd ad4c d2bd c675 9d3d 4da0 aebd
00000260: cbee bdbd 6f11 6f3e a65d 653e 9aac 40bc
00000270: 988e 8f3c c20a ffbd b2a1 9bbd 495e 8fbc
00000280: 9ede d5bd 4dc0 82b9 668b 14be c0d6 94bc
00000290: f92f b13d f0d5 553d 7d81 653e c811 343e
000002a0: 2917 8dbc cb00 d1bc d9b6 3cbd ce68 b9bd
000002b0: 8b23 e6bc 3830 483b 0906 013d 9564 683d
000002c0: add0 9d3e 9f5c 55be 12c2 33be 7b9c a9bb
000002d0: 2bbd 043e d82e 52bd 1295 f43d 6f11 183d
000002e0: d973 4abc 57ac 6b3d f570 64bc b351 6b3e
000002f0: 5ef9 18bc 9e94 2cbe 98ef 03be 258c 0dbe
00000300: dd52 e1bd 8719 1dbe b099 2a3e ba7b dc3d
00000310: 9e65 0ebe 9d37 933c 1a42 443e 66bf b63d
00000320: f1f4 a7bd be31 6abd 4610 713d d11e 5e3c
00000330: efa6 583c 9f8e 4e3e 8578 14bc 5650 ad3c
00000340: 53d7 583e daeb 113e 2a98 edbb c056 c43d
00000350: 6a34 81be ad95 ffbd e18f eebc 35a1 e3bd
00000360: cb10 183e e9ef 883c 9a03 ac3d 851b 9ebc
00000370: eacc b03d eed6 a53d 974c 963d 0284 2fbd
00000380: 05f6 923d a3e9 823d 3add 153d 09c6 cdba
00000390: b16d 08b9 433e c53c ee75 223c 6ede fc3d
000003a0: 83fc 91bd c5fd 09be 66cd 0c3d 0005 5cbe
000003b0: b5cb f0bd 7f57 793d 15d1 8f3d 69dc b6bd
000003c0: 5b2a 8c3d 5b83 e73d a76e 3e3e e6d2 853d
000003d0: 1ad7 01bd 976a c6bd 1518 c3bd def9 003e
000003e0: 39ca c93c b7fb 94bb e55d 073e 326c 86bd
000003f0: 8714 983d f32a 143d 0dfd 74bd ea78 80bd

fc2.bias f4 [10]
-0.004022883 -0.12282367 -0.089574225 0.03812506 0.01962114 -0.046711374 -0.052052286 -0.055621393
0.10439866 0.072542556
00000000: 63d2 83bb fa8a fbbd b172 b7bd 0629 1c3d
00000010: 83bc a03c 6d54 3fbd c734 55bd 42d3 63bd
00000020: f7ce d53d 3191 943d
