simulation/saved_models/global_model_beta.pth (torch, 409184 bytes, 4 tensors)

1.weight f4 [128, 784]
00000000: 71b1 f13c d049 493c fa80 273d 5f34 873c
00000010: 4fcc bb3b 21d0 6f3c ca98 1bbc 6fd9 e33c
00000020: 5af3 193d 01b8 2b3d 21b9 263d 20d6 0c3d
00000030: 0afc 983b 7fcc d3bc 37e9 90bc 11bb 853b
00000040: 4627 2a3c 51f4 0b3d 8f25 d3bc a751 83bc
00000050: 0fbd 68bc 713f c83b 2fa0 bebc 1f7e b13c
00000060: 0b2f af3b 9924 073d fa78 9f3c 6f34 8a3c
00000070: 3979 8c3c 3f9f dd3c 2fc5 2a3d 0f43 4eba
00000080: 0107 75bb 711a b23c c0f6 92bb 5f1e d93b
00000090: e0f1 8e3b 3761 033d bfa3 94bb 2071 b23a
000000a0: 51de a73c c07b c0bb b18f dc3c effc c4bc
000000b0: 810c af3c 5fd1 8f3c 0100 2e3d 2700 86bc
000000c0: 4f99 ef3c a160 eeba 11a8 1dbc cf3d df3c
000000d0: 2146 893c 5f02 6fbc c684 2a3c 6b7f ac3b
000000e0: ffc1 fe3c e1ef d33c 91ad f43c bffc dc3b
000000f0: ab6e afbc b0da cc3c a18f 05bc 3fa2 763c
00000100: b754 913b 5fe8 01bc 70ff 1a3b 75b1 b4bc
00000110: bfc8 733b f1bc d8bc 0b2f b03c 20f4 7fbc
00000120: a7c3 81bb 6fba d4bc 4f88 233c 7f2c 63bc
00000130: ef05 033d c1f9 c1bc e1cf aebb bf76 d3bc
00000140: 8132 bebc 71da ae3b af01 07bc c119 24bc
00000150: 3145 9b3b 1fa6 953c 810b 213c 8133 cebc
00000160: 916b 003c bf0d 1a3d e90d 8b3b 9fd6 723c
00000170: 877e 813c d1c9 d8bc 4f6d 553c 9fac 9cbc
00000180: 9151 53bc 3173 a53c a5df b0bc 7f8b f93a
00000190: 6f29 1c3d e1a6 4abc 0f64 933c 0fc9 e4bc
000001a0: 795d 023d 11da d43c 9746 8c3c e7fd 8fbc
000001b0: 2ae3 943c 2b91 b13b 41fb 8bbb afa5 fe3c
000001c0: 5f31 c03c 8bf9 b2bc 0fc9 6bbb 119d 043d
000001d0: 405b b8bc d1fb 953c 1183 aabc ff6a 13bc
000001e0: 7087 243d f1bf 9e3c 1fbb afbc afcd c43c
000001f0: eb84 303d 17cf 863c 0144 b3bc abc9 2a3c
00000200: 0f7c dbba 7610 973c d9c7 0e3d d53c 37bc
00000210: 1a47 2a3d 47ab 043c 1fa7 ba3c 9ffe 6bbb
00000220: b173 e4bc afc8 d33b efa9 73bc d158 2b3d
00000230: 4110 9bbc 11b1 7e3c 41d8 073d d1cc c1bc
00000240: df97 7b3c cffd e63c a103 083b 0169 18bc
00000250: d1e5 bcbc 7687 a7bc 2780 8abc 4178 a0bc
00000260: c1c5 113d cf73 9bbc 7174 bebc 114b b4bc
00000270: 21aa 213c 4f61 babc 4115 d93c e108 ddbb
00000280: 2f57 aeba ffdc 59bc 8943 90bc ca8e 1dbc
00000290: f1aa e93c d741 8cbc 11c7 0d3d a18d 953c
000002a0: 0fe6 b23c e639 283c ff53 cd3b 514e c9bc
000002b0: 4f29 e4bc e1be cb3c 0787 053d d133 71bc
000002c0: ff09 323d df7d 3a3c 0f68 8bbc aa1e 143d
000002d0: 19c3 023b 8fb8 823b 8123 e53c b5b6 363d
000002e0: 818f a83c 8f60 0d3d 4ffa 8fbc a1c5 d1b9
000002f0: 1f5f aebb a184 bb3b 21e7 3c3c 9123 c8ba
00000300: c148 c1bc 3fdd ce3c 2ab3 1f3d df2f 143c
00000310: 1105 bd3c 0060 133d cfe2 2e3d bffb 273d
00000320: 465b a43b b1f1 d7b8 3168 da3a 61fc fabb
00000330: 1760 0d3d 777f 113d 40ba ec3c 3f13 68bc
00000340: 1f74 9ebc bfdb 303c 30e4 90bb 7554 b4bb
00000350: a984 043d d1be 083d 9757 0b3d afe5 68bc
00000360: 8656 963c 8b18 38bc 89cb 013d 711f 66bc
00000370: bf03 d63c 6fe8 453c 2a01 25bc 3f9f 0f3d
00000380: 0f25 c9bc d054 87bc 0752 0f3b dfb2 6a3c
00000390: 71b2 7bbc 7f48 e4bc ef16 c5bc 614d 103d
000003a0: b178 50bc ef9b 7e3c 5f75 3c39 4019 0a3d
000003b0: efff dfbb 2111 dd3b 87ad 00bd 210f d6bc
000003c0: 6abf 173d 1767 813c 0fa3 07bd b17a 57bc
000003d0: 11e7 dbbc f7e4 083d 4ffb e8bc a6c3 24ba
000003e0: 86bf 123d 9180 abbc 202d 033d ef6f 4f3c
000003f0: 4a2a 20bc 4abe 943b 215d eb3b 7060 2cbc
0.029503556 0.012285665 0.040894486 0.016504465 0.0057311426 0.014637024 -0.009496877 0.027813641
0.037585594 0.041923527 0.040703896 0.034383893 0.0046687173 -0.025854347 -0.01768933 0.004081138
0.01038534 0.034168545 -0.025774745 -0.016030146 -0.014205231 0.0061110784 -0.02326974 0.021666585
0.005346184 0.032993887 0.019466866 0.016870705 0.017147647 0.027053474 0.041691955 -0.0007868269
-0.0037388208 0.021741124 -0.0044849813 0.006625935 0.00436233 0.032075133 -0.0045361216 0.0013614036
0.02049175 -0.005874127 0.026923986 -0.02404639 0.021368267 0.01755589 0.042480472 -0.016357495
0.029247908 -0.0018186757 -0.00962259 0.027251152 0.016757073 -0.014587968 0.010407632 0.005264213
0.031098364 0.02587122 0.02986792 0.006743997 -0.021415075 0.025006622 -0.00815192 0.015053331
0.0044351476 -0.007928937 0.0023650788 -0.022057274 0.0037198511 -0.026457282 0.021506807 -0.015622169
-0.003960091 -0.025967805 0.009981229 -0.013865589 0.03198808 -0.023678662 -0.0053348397 -0.025813458
-0.023217442 0.005336099 -0.0082401475 -0.010015906 0.004738473 0.01826769 0.009829403 -0.025171043
0.007838146 0.037610766 0.0042436016 0.0148216775 0.015807403 -0.026463421 0.0130265495 -0.01912528
-0.012897865 0.02019653 -0.021591017 0.0019038765 0.03812545 -0.012368889 0.017992048 -0.027927903
0.031827424 0.025982888 0.017123504 -0.017577125 0.018174727 0.0054189167 -0.004271895 0.031084863
0.023461042 -0.021847507 -0.0035977995 0.032376353 -0.022504449 0.018308552 -0.02081445 -0.008997678
0.040168226 0.019378634 -0.021451531 0.024023859 0.04309551 0.01645617 -0.021883013 0.010424058
-0.0016745346 0.018440466 0.03485856 -0.011183937 0.041571714 0.008097476 0.022784768 -0.003600992
-0.027887197 0.0064631323 -0.014872058 0.04183275 -0.018928649 0.015545146 0.03316522 -0.023657234
0.015356033 0.028197197 0.0020754116 -0.009302379 -0.023058804 -0.020450335 -0.01690681 -0.019588592
0.035588983 -0.01897612 -0.023248883 -0.02200845 0.009867222 -0.022751478 0.026499392 -0.006745443
-0.0013301129 -0.0132973185 -0.017610328 -0.009616563 0.028523894 -0.017121239 0.034613673 0.01825601
0.021838216 0.01026771 0.0062661166 -0.024573477 -0.027851729 0.024871292 0.032599475 -0.014721827
0.043466564 0.011382549 -0.017017392 0.036162056 0.0019952713 0.0039892863 0.027971031 0.044607837
0.02057624 0.034515914 -0.017575411 -0.0004001083 -0.005321398 0.0057225977 0.011529715 -0.0015269389
-0.023594262 0.025251983 0.038989224 0.0090446165 0.023073705 0.035980225 0.04269677 0.04101157
0.0050157635 -0.000102970174 0.0016663132 -0.0076594804 0.034515467 0.03552195 0.028897405 -0.014164745
-0.01934248 0.010794579 -0.0044217333 -0.005503232 0.032353077 0.0333851 0.03401908 -0.014214917
0.018351804 -0.01123632 0.031688247 -0.014045582 0.026124833 0.012079342 -0.010071078 0.03506398
-0.024553804 -0.016519934 0.002186896 0.014324873 -0.015362368 -0.0278666 -0.024058787 0.035230044
-0.012724088 0.015540107 0.00017972801 0.033715487 -0.0068359296 0.0067464267 -0.03141549 -0.02613026
0.03704778 0.015796227 -0.03311449 -0.0131518105 -0.02684358 0.033421483 -0.028440146 -0.00062852574
0.035827182 -0.020935329 0.032025456 0.012660964 -0.0097757075 0.004539286 0.0071827327 -0.010521039

1.bias f4 [128]
00000000: f13e a6bc 4f59 203c a48c d63c 8f4c c2bb
00000010: bf2a d5bc 7b44 813b dff6 a63c db24 af3b
00000020: b147 a23b faea a83a 2f49 42bd d038 f93c
00000030: 7984 e63c bf5c 813c 2171 d83c b57a a83c
00000040: aa94 96bb 6126 b03a 811f 0cbb 2fdd 03bc
00000050: 49c3 0dbd c1e9 993c 1807 c139 d643 1839
00000060: f178 37bd 0fa0 b3bc 0181 cb3c c1bf ebbc
00000070: 7cf1 51bc 1123 f3bb d15f 2dbd a15d 3cbd
00000080: 6fb3 37bd 1e9f 71b9 6109 13bd 509e acbc
00000090: b3c1 62bc db74 36bd 93ce 3f3a b889 173c
000000a0: d0e1 ba3c 11fe 4b3a 016c 91bc df61 463c
000000b0: a1b0 11bd 1a91 97bc e477 c43c 4209 edbc
000000c0: 7e0e a73c faf8 1b3c 0fc9 8dbc 18df 04bc
000000d0: bb0d 203b 99e8 2abb b022 a03b 5a43 043d
000000e0: f188 c13c 057d 31bd f75a 42bc f132 e73c
000000f0: c09e ddbc bf5f f7bc b56c 0dbd 7abd 1cbc
00000100: bf9c f7bc a36e 8a3b 86db 123c c78b 79bc
00000110: 51c2 6c3b 41cf 8e3c af84 803c b15c abbb
00000120: 391c 20bc cfa4 3fbc 8827 08bb 2f04 413c
00000130: 91f4 fd3c ef70 dcbb 11ef de3b fa08 cbbc
00000140: 9f7d 8cbc bfa9 0dbd 6149 803c 17d9 813c
00000150: 5f87 f83c 6d01 ca3b 2be1 b13c 2ba5 f5bc
00000160: 7fb9 01bd b5a7 16bc 7fe6 653c 1b44 2abd
00000170: 9026 ae3a 4f56 20bd 3f35 85bd 79b8 87bc
00000180: eae2 043d 5171 01bd b0d9 663c 685c 9fbc
00000190: 9044 4bb9 4141 06bc 7f65 c3bc 1d28 033d
000001a0: e4ed 6e3c b18d 1e3c e11f 553b 07e5 d03c
000001b0: b770 913c 8143 3bbd 710e 48bc 0163 f7bc
000001c0: 9114 83bb d1d6 613c 6f03 063d ffe5 bfbb
000001d0: ef0e f7bc 13cd 87bc bd9f d63c 4fb3 72bc
000001e0: dca4 efbc 5154 57bd 6117 69bc c103 eabb
000001f0: ef3f e6bb 710c 29bd a9c2 9abc a13a 4a3c
-0.020293685 0.009786918 0.02619011 -0.0059295367 -0.02602136 0.003944931 0.02038139 0.0053449697
0.004952394 0.0012887411 -0.047433075 0.030422598 0.02813934 0.015791295 0.026421132 0.020566324
-0.004595359 0.0013439172 -0.0021381082 -0.00804834 -0.034610067 0.01878822 0.00036817114 0.0001452112
-0.044793073 -0.021926908 0.024841787 -0.028777959 -0.012813922 -0.0074199517 -0.042327706 -0.04598773
-0.044848856 -0.00023042827 -0.035897616 -0.021071583 -0.013840127 -0.044545036 0.0007316854 0.009249143
0.022812754 0.00077816943 -0.017751696 0.012108295 -0.035568837 -0.018501807 0.02398295 -0.028935079
0.020392653 0.00951981 -0.017307786 -0.00810983 0.0024422246 -0.002607858 0.0048869476 0.032290794
0.023624869 -0.04333212 -0.011862508 0.028222533 -0.027053237 -0.030197022 -0.0345275 -0.009566659
-0.03022611 0.0042246147 0.008963471 -0.015231079 0.0036126564 0.01743281 0.015688268 -0.0052295555
-0.009772354 -0.011697008 -0.0020775516 0.011780783 0.031000407 -0.00672733 0.0068034013 -0.024784554
-0.017149745 -0.03458571 0.01565999 0.015850587 0.030337987 0.0061647207 0.021713814 -0.029985985
-0.031671043 -0.009195258 0.014032005 -0.041568857 0.0013286639 -0.03914481 -0.065042965 -0.016567456
0.032442965 -0.031602208 0.014089987 -0.019453242 -0.0001938513 -0.008194269 -0.023852108 0.032020677
0.014583085 0.009677337 0.0032520222 0.025499834 0.017753942 -0.045718674 -0.012210474 -0.030198576
-0.0040002544 0.013784126 0.03271812 -0.005856275 -0.030158488 -0.01657728 0.026199216 -0.014813258
-0.029253416 -0.052570645 -0.014226765 -0.007141561 -0.0070266644 -0.04127163 -0.01889165 0.01234308

3.weight f4 [10, 128]
00000000: 6f9e 91bd 27dd 88bd d5ce cfbd c1be 60bd
00000010: 065f 9a3d 911f 9fbd 91a0 d03d 2fd1 523d
00000020: 7fba 47bd 5149 82bd 36d6 21be a7a5 273d
00000030: 0ef3 783d 1198 f63c 51ba bf3d 8396 97bd
00000040: cf67 f63b b104 553a 7b1a 2d3d 8b8d b5bd
00000050: efb5 e93d e577 2b3e bf38 803c 3bcc 373d
00000060: a14b 7fbd 0a2c 1bbd 1f70 51bd 87e3 89bd
00000070: 0a6a 193e 9f76 5ebd 2f73 6fbd b10c 133e
00000080: 884c 3fbe 663d a33d ef65 5abd e102 863d
00000090: 9d92 1dbc 0fcc cfbc d0c7 843d 81db 49bd
000000a0: 805f 8ebd aa91 163d 4149 823d 3649 a43d
000000b0: a1ae 653d a990 06bd cad2 43b9 66ac 56bd
000000c0: 900d 3b3d 8e8e cd3e ef0c 81bd f6eb 9c3d
000000d0: f5ba 183e 2569 aebc 0f38 a0bc c260 333d
000000e0: af83 e13c 5fe0 81bd 7567 14bd 216b 3abd
000000f0: f11d 583c b19d ea3c 3e99 69be c1e6 653d
00000100: 408d 0c3a 60a9 6a3d cfa0 e3bc 9d67 43be
00000110: 6f27 bf3d 1f96 47bd 89f6 0e3d 9b99 883b
00000120: 2569 b83a 7122 f6bc e17c 73bd afcf 813b
00000130: b10f 74bc f631 26bd 2f8a 34bd 61d8 03bc
00000140: e1c0 cdbd d7b3 0dbd f16b 8a3d f68a a83d
00000150: 4f4c d5bd 1ec7 473d 1175 24bd 709f 0ebc
00000160: 611f 8b3b 7102 1a3d 6193 58bc 3d5b f13b
00000170: b071 8bbd 258a 393d 5f34 f43c a5e0 fe3c
00000180: 6d8e 20bd 8ade a23c d2ec 9abd 5f79 b23c
00000190: dd02 aabc 5bdd 353d abaf 2e3d 6f45 a2bc
000001a0: 2ad6 d33b 40c9 8f3e f196 1f3e 6eca d53c
000001b0: 3ffb 7dbc 0586 303d 4048 aa3d f67a 9dbd
000001c0: 0f07 6abe 5127 13bd c18f 123d ff9e e83d
000001d0: efd7 9fbd a521 0e3d 261f 8fbd 5412 e6bc
000001e0: e882 7e3e 7f14 3bbc b7f3 8ebd 5f10 f83c
000001f0: 5fdb 4bbd 4fd6 ec3d 745c 0f3e d08e ab3d
00000200: ff8f 7ebd 864b 253d 6520 4ebe 7195 f33c
00000210: 7f7c 6a3d fc70 183b f18a 533c d15d 8d3d
00000220: 315b ccbc 7013 bcbd 210e 673e c2e1 9fba
00000230: ded4 893d eab4 a43d af02 643c ebd7 4f3d
00000240: 11b2 c5bd 89ff 08bc b6ed 94bd a1a8 8dbd
00000250: d673 26bd 0136 d4bd f6bf 98bd 71a0 e8bb
00000260: 5fde 153d 2f1a e13d 2024 36bc 5017 aabd
00000270: 5708 19be 872f 073e e1ee 1a3a 4f75 0dbd
00000280: 2dc9 d3bc 0550 5c3d d11f 983d 15e4 44bc
00000290: 80a0 263c f62b 97bd 5f0e 953d 7084 09bd
000002a0: 01f8 6b3d c9d6 8a3d b120 4bbd a279 a1bc
000002b0: 31d0 b7bc 002d bcbb 855e bdbb 1594 063e
000002c0: 6f44 6c3d 14c6 1dbe af8f febd cfec f2bb
000002d0: 5516 10be 8fe5 ab3d 4192 413c f990 a23c
000002e0: b138 57bd 31b8 6dbc fcb0 773d 01a6 7abd
000002f0: cf11 3b3c dfa2 743b 382f 8b3e df45 c2bc
00000300: bfe2 aa3d ecd2 d03b c91b 8ebd 3048 f5bd
00000310: cfff 87bd df5f 4bbd 9a68 173d 6bd1 8fbd
00000320: 6d2f 2cbd 91ae 01bd 1f62 8b3c 4f40 c13c
00000330: c1ac e6bc ff78 7cbd 5b56 ac3d c30d 97bc
00000340: ffbe 0a3b 5f48 483d e945 903c 01a4 383d
00000350: 11bf 653d 6297 143d 6f97 5e3d fe64 073d
00000360: c146 2dbd 15ed 083c 4083 d23c 6010 febc
00000370: 17cf 8f3d 90db 98bd 1f6f c13c aaa4 80bd
00000380: e881 993d 6f0a 0f3d bff6 8c3d d871 3abd
00000390: 961e 6fbd 0f7b 70bd 3f81 033d cc24 433d
000003a0: 2f82 cfbc 5942 5bbe 0187 25bb c12c f33c
000003b0: 4ea1 1bbd 8f68 abbd 00e4 5ebd 0fee 9ebd
000003c0: 9c60 a13d 0137 bebd 2f6c 05bc b139 aa3a
000003d0: 3b59 aebd df19 25bc dc0f 34bd e33c 74bd
000003e0: a714 bdbd ff93 9d3d bf1f 413d 3930 3bbd
000003f0: 2a4f 2abd f11d d2bc 7f02 d6bc 01b8 603d
-0.07110297 -0.066828065 -0.10146872 -0.054869417 0.075376555 -0.07769693 0.101868756 0.051469024
-0.04876184 -0.0636164 -0.15804371 0.040929463 0.06077867 0.030101808 0.09361709 -0.07401755
0.007519699 0.0008126004 0.042261582 -0.08864888 0.11411654 0.16744955 0.015652059 0.044872504
-0.062327985 -0.037883796 -0.051132318 -0.067328505 0.14981857 -0.054312345 -0.058459457 0.1436031
-0.18681538 0.07970695 -0.053319868 0.06543518 -0.009617475 -0.025365857 0.06483424 -0.0492816
-0.06951809 0.03676001 0.06361628 0.080217764 0.056074742 -0.032852802 -0.00018675174 -0.052410506
0.04566723 0.40147823 -0.06301295 0.076621935 0.14915068 -0.021290371 -0.01955798 0.043793447
0.027528612 -0.063416235 -0.036231477 -0.045512322 0.013190732 0.028639646 -0.22812364 0.056128267
0.0005361624 0.057290435 -0.02778664 -0.19082494 0.09333693 -0.04872715 0.034903083 0.004168702
0.0014069421 -0.03004572 -0.059445266 0.0039615254 -0.014896319 -0.04057499 -0.044077095 -0.008047194
-0.10046554 -0.034595337 0.067588694 0.0822963 -0.10414945 0.048773877 -0.040150706 -0.008705005
0.004245684 0.037599985 -0.013218732 0.007365613 -0.068087935 0.04529776 0.029810129 0.031112978
-0.039198328 0.019881506 -0.07564701 0.02178639 -0.020753318 0.044400554 0.042648 -0.0198085
0.0064647393 0.2808323 0.15584923 0.026097503 -0.015501796 0.04309656 0.08314562 -0.076894686
-0.22854255 -0.035926167 0.035781626 0.11358451 -0.07804858 0.034700055 -0.06988363 -0.028084911
0.24854624 -0.011418461 -0.06980079 0.030281244 -0.049769755 0.115643136 0.14000112 0.08376849
-0.062149044 0.040355228 -0.20129545 0.029734345 0.057247635 0.0023260703 0.012911544 0.0690266
-0.024945827 -0.09183395 0.22563984 -0.0012198018 0.06730054 0.08042319 0.013916655 0.050743025
-0.09653104 -0.008361706 -0.07271902 -0.06916929 -0.040637814 -0.10361863 -0.07458489 -0.007099204
0.036589023 0.10991322 -0.011117011 -0.08305228 -0.14944588 0.13201724 0.00059102295 -0.034535702
-0.025852764 0.05378725 0.074279435 -0.01201727 0.010170102 -0.07381432 0.07278132 -0.033573568
0.05760956 0.06779248 -0.049591724 -0.01971132 -0.02243814 -0.005742669 -0.00577909 0.13142426
0.05768245 -0.15407592 -0.12429749 -0.0074134837 -0.14071019 0.08393394 0.011814655 0.019844519
-0.0525443 -0.014509247 0.06047152 -0.06119347 0.01141782 0.0037328524 0.27184463 -0.023714958
0.0834403 0.0063728 -0.06938893 -0.11976659 -0.066405885 -0.049651977 0.03696499 -0.07022365
-0.042037416 -0.03166062 0.017014561 0.023590235 -0.028158547 -0.06163883 0.084149085 -0.01843918
0.0021170971 0.048897143 0.01761146 0.04507828 0.05609042 0.036277182 0.054343637 0.033055298
-0.042303804 0.008357306 0.02569735 -0.031013668 0.07021921 -0.07463753 0.023612557 -0.06281407
0.07495481 0.03492206 0.068830006 -0.045518726 -0.05837878 -0.058711108 0.03210568 0.047642514
-0.025330631 -0.21412028 -0.002525747 0.029684426 -0.03799563 -0.08369552 -0.054416656 -0.0776025
0.07879755 -0.09287835 -0.008143469 0.0012987164 -0.08513113 -0.010076969 -0.043960437 -0.05962838
-0.09232455 0.07694244 0.047149416 -0.045700286 -0.041579403 -0.025649043 -0.026124237 0.05486298

3.bias f4 [10]
00000000: 7c95 6ebe 3023 603e 8f96 8b3e 020a dd3e
00000010: 7995 78be c789 34bd 3f9f f9bd db30 d6bd
00000020: 9604 653d c89c c6bd
-0.23299211 0.21888423 0.27263305 0.43171698 -0.2427577 -0.044076707 -0.12188577 -0.10458537
0.055912577 -0.096978724
