simulation/saved_models/global_model_delta_11-26_00-45.pth (torch, 409416 bytes, 4 tensors)

1.weight f4 [128, 784]
00000000: 6a44 fb3b 6bb2 84bc f6eb c2bc a0c5 0cbd
00000010: b253 8b3b aec3 b23b cdf8 33bc e648 89bc
00000020: db41 41bc 5270 983c 28c2 a43c 0e71 e33c
00000030: 3647 813c 9ccc d4bc 04df 8cbc 9ec1 73bb
00000040: 996a 073d b180 20bc 4cf3 d5bc 661d 973c
00000050: 6aea 473c 2ad4 f5bc eaab b23c cc76 87bc
00000060: 46d2 5dbc f4d8 55bc ceb2 81bb 6ad1 073d
00000070: be3a 10bd 4e57 013c 83b8 893b 04dc 83bb
00000080: 58e4 d0bc b25d 9a3a fe1c 113c 8f46 003c
00000090: a860 023d 6d2d 853b b4e2 9abc 2c5f 913c
000000a0: e0f4 e43b 794d e13c 8c66 82bc 504c 2b3c
000000b0: bc50 ebbc 9a52 cd3b b4c0 49bc b6d1 673c
000000c0: 4064 05bd 90f5 6f3b 42d9 1c3c 2cb9 a8bc
000000d0: f1ce 0ebc de9d 003d eef5 cabc cc88 05bd
000000e0: 5663 46bc 5009 00bc 1025 a13c b0fd 8b3b
000000f0: ec63 0f3c 869c f9bc 7210 c5bb d01e 86bc
00000100: 3c6a c8bc a4c5 143c 489d 5bbc 0a56 11bd
00000110: b452 bdbc 9b0d 0ebc a57a b43b f2dc ec3c
00000120: 46ce b43c 2e71 3cbc 8d48 9d3c 8cd6 ad3c
00000130: 001e 08bb ee95 0ebd 6e47 1ebc cc57 583c
00000140: c261 423b a29d 08bd 4d6a 013d b2ad 9cbb
00000150: 5a6b ca3c fe3b b33b ea95 0b3d b830 efb9
00000160: 1256 943c 5a3e 743c d48b 80bc d343 df3c
00000170: 8ea7 fcbb ee7c 833c f623 49bb 72ea bc3c
00000180: d80c 8c3c 013a b73c 0b83 febc a1fe 82ba
00000190: 364b 27ba 4a8a 05bd 98e9 babb 1cb6 64bc
000001a0: 8753 ee3c acc0 193c 481d e5b8 0dd9 e43b
000001b0: 43b9 06bd 0751 b73b 640c fabc 1ef7 69bc
000001c0: ca07 f2b9 910e 03bc 3808 efbc 1ec2 ab3c
000001d0: 66d7 013d 7839 9c3c 56ff 393c b816 b1bc
000001e0: 44b8 d9bb c531 f1bb 7cc1 1bbd 6826 153c
000001f0: 5ca1 37bd 4c9b a2bc 90b5 e13c 7224 96bc
00000200: aa2c a9bb adbd 643c f5ba b13c fae4 073d
00000210: 7b57 c8bc 1a10 d73c d209 81bc 925c efbc
00000220: f409 b63c 07f7 723c 2a4c 6b3c 3c87 7e3c
00000230: 7864 f1bc 4cae 973c 420d 8c3c fa86 99bc
00000240: 2fe3 f13c e7b4 c8bc 8851 3a3c d1c9 83bc
00000250: 4737 50bb c7e9 2f3c b458 1fbd 1417 693c
00000260: ad6e 653c 9689 8abc f9ca 13bd da93 1e3d
00000270: 10fc 433d 2337 3c3d acf7 543d baa7 273d
00000280: 2263 143d 523d fabc d811 6fbc 5c40 bb3b
00000290: 3c12 be3c 120f 003d 1cb1 f73c 02a1 833c
000002a0: 446d 40bc fb23 92bb 04f1 98bc b684 9f3c
000002b0: 4051 f03c cd92 ebbc 20a0 3bbc 3ce3 57bc
000002c0: 3458 9f3c c23a 1ebd f4a5 89bc cec6 11bd
000002d0: a0fe b73c d46a 2f3c b8e2 8cbc d4ca 9dbc
000002e0: 0d5e 8c3c 000c 91b7 e7d7 ad3c 697f eb3b
000002f0: 5806 05bc e744 01bc b093 14bd 313d a5bc
00000300: 621a c73c e674 92bb 169d f93c 1e17 ffbc
00000310: f8f8 293c 27e3 c6bc a306 b63b 769a 5d3c
00000320: ae1a 3a3c b869 bb3c b068 cdbc 784d c3bc
00000330: 44ec e63c 6a03 2b3c 35e1 d23c 1683 963c
00000340: cfd4 ed3c a780 043c 4ea6 ebbb f431 033d
00000350: 5f46 15bd f002 d9bc 8e5a e03c 8c3d 51bc
00000360: 64ff 053c f428 b03c 90d4 273c c2e5 5ab9
00000370: 1d9b c7bc 77ce b1bc 70de db3c b780 b6bb
00000380: 9e43 0ebb e5a3 8ebc 3309 4bbc 8c40 703c
00000390: 26d7 cebc 40e2 7cbc 3512 793c 2870 0c3d
000003a0: 884c e93b f0bd b63c 52f5 babc 2a7a 683b
000003b0: fd42 fd3c 73b5 97bc 9d2b 9abc 0d80 fc3b
000003c0: 2e24 e4bc 86cd 0a3d 4222 fe3c 3236 79bb
000003d0: 325d de3c 1aeb 8abb 0d6f 213d d0aa 59bc
000003e0: 86d5 093d 8252 903c 20f3 51bc aca9 8e3c
000003f0: 1703 daba bf4c ad3c 3604 3f3c 07b1 0a3d
0.0076680677 -0.016198358 -0.023794156 -0.034368157 0.0042519206 0.0054554557 -0.010984612 -0.016758393
-0.011795486 0.018608246 0.020112112 0.02776387 0.015781026 -0.025976472 -0.017196186 -0.0037194262
0.033060644 -0.009796307 -0.02611699 0.018446635 0.012201885 -0.030008394 0.02181049 -0.016536139
-0.013538903 -0.013052214 -0.0039580828 0.033158697 -0.03521227 0.00789435 0.0042029037 -0.0040240306
-0.025499508 0.0011777191 0.00885701 0.0078293225 0.03183046 0.004064253 -0.018906929 0.017745577
0.006987199 0.027502762 -0.015918039 0.010455206 -0.02872502 0.0062659504 -0.01231401 0.01414912
-0.03256631 0.0036614873 0.009573283 -0.02059611 -0.008716331 0.031400554 -0.024775472 -0.032601163
-0.0121086445 -0.00781472 0.019670993 0.0042721853 0.008751851 -0.030470144 -0.0060139233 -0.016372114
-0.024464719 0.009080324 -0.013404198 -0.035482444 -0.023110725 -0.008670236 0.0055077844 0.028913949
0.022071015 -0.0115015935 0.019199634 0.021220468 -0.0020769835 -0.034810953 -0.009660585 0.013204526
0.002966032 -0.033353455 0.031595517 -0.0047814483 0.024709392 0.005469798 0.034078516 -0.0004562193
0.018107448 0.014907444 -0.015691675 0.02725402 -0.0077104038 0.016050782 -0.00306916 0.023061011
0.017095968 0.022366526 -0.031068346 -0.0009994098 -0.0006381752 -0.032602586 -0.005704116 -0.013959434
0.029092563 0.009384315 -0.00010925025 0.0069838823 -0.032891523 0.005594376 -0.030523486 -0.014280109
-0.0004616364 -0.007999078 -0.029178724 0.020966586 0.03169956 0.019070372 0.011352381 -0.021617278
-0.0066442806 -0.0073606693 -0.038026318 0.009103395 -0.04483162 -0.019849442 0.027552396 -0.018327925
-0.005162795 0.013961238 0.021695593 0.033177353 -0.024455776 0.026252795 -0.015751753 -0.029218946
0.022221543 0.014829404 0.014361421 0.015535172 -0.029466853 0.018515728 0.017096166 -0.01874112
0.029527275 -0.024500323 0.011371978 -0.016087444 -0.003177123 0.010736889 -0.038902953 0.014226694
0.014003438 -0.01691131 -0.03608224 0.03871522 0.047847807 0.04595102 0.05199401 0.04093144
0.036227353 -0.030546818 -0.014591657 0.0057144593 0.023202054 0.031264372 0.03023582 0.016067985
-0.011744801 -0.0044598556 -0.018669613 0.019472461 0.029335618 -0.028756524 -0.011451751 -0.0131767355
0.019451238 -0.038630255 -0.016802765 -0.035589986 0.022460282 0.010706622 -0.017197952 -0.019261755
0.01713469 -1.7290935e-05 0.021221114 0.0071868193 -0.008119188 -0.007889963 -0.03627366 -0.02017078
0.024304572 -0.004469502 0.030470412 -0.031138953 0.0103743 -0.024278237 0.0055549904 0.013525596
0.0113589 0.022877559 -0.025074333 -0.02384065 0.028188832 0.010437826 0.025742153 0.018373054
0.02903214 0.008087314 -0.007191456 0.03203006 -0.036444064 -0.026490659 0.02738693 -0.012771022
0.008178566 0.021503903 0.01024355 -0.00020875692 -0.024365956 -0.021704895 0.026839465 -0.005569543
-0.0021707783 -0.017412135 -0.01239233 0.014663827 -0.025249075 -0.015434802 0.015202095 0.034286648
0.007119719 0.022307366 -0.022822056 0.0035473206 0.030915732 -0.018519139 -0.018819625 0.0077056945
-0.027849283 0.03388741 0.031022195 -0.0038026688 0.027144048 -0.004239452 0.039412547 -0.013285354
0.033650897 0.017617468 -0.012814313 0.01741489 -0.0016633001 0.02115476 0.011658719 0.033860233

1.bias f4 [128]
00000000: 7c59 e73c 834a ea3c 2612 9ebc 9e84 3d3b
00000010: de6b 6a3c 0cb0 e3bc 1051 cf3c b73e c43c
00000020: f8b2 bcbc aa40 f1bc a80b 94bb e8e5 033d
00000030: e4d4 03bc ec1e c2bb 2ca1 903c 8f67 f1bc
00000040: 4495 d03b b67e 8abc 160d c9bc bc98 d239
00000050: 1c03 11bd 09c4 3f3c 4431 00bc d093 fcbc
00000060: 4072 a23c e491 a13c b11b 273d a40d 3c3c
00000070: 77af 72bb ef77 f1bc 56c7 8bbc 4a37 7e3c
00000080: ac31 463b c34d 293b 2a62 173b 2008 8a3b
00000090: 389d 493c 36fd c139 ac03 98ba 1273 993b
000000a0: 4e08 f63c 44a2 e5bc dffd 47bc 0bc2 a9bb
000000b0: a894 673c 07c8 4dbc f29c 0a3d 2016 ed3b
000000c0: 6e1b 80bb a421 ca3c 2ef4 5d3c fa94 d0bc
000000d0: ccb6 a63b b08c 92bc 6223 97bc 84aa 02bc
000000e0: 6e02 0bbd 5d8b a13c bd72 1cbc 6134 73bb
000000f0: fc49 b3bc 7936 55bc 9c56 4dbc ca29 333c
00000100: 1a19 d93c 5e91 c4bc 1a54 c13c 3e41 493b
00000110: b768 96bc e90e d5bc c663 02bd 9cfb 003d
00000120: 3456 96bc 4c78 0a3d 49bb ca3c 4c9b 82bc
00000130: 8f54 863c acd7 59bc 0af1 d33c 96d5 c7bc
00000140: 73f3 dc3b 0724 29bd e692 113c b4af 73bc
00000150: 56f4 fdbc 8f1b 193b c174 273c f07f cc3b
00000160: 2d7e 05bd 1ae8 fbb6 243b 18bb 4479 88bc
00000170: f56a 2b3c 909f efbc bd77 80bc e6f8 ed3c
00000180: ad32 623c cc45 27bc dc70 a5bc 4c9f f13c
00000190: feb9 74ba 5a9e bb3a 088d f13c c22a 69bc
000001a0: db62 e83c 9877 9eba c776 a23c be5b f4bc
000001b0: 3ab8 d73c 5157 ff39 ae88 9f39 2ef5 543c
000001c0: 3791 18bc 90d1 fe3c ca79 193c 3320 28bc
000001d0: cba9 903c 6cda 46bb d461 923c 3f8d a9bc
000001e0: a449 5abc 184d efba 347c 1fbd d285 5dbc
000001f0: c4d4 04bd 0449 46bc ae45 fa3c a020 a3bc
0.028240912 0.028599983 -0.019295763 0.0028918157 0.014307944 -0.027793907 0.025307208 0.023955686
-0.023034558 -0.02944978 -0.004517991 0.032201678 -0.008046363 -0.0059240963 0.017654978 -0.029468326
0.00636545 -0.016906124 -0.024542373 0.00040168117 -0.035403356 0.011704453 -0.007824246 -0.030832201
0.01982987 0.019722886 0.040797893 0.011477862 -0.0037030855 -0.029476134 -0.017062824 0.015516112
0.003024201 0.0025833703 0.0023099282 0.0042123944 0.01230555 0.00037000485 -0.0011597774 0.004682907
0.030033257 -0.028031476 -0.012206524 -0.0051806024 0.0141345635 -0.012559897 0.03384108 0.0072353035
-0.00390952 0.024674244 0.0135469865 -0.025461663 0.005087709 -0.01788935 -0.018449489 -0.007975224
-0.033937864 0.019719774 -0.00954884 -0.0037110078 -0.021885864 -0.013013476 -0.012532856 0.010935256
0.026501227 -0.023995098 0.023599673 0.0030709053 -0.018360479 -0.026008086 -0.031833433 0.031489953
-0.018351652 0.03380613 0.024747508 -0.015943192 0.016397743 -0.013296049 0.025871772 -0.024393838
0.0067428886 -0.041294124 0.008885121 -0.014873434 -0.031000298 0.0023362373 0.010220707 0.0062408373
-0.032591034 -7.507403e-06 -0.002322861 -0.016659386 0.010462512 -0.02925089 -0.015682096 0.029049348
0.013806027 -0.010209512 -0.020195417 0.029494904 -0.00093355763 0.001431416 0.029486194 -0.014231386
0.02836745 -0.0012090085 0.019832028 -0.029828902 0.026332963 0.00048702446 0.00030428678 0.0129979085
-0.009311966 0.031105787 0.009367416 -0.010261583 0.017659089 -0.0030342592 0.017868914 -0.020697234
-0.013323221 -0.0018257229 -0.03893681 -0.013520675 -0.03242947 -0.012102369 0.030550804 -0.019913018

3.weight f4 [10, 128]
00000000: 7658 8c3c 8e84 e23d bc66 77bd da1e 82bc
00000010: 7c75 a43e c6d5 52bc 0e4d 6dbd d0e5 2ebe
00000020: 6601 e2bc ada9 cd3c 41a4 1f3e 9a7f dfbd
00000030: d5a8 193e 1eb8 7a3c 6c5f 29be 4dc9 98bb
00000040: 3c95 0bba 118e 4fbc 52dd 0e3c 488f 193d
00000050: 7380 06bd 357c 9f3d 12eb 3ebc bd9f 74bb
00000060: 7ea1 ca3e 4e65 94be b944 013e 60f4 43bd
00000070: 5ccb 903e 9cb4 6cbd fcc9 053b 32f4 2abe
00000080: 7e03 0ebe 80ff b83d 8a17 1d3d ad1c ca3d
00000090: 32f9 5dbd 3b32 dbbd b63c 8d3d 000c 7c3b
000000a0: 89e4 473c 0014 1b3e 8202 e0bd b586 653e
000000b0: 58e0 30be b2ac 57be f61e b2bc 059b c0bc
000000c0: ad01 933d fad1 d1bd 8471 b83d fca6 8b3b
000000d0: 8cdc 3b3d c8a1 e5bd 7087 fc3c c6eb 8cbd
000000e0: ee09 a33d 28ca 25be ee18 1f3d f702 51be
000000f0: 8602 793d 22c3 9a3d e82d b03d 3fe6 423d
00000100: 1291 923c 1285 c7bd c0ff 0dbe ba9e be3e
00000110: b698 57bd 38c9 6d3e 35da 343c 8bc5 0abd
00000120: f9b2 123e 2f12 893e 85a1 74be 1e27 16be
00000130: 094e ab3d 947e 30bd 3849 f4bd 04a3 68be
00000140: 1a9c 64be 2dec 7ebd 7370 52bd 3e6d 523d
00000150: d868 09be f1de 803e 8224 3f3d aca2 8fbd
00000160: 06ca 913d ef5d 13bd 921f e5bc 364d c9bd
00000170: 0e78 04bd b841 b4bd 5c3e 06bd a612 88bd
00000180: f82f f93d 5815 c43b fab1 16bd e00b 593d
00000190: ba9e 9abd bf2a 843d fcf3 f73d c038 943a
000001a0: 32d7 e6bd 02d7 5bbd 0b39 503e a417 a0bc
000001b0: 8a3c 973d b60c 94bd e232 2ebe 3ca6 9dbd
000001c0: 27cc 8abd aa84 863d 9e11 3dbe be7c 54be
000001d0: d0af 73bd a45f 80ba 8e8e 1cbe 0cbd c33d
000001e0: 8095 3a39 b863 0d3e 6433 43be 2916 2c3d
000001f0: b684 94bc 2e73 ed3d de8a ea3c 608f 243e
00000200: 6fa7 933a b3d1 993c 64d5 7cbe 6801 573d
00000210: 649c 3abe 69e2 58bc 5491 253e 10d7 ea3d
00000220: b0a8 68bc ab90 98bd 9740 81be ee99 f03c
00000230: f601 b8bd 99d9 ecbc 0cfe 3bbc efc3 f1bd
00000240: 03c3 52bd 18e5 053d 83cd 1b3e 441e 14be
00000250: d84f fe3d f8aa 9ebd 78fd 263e 0152 07be
00000260: 68ed a6bb ae13 e43d 2184 59bd 80ed 6bbe
00000270: cf9c b73b ac32 323c c8cd 9dbd d85f 3b3d
00000280: b478 133e 2c12 efbc 1694 d53d 282a 80bd
00000290: cd3d aabc abcb 87bc 6cf2 18bd 72de 9dbd
000002a0: 5c63 46be a869 a3bd b02a b2bc 9a1b 27bd
000002b0: c519 3e3e 4051 4e3e 1091 a93d bc21 4fbd
000002c0: e572 a6bd b36b b6bb c8e7 5fbd 8659 7bbc
000002d0: 3218 3d3c ef60 453d 1e4e 7bbd a640 513e
000002e0: de0c 733d 9999 263e 7332 13be a76c bebd
000002f0: 1b91 a6bd 3ef0 873c e466 6d3d 3347 04bd
00000300: 0052 f03c 253d 863c b5b9 323e fb86 a4be
00000310: b7d2 aa3d 7c6c 3cbe 6a2a 0c3d 6e2f 893d
00000320: a2f9 58bd 14fb 4dbe 6702 0e3e c833 28be
00000330: b62c fe3d fe07 97bd 3170 b0bb f244 6f3e
00000340: 221a 58be ad59 4f3d ac6d 2a3a ac0a b13d
00000350: 961b 853e e8ce c0bd f758 643d 14e4 97bd
00000360: 87f1 a4bd f1e7 4abc 7fa6 1a3e b2ba dfbd
00000370: a459 36be ce3a 66bd a5c9 c0bc 0d82 29be
00000380: 6476 b1bd 8777 5e3d dd22 913d d06f 823d
00000390: 5c2f 343e ec70 52bd a5cb 35be a301 6d3d
000003a0: 6c96 13bc b0d1 433d 3610 bebd c02a 203d
000003b0: 8daa 27bb 8033 183e a7e2 b33d c4ff 8b3c
000003c0: 37d8 c83d eaa7 313d 0a5c 7bbe 7475 15be
000003d0: 1097 513c 9870 cdbd 48e4 003e c1e9 aabd
000003e0: d41e d83d e66a 733d f7d9 6f3d 7ca1 08be
000003f0: 423a 9f3d b93a dd3d 6169 da3a 8e8e dbbd
0.017132025 0.11060439 -0.06040071 -0.015883852 0.32120883 -0.01286835 -0.057934813 -0.17079854
-0.027588557 0.025105322 0.15590002 -0.1091301 0.1500581 0.015302686 -0.16540307 -0.004662669
-0.0005324667 -0.012668149 0.008719759 0.03749016 -0.032837342 0.077873625 -0.011652725 -0.0037326657
0.39576334 -0.2898354 0.12623872 -0.047840476 0.2828015 -0.05778943 0.0020414582 -0.16694716
-0.1386852 0.09033108 0.038352527 0.09868751 -0.05419273 -0.1070294 0.06896345 0.00384593
0.012200483 0.15144348 -0.10937978 0.22414668 -0.1727308 -0.21061972 -0.021743279 -0.02351142
0.07178054 -0.10245128 0.090060264 0.0042618494 0.045864627 -0.11212498 0.0308263 -0.06880908
0.07960878 -0.16190398 0.038842134 -0.20411287 0.060793422 0.0755675 0.08602506 0.04758286
0.01789144 -0.09742178 -0.13867092 0.37230474 -0.05263587 0.2322129 0.011038353 -0.033879798
0.14326085 0.26771685 -0.2388974 -0.1466336 0.083644934 -0.043089464 -0.11928028 -0.22718436
-0.22325173 -0.062236954 -0.05137677 0.051373713 -0.13418901 0.2517009 0.046665676 -0.07013449
0.07118611 -0.035978254 -0.027969155 -0.0982918 -0.032341056 -0.08801597 -0.032774314 -0.06644182
0.121673524 0.0059839897 -0.036790825 0.05298984 -0.07549806 0.06453466 0.12107083 0.0011308417
-0.11271514 -0.053671844 0.2033426 -0.019542523 0.07384594 -0.07228987 -0.17011598 -0.07697722
-0.0677722 0.065682724 -0.18463752 -0.2075071 -0.05949384 -0.0009794128 -0.15288755 0.09557542
0.00017794035 0.13807571 -0.19062573 0.04201332 -0.018129688 0.115942344 0.02863067 0.16070318
0.0011265109 0.01877675 -0.24690777 0.052491575 -0.18223721 -0.013237574 0.1616872 0.11466801
-0.0142003745 -0.07449468 -0.2524459 0.029370274 -0.08984749 -0.028912352 -0.011474144 -0.118049495
-0.05145551 0.032689184 0.15215115 -0.1446467 0.12417573 -0.077474535 0.16307628 -0.13214876
-0.005094219 0.11136566 -0.053104524 -0.23039818 0.00560341 0.010876339 -0.07705265 0.0457457
0.14401513 -0.02918347 0.10428636 -0.06258041 -0.020781422 -0.016576609 -0.037340567 -0.07708444
-0.1937384 -0.07979137 -0.02174887 -0.040797807 0.18564518 0.20148182 0.082796216 -0.05056928
-0.08127383 -0.005567038 -0.054664403 -0.015341168 0.011541413 0.048188146 -0.061353795 0.20434818
0.059338443 0.1626953 -0.14374714 -0.092980675 -0.081331454 0.016594049 0.057959452 -0.032294463
0.029335976 0.016386578 0.17453654 -0.32134232 0.08340972 -0.18400759 0.034220137 0.066984996
-0.052972443 -0.2011531 0.13868104 -0.16426003 0.12410872 -0.07374571 -0.005384468 0.23366144
-0.21103719 0.05062263 0.0006501328 0.086446136 0.2599761 -0.09414464 0.055748906 -0.07416549
-0.0805388 -0.012384401 0.15102576 -0.10924281 -0.17807633 -0.056208424 -0.023533652 -0.16553517
-0.08665159 0.05431321 0.07086728 0.06368983 0.17596191 -0.051377222 -0.17753465 0.05786289
-0.009008031 0.047807395 -0.09280436 0.03910327 -0.0025583834 0.14863396 0.08783465 0.017089732
0.09806865 0.043373026 -0.24546829 -0.14595586 0.012792364 -0.10031241 0.12587082 -0.08345366
0.10552755 0.05942812 0.058557477 -0.13342851 0.07774784 0.10802216 0.0016663485 -0.107205495

3.bias f4 [10]
00000000: 81e3 9cbd add7 58bc 4c73 f73c c164 ca3d
00000010: dd27 98bd fea7 453d 6adc ecbd 9cb9 39bd
00000020: 6c86 5d3e bee0 6a3c
-0.076605804 -0.013235015 0.030206345 0.098824985 -0.07429478 0.048255913 -0.11565478 -0.045343027
0.21633309 0.014335809
