simulation/saved_models/global_model_test_12-04_00-20.pth (torch, 409408 bytes, 4 tensors)

fc1.weight f4 [128, 784]
0	0x3cf9900c	0.030464195
1	0xbbcff11f	-0.0063458825
2	0xbbcfc5b1	-0.0063407053
3	0x3d0478aa	0.032341637
4	0x3d01f122	0.031724103
5	0x3bab664c	0.0052307006
6	0xbaa13a93	-0.0012300782
7	0x3cd8ec5f	0.026479898
8	0xbac0beb3	-0.001470527
9	0xbc3ea3e6	-0.011635756
10	0x3c83e486	0.01610018
11	0x3cb3a323	0.021928376
12	0xbd054bb1	-0.032542888
13	0x3cee91ff	0.02912235
14	0xbc78baa2	-0.0151812155
15	0xbbe2df97	-0.0069236266
16	0x3c51b031	0.012798355
17	0xbd0af9e9	-0.03392974
18	0x3c23c653	0.009996015
19	0xb90c4d9b	-0.0001338035
20	0x3c934052	0.017975006
21	0xbcd5b93b	-0.026089301
22	0xbd08754e	-0.033314995
23	0x3cf377b1	0.02972016
24	0xbc80a7f7	-0.015705092
25	0x3cf8c1e1	0.030365886
26	0x3b60bf76	0.0034293807
27	0xbcfbcb09	-0.030736463
28	0xbcc512ac	-0.024056755
29	0xbc3ecd0d	-0.011645568
30	0xbca4edb0	-0.02013287
31	0xbba63a5b	-0.0050728745
32	0x3c5fb625	0.0136542665
33	0x3cb477bd	0.022029752
34	0x3d0b3484	0.03398563
35	0x3c868f16	0.01642565
36	0xbc45b11e	-0.012066154
37	0xbd0bbb15	-0.034113962
38	0x3c6665a6	0.014062321
39	0x3bcb34f2	0.00620138
40	0xbb826dc4	-0.0039803702
41	0xbc855432	-0.016275499
42	0x3c9615cd	0.018320942
43	0xbc4808e1	-0.012209148
44	0xbcef3184	-0.029198416
45	0x3c0e7ae2	0.00869629
46	0x3cb486bc	0.022036903
47	0x3b46d56d	0.0030339614
48	0x3c009077	0.007846943
49	0xbb559c44	-0.0032594362
50	0xbceade86	-0.02867056
51	0x3c34d87a	0.01103794
52	0xba214f79	-0.0006153505
53	0x3c91f5ae	0.017817345
54	0x3cfdd70c	0.030986331
55	0xbca3796e	-0.019955363
56	0xbd16dc6b	-0.0368313
57	0xbc0af873	-0.0084820865
58	0xbbea8c67	-0.0071578505
59	0xbbf5ebb9	-0.007504907
60	0x3c949a0a	0.018139858
61	0x3ce17be3	0.027524894
62	0xbc4bad35	-0.0124314325
63	0xbca91b0e	-0.020642783
64	0xbc3630c3	-0.011120024
65	0xbd1419bf	-0.036157366
66	0xbc85d3bf	-0.01633632
67	0x3c14aecb	0.009074877
68	0xbcea148a	-0.028574247
69	0xbd23f304	-0.04002668
70	0x3c22b893	0.009931701
71	0xbd3da112	-0.046296187
72	0x3b899fd2	0.0041999603
73	0x3aa5e2b3	0.0012656063
74	0x3c99322f	0.018700687
75	0xbccfdafc	-0.025372975
76	0xbd0d6dd2	-0.03452856
77	0x3ce7ca67	0.028294755
78	0xbce79682	-0.02827001
79	0x3bf3deda	0.0074423375
80	0xbce4a3dc	-0.027910165
81	0x3cc35ad2	0.023847017
82	0xbbc11d0e	-0.005893356
83	0xbd13b795	-0.03606375
84	0x3ca5e292	0.020249639
85	0xbca00ed5	-0.019538322
86	0x3cc3bff4	0.023895241
87	0x3c9caa71	0.019124242
88	0x3ce34627	0.027743412
89	0x3cbb4344	0.022859223
90	0xba129766	-0.0005592018
91	0xbc347a35	-0.011015465
92	0x3c8af3cd	0.016961956
93	0xbc73037b	-0.014832373
94	0xbc72f0da	-0.014827931
95	0xbd05d9cc	-0.03267841
96	0x3b81d2ce	0.0039618975
97	0xbc147e21	-0.009063275
98	0xbc4c2dbb	-0.012462075
99	0x39f57fc2	0.00046825228
100	0x3bfff8a6	0.0078116236
101	0x3b303985	0.0026889753
102	0xbb62c12f	-0.003460001
103	0xbce7d773	-0.028300976
104	0x3cb7f214	0.022454299
105	0xbca0b1d9	-0.019616054
106	0x3bbd982d	0.005785963
107	0xbd10b5e4	-0.035329714
108	0xbb9ff5d7	-0.0048816013
109	0x3c50b187	0.012737638
110	0x3a277f05	0.0006389472
111	0x3ced4590	0.028963834
112	0x3cfe07a5	0.031009505
113	0x3be4d3af	0.0069832425
114	0x3c4382f3	0.011933076
115	0x3c2c2290	0.010506287
116	0xbcc7805c	-0.024353199
117	0xbcb174fd	-0.02166223
118	0x3c280389	0.010254749
119	0x3c7064ef	0.014672502
120	0xbccb1f60	-0.024795234
121	0xbd592615	-0.053014833
122	0xbd4a558f	-0.049398
123	0x3a375af1	0.00069944473
124	0xbd1d4a4a	-0.038400926
125	0xbdb64083	-0.088990234
126	0xbccef44e	-0.025262978
127	0xbc1fafc4	-0.009746496
128	0xbcb490d4	-0.022041716
129	0xbc6c15bb	-0.014409478
130	0x3c4ad20e	0.0123791825
131	0x3b9f0d02	0.0048538456
132	0xbd340dc7	-0.04395845
133	0x3c31f16a	0.01086078
134	0x3c775c7e	0.015097735
135	0x3cbd5bbd	0.023115033
136	0x3cefb88e	0.029262807
137	0xbc1bc6c0	-0.009507835
138	0x3c02e319	0.007988715
139	0xbc9906f5	-0.018680075
140	0x3d080335	0.033206183
141	0xbd1256ed	-0.03572743
142	0x3cac5e21	0.021040978
143	0xbb8b3806	-0.004248622
144	0x3c6c9ef4	0.014442194
145	0xbd16fbb4	-0.036861137
146	0x3ba62c23	0.0050711795
147	0xbc36b4c3	-0.011151495
148	0xbcca04e0	-0.024660528
149	0xbd2146f7	-0.039374318
150	0xbd89122c	-0.06692919
151	0xbd569e21	-0.052396897
152	0xbd069319	-0.032855127
153	0xbd1a9079	-0.037735436
154	0xbd0513ce	-0.03248959
155	0xbda30322	-0.07959582
156	0xbcc70a5a	-0.024296928
157	0xbcc0390b	-0.0234647
158	0xba01bcf7	-0.00049491174
159	0x3cb1c705	0.021701345
160	0x3b63ee49	0.003477948
161	0xbc517bdf	-0.012785881
162	0x3cb02f1f	0.021506844
163	0xbb2e4407	-0.002659084
164	0x3ccea2f4	0.025224186
165	0x3d1520c2	0.036408193
166	0xbcc57074	-0.024101473
167	0x3c9f245c	0.019426517
168	0x3cc4ca33	0.024022197
169	0x3c1e6d10	0.009669557
170	0x3cc228e5	0.02370114
171	0x3b041c6a	0.0020158538
172	0x3cb68275	0.022279004
173	0x3cf7b6af	0.030238478
174	0xbd08b369	-0.033374224
175	0xbcb4299e	-0.0219925
176	0xbd113687	-0.035452392
177	0xbc36107c	-0.011112329
178	0x3bc006e4	0.0058601964
179	0xbd9a95e7	-0.07548123
180	0xbd85e692	-0.065381184
181	0xbdaf199f	-0.08549809
182	0xbcf99d89	-0.030470626
183	0xbd436bfc	-0.047710404
184	0xbd349a05	-0.044092197
185	0xbc11d104	-0.008899931
186	0x3bc057e2	0.0058698514
187	0x3cbedc1c	0.023298316
188	0x3b5086b1	0.0031818564
189	0x3d5c0b35	0.053721625
190	0x3d1d0b8f	0.0383411
191	0x3cc7996e	0.024365153
192	0xbc5f037f	-0.013611673
193	0xb919115e	-0.00014597687
194	0x3cb26f07	0.021781458
195	0xbd144292	-0.0361963
196	0x3cec12fa	0.028817642
197	0x3cf9c016	0.030487102
198	0xbd07e5de	-0.033178203
199	0x3b8d0ffd	0.0043048845
200	0xbaf18fa0	-0.0018429644
201	0xbcd5bbe1	-0.026090564
202	0x3cd7a1dd	0.0263223
203	0x3c68ea23	0.014215979
204	0x3b5d4c93	0.0033767566
205	0x3cb4c249	0.022065299
206	0xbd08111d	-0.033219445
207	0xbb7cd952	-0.0038581681
208	0x3b918d0d	0.0044418634
209	0xbda0a16e	-0.0784329
210	0xbcdc5984	-0.026898153
211	0xbda2f871	-0.07957543
212	0xbbcbf42b	-0.0062241754
213	0x3ce1e4a4	0.027574845
214	0x3a1c1d9c	0.000595534
215	0xbcdff33f	-0.027337668
216	0x3cbc44bb	0.022981992
217	0x3d1821ed	0.03714173
218	0x3c499f4a	0.012306044
219	0x3c4bf296	0.012447974
220	0xbc1b830d	-0.009491694
221	0xbab3ca09	-0.0013716827
222	0xbc9c6577	-0.019091351
223	0xbc929561	-0.017893495
224	0x3cf59752	0.029979382
225	0x3c39b5a4	0.01133481
226	0xbd04ae80	-0.03239298
227	0x3c6b0b4f	0.014345958
228	0xbca1a8b1	-0.019733759
229	0x3c3c2bc4	0.011485044
230	0x3c201881	0.009771467
231	0xbbbbfc01	-0.0057368283
232	0x3c764b26	0.015032565
233	0xbc0009a0	-0.007814795
234	0xbb56df7c	-0.0032787016
235	0x3cabe2b2	0.02098212
236	0x3c62843f	0.013825475
237	0xbce5bfeb	-0.028045615
238	0x3bad3000	0.005285263
239	0xbd368e80	-0.044569492
240	0x3b9f0ba9	0.004853685
241	0xbc8c07f5	-0.017093638
242	0x3c7cc863	0.015428635
243	0xbc6d6497	-0.0144893145
244	0x3cc089ae	0.02350315
245	0x3b413009	0.0029478094
246	0x3d12b071	0.0358128
247	0x3d2e4c5d	0.042553294
248	0x3d050fba	0.0324857
249	0xbb66bf36	-0.0035209185
250	0xbcf409ed	-0.02978989
251	0x3cb50f35	0.022101978
252	0xbbc1652c	-0.005901953
253	0xbcde3a52	-0.027127419
254	0x3d01c4dd	0.031681884
255	0xbca0c53c	-0.019625299

fc1.bias f4 [128]
0	0xbce3995a	-0.027783085
1	0x3cb65d73	0.022261357
2	0x3ccb21af	0.024796335
3	0x3b82cb47	0.0039915177
4	0x3d130421	0.03589261
5	0xbc38af13	-0.01127221
6	0xbcf514a1	-0.029917063
7	0x3cb7f49c	0.022455506
8	0x3a9267e2	0.0011169876
9	0x3c0f6a81	0.00875342
10	0xbcb55a1c	-0.022137694
11	0xbc96a774	-0.018390395
12	0xbc24bf96	-0.010055443
13	0x3c6e6bf7	0.014552108
14	0xbcb5cdbc	-0.022192828
15	0x3aa2f3ff	0.0012432336
16	0xbcc70441	-0.02429402
17	0x3ccb8814	0.02484516
18	0x3ca947d6	0.020664137
19	0xbc495f4f	-0.01229079
20	0x3cf8486f	0.030307977
21	0x3c1042ff	0.008805036
22	0x3cb37bfd	0.021909708
23	0xbcda75f3	-0.02666757
24	0x3bdc9471	0.006731563
25	0x3b743351	0.0037262032
26	0x3c602f44	0.013683144
27	0x3c95276f	0.01820728
28	0xbae8fd30	-0.0017775651
29	0xbc44600d	-0.011985791
30	0x3cf5c340	0.030000329
31	0xbcdfd03b	-0.027320972
32	0x3cd9fa3f	0.026608584
33	0x3d05ffb9	0.03271458
34	0xbb02094f	-0.0019841974
35	0x3cbd0124	0.023071833
36	0xbcdf4aac	-0.027257286
37	0xbaf17d85	-0.0018424249
38	0xbc01de4a	-0.007926533
39	0x3c054d99	0.0081361765
40	0xbcf604c1	-0.030031564
41	0x3d042b7a	0.032268025
42	0x3c8c102a	0.017097551
43	0x3d036632	0.032079883
44	0xbc2b775c	-0.010465469
45	0xbcae31e9	-0.021264033
46	0xbc793dd7	-0.015212498
47	0xbccfae20	-0.025351584
48	0x3c0c0c04	0.008547787
49	0x3d114b24	0.03547205
50	0x3d03fa06	0.032220863
51	0xbaf6540f	-0.0018793362
52	0x3c5d3e34	0.0135036
53	0xbd1d5d04	-0.038418785
54	0xbca081cd	-0.019593144
55	0xbd0da121	-0.034577493
56	0x3c452994	0.012033839
57	0x3d1c9d02	0.03823567
58	0x3cf57e33	0.029967403
59	0x3c025c1d	0.007956532
60	0xbc71a721	-0.014749319
61	0x3c5b3ab3	0.013380694
62	0x3ccba220	0.02485758
63	0x3d12e884	0.035866275
64	0x3c56a7d3	0.013101536
65	0xbc51bd4d	-0.0128014805
66	0x3cc59781	0.024120094
67	0xbac9858e	-0.0015374885
68	0x3c39ed24	0.011348043
69	0xbd03cbef	-0.032176908
70	0xbc673f91	-0.0141142765
71	0x3d19fd25	0.037594933
72	0xbbb36d05	-0.0054756426
73	0x3ce269b3	0.027638292
74	0x3d0724c7	0.032994058
75	0x3bfdffb2	0.0077514285
76	0x3c059b2b	0.008154671
77	0xbcc4404f	-0.023956446
78	0x3d027fc0	0.031860113
79	0xbce83f94	-0.028350629
80	0xbc624ea2	-0.013812693
81	0xbae94e75	-0.0017799871
82	0x3bfb59f7	0.0076706368
83	0xbbbf918f	-0.0058462094
84	0x3d0cb111	0.03434855
85	0xbc8af22f	-0.016961185
86	0x3d0030c5	0.03129651
87	0x3cf09cd5	0.029371658
88	0xbcf88d61	-0.030340852
89	0x3ce0b650	0.027430683
90	0xbca34785	-0.019931564
91	0x3cb1a841	0.021686675
92	0x3ca0376a	0.019557673
93	0xbc9a9311	-0.018868955
94	0x3d1ce779	0.038306687
95	0xbc099169	-0.008396485
96	0x3ce9241e	0.028459605
97	0xba8fb08e	-0.0010962652
98	0xbc043fbb	-0.008071835
99	0xbc3a1207	-0.011356837
100	0xbd1538fc	-0.036431298
101	0xbd0c82b4	-0.034304336
102	0xbd0318ec	-0.03200619
103	0xbb3c9cbc	-0.0028779944
104	0x3c8380a0	0.016052544
105	0x3d004983	0.031320106
106	0xbbf0aa9e	-0.007344558
107	0x3cf90801	0.030399324
108	0x3bd1c471	0.0064015915
109	0xbcae4d0b	-0.021276971
110	0xbd005b1b	-0.031336885
111	0xbce0356f	-0.02736923
112	0xbbeaac4d	-0.007161653
113	0xbbd13ba2	-0.0063852826
114	0xbc8ed969	-0.017437654
115	0xbc165c2b	-0.009177248
116	0x3c5235bc	0.012830194
117	0x3c89579b	0.016765406
118	0x3cebcf60	0.028785408
119	0x3ac9d0f4	0.0015397356
120	0x3d136ff3	0.035995435
121	0xbd0e1507	-0.034688022
122	0xbce16960	-0.027516067
123	0xbcd86464	-0.026415057
124	0x3cb2c0ee	0.021820512
125	0x3cf7f606	0.03026868
126	0x3bb27303	0.0054458394
127	0xbca58a86	-0.020207655

fc2.weight f4 [10, 128]
0	0x3dd10e2b	0.102077805
1	0xbccd4ac0	-0.025060058
2	0xbe076b90	-0.13224626
3	0xbe17fb66	-0.14841995
4	0x3bfa47ed	0.0076379688
5	0xbe4d1b66	-0.20029983
6	0xbd9977f1	-0.0749358
7	0xbd74edbe	-0.05979704
8	0xbe2e022c	-0.16993016
9	0x3a8dc239	0.0010815329
10	0xbe2e7c9e	-0.17039725
11	0xbe0a82c0	-0.1352644
12	0xbc73828f	-0.014862671
13	0xbdad9f05	-0.08477596
14	0x3ce9e584	0.028551824
15	0xbc3e53f4	-0.011616696
16	0x3da501c6	0.08056979
17	0x3c8b2617	0.016985936
18	0x3d55e81f	0.05222332
19	0x3e00c911	0.12576701
20	0x3c30562b	0.010762732
21	0xbd082ac2	-0.033243902
22	0xbdca83b3	-0.09888401
23	0x3dc2869a	0.094983295
24	0xbda76ccf	-0.081750505
25	0x3d838c68	0.06423265
26	0xbe0e37ca	-0.1388847
27	0x3c6e4bef	0.014544471
28	0x3d693f0f	0.056944903
29	0x3d94cff0	0.072662234
30	0xbe326c7c	-0.17424196
31	0x3d6a3664	0.057180777
32	0xbd7582d1	-0.05993921
33	0xbe56b691	-0.20968081
34	0x3c00908f	0.007846965
35	0xbdd9f3cf	-0.10642206
36	0xbc9d22d7	-0.019181652
37	0x3d8ce394	0.068793446
38	0xbd311456	-0.043232284
39	0xbcd4d9c1	-0.02598274
40	0x3d936421	0.071968324
41	0xbd2f1f54	-0.042754486
42	0x3e0745c5	0.13210209
43	0x3d83bac4	0.06432107
44	0xbcc47f13	-0.023986375
45	0xbd41ad77	-0.04728457
46	0x3cf08e39	0.029364692
47	0xbd97516a	-0.073885754
48	0x3d10eb51	0.035380665
49	0x3c2de6d2	0.010614114
50	0x3da12603	0.07868578
51	0x3cde0a0f	0.027104406
52	0xbd9ee175	-0.07757846
53	0xbe10ca61	-0.14139701
54	0x3dbf4347	0.09339004
55	0x3c55ffdf	0.013061493
56	0xbbfdb1ef	-0.0077421586
57	0xbde7ca8b	-0.11317929
58	0xbd0bd32f	-0.034136947
59	0xbe3de7ab	-0.18545406
60	0x3de1b1e1	0.11020256
61	0xbd91f64e	-0.07127057
62	0x3cd693df	0.026193557
63	0x3e1200b6	0.14258084
64	0xbdfcd31b	-0.12344953
65	0xbdfcf0cf	-0.12350618
66	0xbd7ba901	-0.06144047
67	0xbdef5aa7	-0.116872124
68	0x3c1ba5a1	0.009499938
69	0x3db4acb1	0.08822001
70	0xbca66dba	-0.020315994
71	0x3d21aa77	0.03946921
72	0xbda9fc26	-0.083000466
73	0x3d93210a	0.07184036
74	0x3da691bd	0.08133266
75	0xbd36524f	-0.04451209
76	0x3cd61952	0.02613512
77	0x3d4a07ef	0.049323972
78	0x3e04ce81	0.129694
79	0x3c01ce8f	0.007922783
80	0xbe500149	-0.2031299
81	0xbdcdfc7a	-0.10057922
82	0x3d317aae	0.043329887
83	0xbd9d1ad1	-0.076711304
84	0xbcfa903a	-0.03058635
85	0xbdbcf9ad	-0.092273094
86	0x3d201785	0.03908493
87	0xbd8bc6b1	-0.06825007
88	0x3d03d8f7	0.032189336
89	0xbcc6d9ad	-0.024273718
90	0x3e02548f	0.12727569
91	0xbd39f5f5	-0.04540058
92	0xbcb4c9ea	-0.022068936
93	0xb8f2a61a	-0.00011570398
94	0xbd9b41d1	-0.07580913
95	0x3dca700c	0.098846525
96	0x3dab0aff	0.08351707
97	0x3d919235	0.07107965
98	0xbe22162c	-0.1582877
99	0x3d5b9547	0.05360916
100	0xbdf67982	-0.120348945
101	0xbdfddbd9	-0.12395448
102	0xbe1f20ba	-0.15539828
103	0x3d013fcf	0.031554993
104	0x3d99e471	0.07514275
105	0xbdeff62d	-0.11716876
106	0xbd9cc62b	-0.07654985
107	0x3da87c73	0.08226862
108	0x3d72c06f	0.05926555
109	0xbd90adc0	-0.0706439
110	0xbd6f4953	-0.058419537
111	0xbd6cd1a7	-0.057817128
112	0xbe0c0c32	-0.13676527
113	0x3c6f790c	0.014616262
114	0x3d15435d	0.036441196
115	0xbc001e48	-0.00781972
116	0x3dc7ca4a	0.097553805
117	0x3da3abc6	0.079917476
118	0x3d3997f2	0.045310922
119	0xbd005caf	-0.03133839
120	0x3d46d906	0.048546813
121	0x3dc99c7c	0.098443
122	0xbcf8e74e	-0.030383732
123	0xbc9b25df	-0.018938957
124	0xbe2d56c3	-0.16927628
125	0xbda91864	-0.08256605
126	0xbd86d894	-0.06584278
127	0x3cb4073f	0.021976111
128	0xbe389b75	-0.18028052
129	0xbd989294	-0.074498326
130	0x3df48839	0.11940045
131	0x3d6800b2	0.056641288
132	0xbe323bec	-0.17405671
133	0xbd1adaa2	-0.03780616
134	0xbe2a05b3	-0.16603737
135	0xbdc27769	-0.09495432
136	0x3c2f6e83	0.0107075
137	0xbd4b7b51	-0.04967815
138	0xbd8fe5e1	-0.07026268
139	0xbda1426d	-0.07873998
140	0x3d7370ff	0.059433933
141	0x3d08a8e7	0.033364203
142	0xbe0ec81e	-0.13943526
143	0xbd4a5544	-0.049397722
144	0xbc995a76	-0.018719893
145	0x3c571b00	0.013128996
146	0x3d80901f	0.06277489
147	0xbe2f8205	-0.17139442
148	0x3d2497c6	0.040183805
149	0x3d9be839	0.07612652
150	0x3d5393dd	0.051654685
151	0xbe54ba2e	-0.20774147
152	0xbd53737f	-0.051623818
153	0xbcabbd6f	-0.020964352
154	0x3dd9248b	0.10602673
155	0xbdb39b5f	-0.08769869
156	0xbe1109bf	-0.14163874
157	0x3d94d6f3	0.07267561
158	0x3de7d9b2	0.11320819
159	0x3d99434f	0.07483541
160	0x3d720bbf	0.059093233
161	0x3d93ff64	0.07226446
162	0xbbc495f4	-0.005999321
163	0x3ca8d8d0	0.020611197
164	0xbe023299	-0.12714614
165	0xbe4fbefd	-0.202877
166	0x3d96613b	0.07342764
167	0xbcc0920f	-0.023507146
168	0xbcf96ed1	-0.03044835
169	0xbc348ed6	-0.011020383
170	0x3dbc259a	0.091868594
171	0xbe66117a	-0.22467604
172	0x3cfde92b	0.030994972
173	0x3dc0bdf3	0.0941123
174	0x3df9ec50	0.12203276
175	0x3c2acab1	0.010424302
176	0x3da1d9d7	0.07902878
177	0xbe01b7c6	-0.1266776
178	0xbe36691d	-0.17813535
179	0x3da7f776	0.08201496
180	0x3d2a7d5a	0.04162345
181	0x3d1e48ff	0.038643833
182	0x3a20bba1	0.00061314745
183	0x3c60362f	0.013684793
184	0xbd942a1f	-0.072345965
185	0xbc948d70	-0.018133849
186	0x3c829eba	0.015944827
187	0x3cecfafd	0.028928274
188	0xbe35738c	-0.17719859
189	0xbdaef6d3	-0.08543172
190	0xbcff20cf	-0.031143574
191	0xbe041295	-0.12897713
192	0xbcd60b4b	-0.026128432
193	0xbdccffea	-0.10009749
194	0x38e4c8af	0.000109092674
195	0x3dbaad95	0.091151394
196	0xbe0cf82d	-0.13766547
197	0xbd36812f	-0.044556793
198	0x3d59778f	0.053092536
199	0xbdba439a	-0.09094925
200	0x3d563bc1	0.05230308
201	0xbc8c04b0	-0.017092079
202	0xbd224e3b	-0.039625388
203	0xbc6eb214	-0.014568824
204	0x3bc4275b	0.005986137
205	0xbd6a2e3f	-0.05717301
206	0xbe32c966	-0.1745964
207	0xbd51b2d3	-0.05119593
208	0x3d832dfb	0.064052545
209	0x3c8b1217	0.0169764
210	0xbd994990	-0.07484734
211	0x3d5bd8af	0.053673442
212	0x3ded1c40	0.11577654
213	0x3c1a23a2	0.00940791
214	0x3c308325	0.010773455
215	0xbd2881e7	-0.04113951
216	0x3d8749df	0.06605887
217	0xbe2128aa	-0.15738168
218	0xbd231fa1	-0.039825086
219	0x3d3f501f	0.04670727
220	0xbd230266	-0.03979721
221	0xbcec3323	-0.028832978
222	0x3d3a795c	0.045525894
223	0xbe1a86e4	-0.15090519
224	0xbcee45fc	-0.029086106
225	0xbda3c737	-0.079969816
226	0x3d8eabbe	0.06966351
227	0xbdc5b1a4	-0.09653023
228	0xbbfc3e4e	-0.007697857
229	0x3d6c2d20	0.057660222
230	0xbd9b617a	-0.075869516
231	0xbd29ee46	-0.041487
232	0xbe35026a	-0.17676702
233	0xbd6e3eec	-0.058165476
234	0x3d3826ad	0.04495876
235	0xbe078ceb	-0.1323735
236	0x3d0ae259	0.03390727
237	0xbd33fcef	-0.04394239
238	0xbc1495ff	-0.009068965
239	0xbdc8647f	-0.09784793
240	0xbd65cc35	-0.05610295
241	0xbdbd0bcc	-0.09230766
242	0xbcab5344	-0.020913728
243	0xbe04fc0e	-0.12986776
244	0xbc83ebfc	-0.016103737
245	0xbd5270e4	-0.051377192
246	0xbe1f2462	-0.15541223
247	0xbd818eb0	-0.063260436
248	0x3a15ac87	0.00057096075
249	0xbdb29973	-0.08720674
250	0xbcb11d4b	-0.021620413
251	0xbc06aba8	-0.008219637
252	0x3dcc12c6	0.09964518
253	0x3ddf12d1	0.10892261
254	0x3bb8969b	0.005633188
255	0xbe11001d	-0.141602

fc2.bias f4 [10]
0	0x3cd048fe	0.02542543
1	0x3d8f075d	0.06983826
2	0xbd312b10	-0.04325396
3	0x3da54cf5	0.08071319
4	0x3c2b82cb	0.010468195
5	0xbbd0ee82	-0.0063760886
6	0x3d539f0e	0.05166536
7	0xbdaf2f09	-0.08553893
8	0xbc8f64cd	-0.01750412
9	0x3cf122c4	0.029435523
