simulation/saved_models/global_model_delta_12-03_22-26.pth (torch, 409416 bytes, 4 tensors)

1.weight f4 [128, 784]
-0.027170546 0.007080496 0.020078992 0.04133867 -0.027072772 0.02828405 0.03287008 0.03142563
-0.00094910804 0.0144007085 -0.00471128 -0.01740637 0.030559396 -0.0011187224 -0.00946466 0.031279497
-0.016542004 0.012965321 0.0274866 0.040554687 0.04158022 -0.022711165 -0.022876585 0.009492115
0.010287757 0.028495781 0.024980843 0.021742484 0.021702291 0.020643173 -0.01939536 -0.012195966
-0.016930632 -0.0039413734 0.026117489 0.0022780953 0.035145845 0.024275063 0.0153778745 0.026633186
-0.011928354 -0.0075829737 0.029682867 -0.012527364 0.0020393229 0.033665467 -0.014753929 0.021364255
-0.0008227962 -0.007303158 0.023672178 -0.010572352 -0.021018155 -0.021359319 0.0037933376 -0.012876247
0.023475027 0.029021122 0.032588076 -0.012199304 0.03232618 0.022147661 0.018641261 0.00895897
0.029673373 -0.014915671 -0.0043773255 0.03543763 0.0019052037 0.03430883 -0.015529126 0.02481929
0.040631752 -0.018064622 0.01766363 -0.027889675 0.021938063 -0.026096106 -0.023376144 0.01754271
0.009708698 0.010766345 0.009710605 -0.0028097827 0.0034224957 0.0033414036 -0.0019636815 0.00079390145
0.01403164 0.035492208 -0.016481178 0.0303583 0.04118374 0.013966494 -0.01871675 -0.026368743
0.021561814 0.025621837 -0.027061654 0.029649533 0.021303095 0.01574812 0.024609797 0.010039847
-0.008699358 0.023602108 -0.00060998346 -0.008430512 -0.0043763923 -0.003088 -0.0033648843 0.009939994
0.002212342 -0.012040577 0.04111792 0.039172173 -0.0016235141 0.039137613 0.022070235 -0.0052355495
0.028200112 0.027815973 0.041947246 0.02254142 0.015505669 -0.018793905 0.0013225266 0.03515751
0.0022716997 -0.01822641 -0.00097454636 -0.020096794 -0.022034211 -0.026470238 -0.013086596 0.008610156
0.038642038 -0.003573987 0.0025286826 -0.007396821 0.01596699 0.013958505 0.03169826 0.004764803
-0.018063465 0.0183999 0.019805022 0.03487945 0.012009141 -0.0017412748 -0.007883807 0.005319303
-0.027807847 0.01772548 0.020231165 0.028353682 -0.005966071 -0.015829418 -0.0019270576 0.017559582
-0.022734946 0.019178892 -0.007930263 0.008088072 0.023746878 0.009517451 0.002214812 0.0052923835
-0.019364104 0.014862369 0.00058319524 -0.004661367 0.009492266 0.019380143 -0.0021263226 -0.011666253
0.03696521 -0.021089965 -0.016296636 -0.0019385846 -0.022767385 -0.017689187 0.0004367414 0.0022464076
0.012958527 -0.02572695 -0.021968627 -0.005577821 0.0033167321 -0.010778166 -0.021119675 -0.01606097
0.0026984557 0.030208318 -0.025325129 -0.014775917 -0.019824626 0.018475233 0.004736014 -0.014593016
0.039061863 0.021290118 -0.013157412 0.0072504845 0.037413534 0.010130473 -0.021316707 -0.008606863
-0.025780195 -0.00021072307 0.019812176 -0.009047941 0.018218735 0.026048271 -0.020976724 -0.021586979
0.031872746 0.011676849 0.030163072 0.018399283 -0.012999847 0.034414206 0.035530772 -0.02760476
-0.011934745 -0.011178116 0.007474976 0.038408685 -0.020255279 0.0057496284 0.035554815 -0.024714112
0.022545272 0.030595506 0.004714788 0.012904796 -0.03456475 -0.006131403 -0.035175424 -0.039702803
-0.029148722 -0.026611239 -0.0006812062 0.011177746 0.027629333 -0.015181321 -0.004729423 0.023483315
-0.02497331 0.027394509 -0.013124646 0.01715823 0.010597634 0.038732022 0.015381861 0.011232923
00000000: c494 debc 8103 e83b b37c a43c bd52 293d
00000010: b8c7 ddbc f4b3 e73c c7a2 063d 29b8 003d
00000020: 90cd 78ba f3f0 6b3c 1561 9abb ce97 8ebc
00000030: b357 fa3c 18a2 92ba a911 1bbc ee1e 003d
00000040: 1983 87bc 7f6c 543c 942b e13c ac1c 263d
00000050: 0550 2a3d c40c babc ad67 bbbc d184 1b3c
00000060: fb8d 283c fc6f e93c a0a4 cc3c 4b1d b23c
00000070: 01c9 b13c df1b a93c 05e3 9ebc 97d1 47bc
00000080: 1cb2 8abc a326 81bb 58f4 d53c 194c 153b
00000090: 17f5 0f3d 7fdc c63c 7bf3 7b3c d72d da3c
000000a0: 256f 43bc 987a f8bb 7c29 f33c 933f 4dbc
000000b0: 29a6 053b cde4 093d 77ba 71bc 1704 af3c
000000c0: ebb0 57ba 544f efbb 28ec c13c a937 2dbc
000000d0: 442e acbc bdf9 aebc a599 783b e5f6 52bc
000000e0: b34e c03c b4bd ed3c 137b 053d 97df 47bc
000000f0: 7568 043d 036f b53c 8fb5 983c a5c8 123c
00000100: 9315 f33c dc60 74bc ab6f 8fbb 0c27 113d
00000110: 07b8 f93a 6a87 0c3d e06d 7ebc d351 cb3c
00000120: 7b6d 263d 42fc 93bc 51b3 903c e378 e4bc
00000130: 74b7 b33c 80c7 d5bc 547f bfbc bbb5 8f3c
00000140: 3b11 1f3c 5365 303c 3b19 1f3c 5524 38bb
00000150: f34b 603b 73fb 5a3b 1cb1 00bb d31d 503a
00000160: f7e4 653c 4760 113d 8903 87bc f8b1 f83c
00000170: 48b0 283d b9d3 643c df53 99bc 4303 d8bc
00000180: 67a2 b03c e3e4 d13c 67b0 ddbc 94e3 f23c
00000190: d483 ae3c 3402 813c 7c9a c93c 2c7e 243c
000001a0: c187 0ebc 3559 c13c 4ce7 1fba 2120 0abc
000001b0: d767 8fbb 0b60 4abb 6485 5cbb 5bdb 223c
000001c0: f1fc 103b d745 45bc 446b 283d 0073 203d
000001d0: 18cc d4ba c34e 203d a3cc b43c f98e abbb
000001e0: ec03 e73c 53de e33c e0d0 2b3d c9a8 b83c
000001f0: 7d0b 7e3c adf5 99bc a158 ad3a 5201 103d
00000200: cce0 143b 8d4f 95bc b378 7fba 08a2 a4bc
00000210: 1781 b4bc 1dd8 d8bc 2969 56bc 9d11 0d3c
00000220: 1d47 1e3d 8d39 6abb 41b8 253b 0861 f2bb
00000230: 34cd 823c 37b2 643c 09d6 013d 1122 9c3b
00000240: d5f9 93bc 63bb 963c 243e a23c c1dd 0e3d
00000250: fdc1 443c 7d3b e4ba 152b 01bc 8c4d ae3b
00000260: 48cd e3bc 0735 913c d4bb a53c fb45 e83c
00000270: 087f c3bb b2ac 81bc 5395 fcba 1dd9 8f3c
00000280: a33e babc 0d1d 9d3c efed 01bc d583 043c
00000290: d088 c23c 15ef 1b3c 6126 113b bb6b ad3b
000002a0: 78a1 9ebc 4b81 733c 92e1 183a 61be 98bb
000002b0: 7385 1b3c 1bc3 9e3c c659 0bbb d023 3fbc
000002c0: d568 173d ddc4 acbc 8680 85bc 1b18 feba
000002d0: ab82 babc eae8 90bc 70fa e439 7738 133b
000002e0: 0050 543c 53c1 d2bc 8df7 b3bc 27c6 b6bb
000002f0: 885d 593b e896 30bc 2b03 adbc 4c92 83bc
00000300: 93d8 303b 6f77 f73c a576 cfbc b016 72bc
00000310: 4167 a2bc 5f59 973c 9130 9b3b 8c17 6fbc
00000320: 55ff 1f3d 9d68 ae3c 3092 57bc 7995 ed3b
00000330: ef3e 193d 49fa 253c 60a0 aebc cd03 0dbc
00000340: fd30 d3bc 8bf5 5cb9 254d a23c d13d 14bc
00000350: 753f 953c 2f63 d53c 61d7 abbc 2dd7 b0bc
00000360: ff8c 023d 4150 3f3c 8c18 f73c 18ba 963c
00000370: 4ffd 54bc e9f5 0c3d b788 113d 6123 e2bc
00000380: f389 43bc 6b24 37bc a5f0 f43b 6d52 1d3d
00000390: 66ee a5bc 6167 bc3b eda1 113d 4075 cabc
000003a0: ddb0 b83c 6da3 fa3c 827e 9a3b a36e 533c
000003b0: c493 0dbd f0e9 c8bb 1b14 10bd 689f 22bd
000003c0: 4dc9 eebc d0ff d9bc f992 32ba dd22 373c
000003d0: e956 e23c 13bb 78bc 47f9 9abb 1560 c03c
000003e0: d494 ccbc 736a e03c c108 57bc 6b8f 8c3c
000003f0: b3a1 2d3c 78a5 1e3d 3304 7c3c 4b0a 383c

1.bias f4 [128]
-0.03387336 -0.024396878 0.006839183 -0.022528958 -0.0025199133 -0.016958259 0.02653393 -0.0005013452
0.0059465854 -0.00511609 0.010290456 0.009417258 0.019283772 0.027823173 -0.026827045 -0.027485032
-0.03750994 -0.011392023 -0.0059841927 -0.023108367 -0.007734703 0.0023987507 -0.031527746 0.015866216
-0.02284307 -0.030951759 0.002791314 -0.032995105 0.0090353 -0.0034777687 -0.011410104 0.011949856
-0.014042283 -0.014696593 0.005231552 0.036868833 0.02417893 0.013162092 -0.013451115 -0.025134863
0.016748413 -0.00036068552 0.031217717 0.0051009483 0.012380771 0.037183266 -0.008522739 0.030908596
-0.024194887 0.032436382 0.0001129804 0.0011660734 0.009019446 -0.014051115 0.005191088 -0.014551502
-0.023197638 0.012340985 0.018627945 0.015785674 0.016047841 0.00023374334 -0.038168263 -0.026200086
0.009016807 -0.0015268233 -0.03879124 0.0077047236 0.014824199 -0.036252096 -0.013166105 -0.010977582
-0.027401868 -0.017885081 -0.018702326 0.011909073 0.006106597 -0.007813635 0.026493339 0.022779033
-0.020986814 0.003825399 0.014460784 0.03918717 -0.0016211777 0.018263977 0.014454665 0.0077181007
0.04162386 0.01420827 -0.027616587 0.0224863 0.046526134 0.025444496 -0.013103795 -0.032016225
0.00048062598 0.009490291 0.023536325 -0.014134672 -0.027749151 0.022072172 0.014037365 -0.0067761578
0.010153535 0.013749126 0.030514989 -0.016057877 -0.023925595 0.031932488 -0.02143228 -0.006882965
-0.02429032 -0.0332115 -0.0019708842 -0.03463012 0.0055182185 0.0076864893 0.009377628 -0.033087753
0.0034881283 0.022211531 -0.037093908 -0.008971873 -0.017716661 0.0222737 -0.03827799 -0.0021732452
00000000: cbbe 0abd f6db c7bc 3a1b e03b a68e b8bc
00000010: 2125 25bb 0cec 8abc af5d d93c b56c 03ba
00000020: 93db c23b e0a4 a7bb 4d99 283c d84a 1a3c
00000030: 00f9 9d3c 6ced e33c 64c4 dbbc 4a28 e1bc
00000040: 06a4 19bd 9ca5 3abc 0c17 c4bb c24d bdbc
00000050: 6473 fdbb 5c34 1d3b 3d23 01bd def9 813c
00000060: 6421 bbbc 8b8e fdbc 7aee 363b e025 07bd
00000070: cc08 143c 47eb 63bb 72f1 3abc 54c9 433c
00000080: 9b11 66bc fbc9 70bc 706d ab3b c603 173d
00000090: e412 c63c d1a5 573c 1162 5cbc a1e7 cdbc
000000a0: f833 893c 641a bdb9 4cbc ff3c db25 a73b
000000b0: b8d8 4a3c 7b4d 183d f5a2 0bbc 0634 fd3c
000000c0: 5b34 c6bc 03dc 043d e4ef ec38 eed6 983a
000000d0: 4cc6 133c a636 66bc 011a aa3b 6c69 6ebc
000000e0: f908 bebc d831 4a3c a299 983c f550 813c
000000f0: c376 833c 0019 7539 5356 1cbd 90a1 d6bc
00000100: 3bbb 133c b01f c8ba 90e3 1ebd e877 fc3b
00000110: 32e1 723c 147d 14bd a6b6 57bc 51db 33bc
00000120: e279 e0bc bc83 92bc 9f35 99bc 461e 433c
00000130: d919 c83b c304 00bc 8f08 d93c 189b ba3c
00000140: 8aec abbc 8cb3 7a3b edec 6c3c ba82 203d
00000150: b27d d4ba 569e 953c 42d3 6c3c 1fe8 fc3b
00000160: c87d 2a3d cec9 683c 2e3c e2bc 3035 b83c
00000170: 3092 3e3d fa70 d03c 4db1 56bc 7223 03bd
00000180: 87fc fb39 2a7d 1b3c 40cf c03c 1c95 67bc
00000190: 3052 e3bc b3d0 b43c fafc 653c 880a debb
000001a0: 035b 263c 0444 613c 92fa f93c cf8b 83bc
000001b0: 9cff c3bc a4cb 023d c092 afbc 7f8a e1bb
000001c0: 7efc c6bc c808 08bd f329 01bb 50d8 0dbd
000001d0: 2cd2 b43b f2de fb3b 9fa4 193c 0687 07bd
000001e0: 1599 643b f5f4 b53c c8ef 17bd c3fe 12bc
000001f0: 8822 91bc 5677 b63c 62c9 1cbd 016d 0ebb

3.weight f4 [10, 128]
-0.0019350406 0.08090158 0.09416118 0.05922824 0.056806937 0.122546926 0.048683494 -0.0022371523
-0.1335604 0.05595124 0.027704552 -0.028491206 0.08482817 -0.021016007 -0.11884189 0.04927662
0.08161291 -0.01879602 0.043975603 -0.10586365 -0.08586474 -0.06394185 -0.09270245 -0.005484607
-0.0045001004 -0.049074113 0.015153786 -0.14633937 0.09159895 0.07470698 -0.034155793 -0.08170229
0.13665885 0.030242676 -0.013746212 0.059280172 0.04595714 -0.031788968 0.10666042 0.07318802
-0.0020581302 0.092921056 0.10234882 -0.046467435 0.06498184 0.041243486 -0.026726717 0.06162871
-0.095022425 0.12256295 -0.107750595 -0.06766805 0.047295075 0.03742516 -0.13097104 0.030026956
0.051278036 -0.07480975 0.0348617 0.11316917 0.08593793 -0.06620999 0.06282953 0.05022373
-0.0100542605 -0.040665355 0.016369876 -0.17546287 0.15113066 -0.06084661 -0.13407743 -0.053037502
0.016969888 0.07209261 0.0061826557 -0.10715278 -0.066196784 0.07743126 -0.047463078 -0.023128383
-0.065227084 0.06410887 -0.060687736 0.091045365 0.03396909 0.048316583 -0.1336215 -0.009527775
-0.115117826 -0.12984571 0.11326093 0.03504692 -0.046809196 -0.16160768 -0.021051291 -0.11057343
0.04279935 -0.008574257 -0.002710512 -0.12919328 -0.036313266 -0.11770785 -0.017496139 0.048058823
0.07473158 0.009851131 0.07712773 0.013192062 -0.16246715 0.0041348026 -0.11570053 -0.0325103
-0.0017597324 0.0101281265 0.03696221 0.08549222 0.009872641 -0.102086335 0.06365096 0.0555358
0.050150525 0.039974123 -0.044714008 0.03265958 -0.1582999 -0.076295555 0.036300927 -0.011617815
0.008938845 -0.18483236 0.104974106 -0.1131365 0.08595029 -0.092311114 -0.15925097 -0.10623768
0.013019729 0.01286549 -0.12587863 0.05577283 -0.067953035 0.040430557 -0.0055009895 0.115255505
0.05421227 -0.058489203 0.02780141 -0.038479116 0.04090865 0.1140521 -0.051285226 0.08556131
0.09880668 -0.020116024 -0.011404615 0.036623035 -0.14431646 0.04958296 0.008669262 -0.0145623395
-0.1645222 -0.015914833 0.046906773 -0.028031196 -0.062332496 0.023978792 -0.020053137 -0.1447125
-0.16961145 0.0003036072 -0.006554173 0.023423478 -0.15828824 -0.07890046 0.0792255 -0.07027116
0.028440826 -0.15379284 0.011301347 -0.010779019 -0.0007298244 0.007500117 0.05372481 0.027478615
0.058433145 0.07289397 0.03964378 0.07412301 0.06840609 0.056929212 0.05365458 -0.052296557
-0.101446636 0.038380325 -0.05066169 -0.035604402 -0.0028120456 0.09548315 0.051440917 0.09616852
0.061675653 0.042622276 0.08153346 -0.016736643 -0.010558981 0.016474783 -0.01772529 0.04233219
-0.019777725 -0.12544885 0.08030027 -0.15353872 0.022461921 -0.097094476 0.10505842 -0.009553726
0.012322597 -0.009480476 -0.043655973 -0.016745713 -0.020605095 0.09578977 -0.056823432 -0.12694366
0.0705042 -0.04514853 0.0732771 0.091350056 -0.07186809 0.06538798 -0.15171237 -0.23590109
0.07057307 0.05949539 -0.050173417 -0.104923904 0.0785515 -0.14620885 0.10723796 -0.06902394
-0.121058404 0.0935608 0.07268099 0.043596283 0.10660701 -0.12943725 -0.045645718 -0.14287667
0.058809955 -0.04140537 0.029547544 0.04624322 0.033605516 -0.024298556 0.097378045 0.056531403
00000000: 30a1 fdba baaf a53d 94d7 c03d 5099 723d
00000010: 64ae 683d e2f9 fa3d 5868 473d 309d 12bb
00000020: 0fc4 08be 212d 653d a8f4 e23c 6466 e9bc
00000030: 64ba ad3d c329 acbc 6063 f3bd 48d6 493d
00000040: ab24 a73d 1cfa 99bc c31f 343d 0bcf d8bd
00000050: dad9 afbd f2f3 82bd c8da bdbd 38b8 b3bb
00000060: 9475 93bb f001 49bd 9647 783c fdd9 15be
00000070: 3b98 bb3d f9ff 983d f2e6 0bbd 8853 a7bd
00000080: 4cf0 0b3e 7dbf f73c cb37 61bc c4cf 723d
00000090: 8e3d 3c3d 2635 02bd c770 da3d 9ae3 953d
000000a0: b2e1 06bb 654d be3d 429c d13d a354 3ebd
000000b0: 3315 853d eeee 283d fdf1 dabc 636e 7c3d
000000c0: 1e9b c2bd 4902 fb3d 58ac dcbd 8c95 8abd
000000d0: 7bb8 413d 204b 193d 461d 06be 17fb f53c
000000e0: eb08 523d db35 99bd 24cb 0e3d 3dc5 e73d
000000f0: 3a00 b03d 1a99 87bd c5ac 803d 66b7 4d3d
00000100: a0ba 24bc b790 26bd 1e1a 863c 8aac 33be
00000110: ffc1 1a3e 4c3a 79bd 984b 09be da3d 59bd
00000120: 6f04 8b3c 4aa5 933d e097 ca3b eb72 dbbd
00000130: 2e92 87bd 4894 9e3d a568 42bd bc77 bdbc
00000140: c795 85bd 834b 833d b493 78bd fe75 ba3d
00000150: 2c23 0b3d 9ce7 453d 13d4 08be 631a 1cbc
00000160: e5c2 ebbd 46f6 04be 59f5 e73d 5c8d 0f3d
00000170: 00bb 3fbd 7c7c 25be c273 acbc 5374 e2bd
00000180: 5f4e 2f3d 0a7b 0cbc d8a2 31bb 3e4b 04be
00000190: 38bd 14bd d010 f1bd 1054 8fbc 54d9 443d
000001a0: df0c 993d a366 213c 25f5 9d3d 8523 583c
000001b0: ca5d 26be 3d7d 873b 66f4 ecbd 8529 05bd
000001c0: d2a6 e6ba 71f0 253c b065 173d 8c16 af3d
000001d0: dcc0 213c a412 d1bd 6f5b 823d 8279 633d
000001e0: a36a 4d3d e8bb 233d 0926 37bd 0dc6 053d
000001f0: 5e19 22be d840 9cbd 48b0 143d a658 3ebc
00000200: 3c74 123c b244 3dbe aafc d63d 1cb4 e7bd
00000210: b506 b03d 9c0d bdbd b012 23be 2493 d9bd
00000220: b450 553c c7c9 523c 54e6 00be 0d72 643d
00000230: f62a 8bbd 839a 253d a541 b4bb 140b ec3d
00000240: af0d 5e3d 6092 6fbd c8bf e33c 479c 1dbd
00000250: d48f 273d 2694 e93d 7510 52bd c53a af3d
00000260: 285b ca3d 5cca a4bc 6cda 3abc 0902 163d
00000270: b2c7 13be 8017 4b3d 8509 0e3c e196 6ebc
00000280: 8278 28be d35f 82bc 5121 403d aea1 e5bc
00000290: 5c50 7fbd 2c6f c43c 7a46 a4bc 832f 14be
000002a0: a0ae 2dbe 782d 9f39 63c4 d6bb 98e2 bf3c
000002b0: 5016 22be 9096 a1bd fb40 a23d 53ea 8fbd
000002c0: bcfc e83c df7b 1dbe 4929 393c 7c9a 30bc
000002d0: b051 3fba 8bc3 f53b 8c0e 5c3d d51a e13c
000002e0: 9857 6f3d 6f49 953d 8461 223d cecd 973d
000002f0: 7e18 8c3d 9b2e 693d e8c4 5b3d ea34 56bd
00000300: 41c3 cfbd b034 1d3d a282 4fbd ecd5 11bd
00000310: 4c4a 38bb ab8c c33d b6b3 523d 00f4 c43d
00000320: 9c9f 7c3d b294 2e3d 04fb a63d 491b 89bc
00000330: 94ff 2cbc 20f6 863c a134 91bc 8564 2d3d
00000340: e504 a2bc aa75 00be 7874 a43d 4139 1dbe
00000350: 1002 b83c 78d9 c6bd de28 d73d 3b87 1cbc
00000360: b8e4 493c 0054 1bbc 9bd0 32bd 4e2e 89bc
00000370: 04cc a8bc 6d2d c43d b0bf 68bd 85fd 01be
00000380: 8264 903d aaed 38bd 4e12 963d bd15 bb3d
00000390: 942f 93bd 22ea 853d 7d5a 1bbe 0e90 71be
000003a0: 9d88 903d 70b1 733d a482 4dbd 58e2 d6bd
000003b0: 9cdf a03d c6b7 15be 939f db3d 6c5c 8dbd
000003c0: 78ed f7bd ce9c bf3d c5d9 943d 0492 323d
000003d0: c754 da3d 338b 04be 01f7 3abd 434e 12be
000003e0: b5e2 703d ad98 29bd b10d f23c 8869 3d3d
000003f0: f0a5 093d c40d c7bc 246e c73d 798d 673d

3.bias f4 [10]
0.04129181 0.07351017 -0.070856296 -0.0015864554 -0.017591799 0.05594865 0.0019373283 -0.04795509
-0.0029308219 0.081986904
00000000: 9a21 293d 808c 963d 1b1d 91bd 9cf0 cfba
00000010: ad1c 90bc 692a 653d f3ed fd3a 8e6c 44bd
00000020: 0813 40bb c0e8 a73d
