simulation/saved_models/global_model_beta_1732388002.pth (torch, 409400 bytes, 4 tensors)

1.weight f4 [128, 784]
000000 fe 44 d1 3c 92 7e 63 3b 2f 33 3a bc 40 6d cd bc
       0.025545593 0.0034712893 -0.011364742 -0.025076509
000010 62 e7 78 bc b1 7e 48 bc ff 04 0a 3d 72 39 f6 3c
       -0.015191885 -0.012237237 0.03369617 0.030056689
000020 62 e5 e4 3c 9f 98 01 3c 11 2d b1 bb df ee 02 bd
       0.02794141 0.007909923 -0.0054069837 -0.031966086
000030 a1 29 b7 bb 6f ae 0b bc 89 e9 24 bc f1 05 04 3c
       -0.0055896793 -0.008525475 -0.010065445 0.008058057
000040 31 0e b0 bc 52 67 4d 3c 70 5d 52 bb 47 65 a5 3b
       -0.021491142 0.0125368405 -0.003209915 0.0050474736
000050 90 6d 09 3c 40 18 d8 bc 9e 93 7a bc 4e 33 79 bc
       0.008387938 -0.02637875 -0.015293984 -0.015209986
000060 30 74 4d bb 6f e1 0b 3d 99 a6 9b bc d9 cb 03 3d
       -0.003134977 0.034150537 -0.019000338 0.032176826
000070 de 96 d9 bc 6f 17 8b 3c 69 5b 9b bc ff c3 c5 3c
       -0.026561197 0.016978947 -0.018964486 0.02414131
000080 7a e4 2d 3c 72 84 f5 bc 10 49 3e 3c 0f 65 85 bc
       0.010613555 -0.029970381 0.011614099 -0.01628354
000090 2f f0 ba bc d9 ee 11 3d ae 74 4e bc 20 88 4e 3b
       -0.022819607 0.035628174 -0.012601061 0.0031514242
0000a0 90 a6 52 3c a2 da ea bc 3e 55 de 3c df a7 0b 3d
       0.012857094 -0.028668705 0.027140256 0.03409564
0000b0 0f b3 96 bc 11 6e 0f 3d 39 3a 8d 3c a1 82 06 bd
       -0.018395929 0.035017077 0.017239677 -0.03283942
0000c0 00 b7 00 3c 3e 39 e3 3c 67 bf 1d 3c b1 07 88 3c
       0.007856131 0.027737256 0.009628153 0.01660523
0000d0 77 77 9d 3c 02 dd d7 3c 60 a3 01 bc 72 57 fa 3c
       0.019222004 0.026350502 -0.007912487 0.030559275
0000e0 3f a0 3c 3c 26 96 b9 3b d2 13 7f 3b 92 15 7b 3c
       0.011512815 0.005663651 0.0038921726 0.015324967
0000f0 31 2b 07 3d 42 d0 d6 bc 07 63 17 bc 4f 2f 9d 3c
       0.033000175 -0.026222352 -0.009239919 0.019187598
000100 a1 7c 8d 3c 79 d5 a3 3b 22 63 62 3c 61 5a 93 3c
       0.017271342 0.004999813 0.01381758 0.017987432
000110 57 6d 0f 3d 0e a2 7c bc 47 f1 a3 bb 80 93 cd 39
       0.035016384 -0.015419496 -0.0050031277 0.00039210543
000120 80 0a 51 bb ee 94 d9 3c d9 0a 0e bd 21 93 ba 3c
       -0.0031897128 0.026560273 -0.034678314 0.022775235
000130 c9 fd 9f 3c fe d2 f0 3c 9a 52 2e 3c 8f cd 9a 3c
       0.019530194 0.029397484 0.010639811 0.018896846
000140 fe 62 61 bc 82 db d2 bb 9f b3 9d bc 4f 30 a0 3c
       -0.013756512 -0.006434859 -0.01925069 0.019554285
000150 1f bb 3d 3c 0e 04 d4 bc 1e 09 75 bc 26 ed aa 3c
       0.011580258 -0.02588084 -0.014955787 0.020865034
000160 7f 83 38 3c 72 96 e4 3c 3e 37 e5 bc 32 84 eb 3c
       0.01126182 0.02790377 -0.027980443 0.02874956
000170 ff b1 3a bc 7a 85 33 bc ae 2c 79 3c 12 f1 6f bc
       -0.011394977 -0.010957116 0.015208406 -0.014644878
000180 8e c4 dd bc 60 79 fa 3b b2 ad 64 3c de a8 f1 3c
       -0.027071264 0.0076438636 0.013957428 0.029499467
000190 99 f6 25 3c e0 7b 2e bb de 0e 70 bc e1 fd 04 3d
       0.010129594 -0.0026624128 -0.014651982 0.03246868
0001a0 00 73 42 3b e0 05 51 bc 46 db b2 bc aa 95 b6 bc
       0.0029670596 -0.012757748 -0.021833073 -0.022288162
0001b0 49 46 a6 3c 32 1a 5f bc f7 40 01 bd 7f 16 10 bd
       0.020297186 -0.013617085 -0.031556096 -0.035177704
0001c0 31 25 c9 3c 07 6c 02 bd 3e d7 7f bc 0e f2 da 3c
       0.024553867 -0.031841304 -0.015615283 0.026726749
0001d0 1e 31 66 bc 82 0b fb bb 39 f5 03 3d f1 3d 4c bc
       -0.014049796 -0.007661284 0.032216284 -0.01246594
0001e0 11 f3 0a 3d 02 5f 74 3c 57 39 01 3d 5e 0b 74 bc
       0.033923212 0.01491523 0.031548824 -0.014895288
0001f0 71 8f 06 bd d2 89 f6 3c d0 85 a7 3c ee 7d f7 bb
       -0.03285164 0.030095015 0.020449549 -0.007552854
000200 11 cd 33 3c 57 49 9c 3c df 02 a6 3c e2 a8 7d 3c
       0.010974185 0.01907794 0.02026504 0.015482159
000210 c0 f6 7c 3a 42 ae f7 3c 81 8a 0e 3d 3e 36 6b 3c
       0.0009649806 0.03023446 0.034800056 0.014356194
000220 b1 ae 0c bc 12 d5 f7 bc 91 49 a1 bb 10 58 95 3b
       -0.008586572 -0.030252967 -0.0049221 0.004557617
000230 8e fd 7e bc 30 3a c5 bb 20 8a d6 3c 00 cb 4e bc
       -0.015563382 -0.0060188994 0.02618891 -0.012621641
000240 00 78 06 b9 ce 38 59 bc b1 99 93 3c 2f 38 bc 3c
       -0.0001282394 -0.013258172 0.018017622 0.02297601
000250 92 e2 7c 3b 60 0d 18 3b 20 f0 f5 3b 30 2c ae bc
       0.0038587195 0.0023201331 0.007505432 -0.021261305
000260 df ca b2 3c 32 e8 e5 3c 82 d3 e1 bc 52 12 f9 bc
       0.021825252 0.02806482 -0.027566675 -0.030404244
000270 9f 9b 1e bc 2e bb ef 3c 92 1a fa bc c0 40 a0 bb
       -0.009680658 0.029264059 -0.030530248 -0.0048905313
000280 a7 6e 0c 3d be 21 78 3c b0 22 53 3b d0 ee c7 bc
       0.034285214 0.0151447635 0.003221672 -0.024405867
000290 c2 51 dd 3c 57 eb 8d 3c 39 64 8d 3c 31 68 24 bc
       0.027016524 0.017324133 0.017259704 -0.010034607
0002a0 a0 78 6b 3c af 9a 98 bc 09 fe 9b bb 22 64 e6 bc
       0.014372021 -0.018628446 -0.004760508 -0.028123919
0002b0 11 4e 2f bc 82 ee f7 3c 8f ff ba bc ef 54 99 3c
       -0.010699765 0.030265097 -0.022826938 0.018717257
0002c0 20 8a 4d 3c 5e e4 ee bb 20 0a 45 3b 00 1c 4f 38
       0.012545139 -0.007290407 0.003006585 4.9378723e-05
0002d0 1f bf 11 3c f1 7f 17 bc 01 76 8d bc 4e 75 d6 3c
       0.0088956645 -0.009246812 -0.017268183 0.026178982
0002e0 51 0d a0 bb 2f 10 0e 3d 9f ba 00 bd 80 22 ef 39
       -0.0048844 0.034683403 -0.031427976 0.00045611337
0002f0 c1 4b a7 bc de d3 cc bb 60 b4 96 3a 42 77 dc bc
       -0.020421864 -0.0062508425 0.0011497848 -0.026912335
000300 70 4a 19 bb 7f 1a 46 3c c0 8b ec 3b 40 4d 3d 3c
       -0.0023390315 0.012091278 0.007218808 0.011554062
000310 99 d1 05 3d 7f 6b cc bc ff ea 03 3c d1 b3 93 3c
       0.03267059 -0.024953602 0.008051633 0.01803008
000320 c1 2a c8 3b 4f ec b4 bc 8f 66 b6 3c 9f 6f 9d bc
       0.0061086123 -0.022085337 0.0222657 -0.019218264
000330 c1 29 0d bc 40 86 62 3a d9 7c 94 bc c2 95 de bc
       -0.008615912 0.00086412206 -0.018125938 -0.02717102
000340 ee bd dc bc 7e 4a 61 3c 98 17 83 3b 22 43 dc bc
       -0.026946034 0.0137506705 0.0040006153 -0.02688748
000350 00 ef 8c ba 60 3d 16 3b d1 4e 0f 3d 10 ac 80 3b
       -0.001075238 0.0022924766 0.034987275 0.0039267614
000360 fe 87 d9 bc 11 cd 0a 3d 5f f3 a1 bb 7e dd 6b bc
       -0.026554104 0.033886973 -0.004942342 -0.01439607
000370 e2 2b dc bc 12 c7 6f 3c a7 84 1e 3c c9 23 8a 3c
       -0.026876394 0.014634864 0.0096751815 0.016862767
000380 f7 f8 10 bd c0 af 9c bc e0 fe 64 bb 69 fd a4 3c
       -0.03539368 -0.019126773 -0.0034941956 0.020140367
000390 3f 96 c4 bc 20 b1 78 bb c7 86 13 bc 52 0f 7b bb
       -0.023997424 -0.0037947372 -0.009004301 -0.0038308692
0003a0 00 da 06 3c 92 e9 f3 3c 90 5e 00 3b f7 b8 8f bc
       0.008230686 0.029774461 0.0019587614 -0.017544253
0003b0 9a 44 b1 3c 00 d9 57 3b 00 aa bb ba e9 b8 02 bd
       0.021639157 0.0032935739 -0.0014317632 -0.031914625
0003c0 da 6e ae bc a8 0a 87 3b 8e 56 f3 3c 10 78 b0 3c
       -0.021293093 0.0041211434 0.029704358 0.021541625
0003d0 40 7b 4e bc 22 b3 55 3c 27 b1 11 bd ef 43 c7 3c
       -0.012602627 0.013043197 -0.035569336 0.024324385
0003e0 8f eb b1 3c b6 91 ad 3c 00 53 59 3c a0 41 aa bc
       0.021718768 0.021187644 0.013264418 -0.020783246
0003f0 9f 83 b9 bc 39 1f a9 3c 00 ea 20 3c 19 c7 a1 3c
       -0.02264577 0.020644771 0.009821415 0.019748257

1.bias f4 [128]
000000 77 ae 03 3d f2 93 9a bc 81 56 41 3c 9d 73 0a bd
       0.032148805 -0.018869374 0.011800409 -0.033801664
000010 29 9d 31 bc 6d 19 cd bc 30 bb ca 3b be 27 d4 3c
       -0.010840693 -0.025036538 0.0061868653 0.025897857
000020 fe 82 f6 bc 12 13 2a 3c 58 a5 74 bc 6e c7 f2 3c
       -0.030091759 0.010380523 -0.014931999 0.029636111
000030 a6 25 b9 bc fd 2c 08 bd bc 7c c7 bb c3 7c 5f bc
       -0.02260096 -0.03324603 -0.0060878675 -0.013640585
000040 4b bf 1b bd 3a 69 cd 3c 30 15 5a bc 13 94 dd 3c
       -0.038024228 0.02507459 -0.013310716 0.027048146
000050 65 4d 1f 3d c0 ea d7 bc 25 41 d1 3c 46 4b f4 3c
       0.03889217 -0.026357055 0.025543759 0.02982105
000060 4c a0 a6 3c f2 99 a2 3b 03 ff 9a bb d6 c1 d8 bc
       0.020340107 0.0049621994 -0.004730107 -0.026459616
000070 ad 94 89 bb e8 43 52 bc b3 f4 cf bc 6a 47 31 3b
       -0.0041986317 -0.012833573 -0.025385236 0.0027050623
000080 c0 fd e3 3c d2 44 38 3c 18 b6 6f 3c 7a 7f 15 bd
       0.027830958 0.011246877 0.014630817 -0.036498524
000090 7a 0f 05 bd 93 a7 f8 bc 7a d9 ce bc 1e 6b ef 3a
       -0.032485463 -0.030353343 -0.025250185 0.0018266176
0000a0 2b 4a 42 bc ca fc dc bb fa 2a 0a bd fb c6 45 bd
       -0.011858503 -0.006744002 -0.033732392 -0.048285466
0000b0 48 61 09 bd de b4 0d 3d b1 9e a3 3c 7e 21 a1 bc
       -0.03354004 0.034596317 0.01997313 -0.01966929
0000c0 1a 47 25 bd de e1 1c 3c e9 01 00 bd 33 24 f2 3c
       -0.04035101 0.009575335 -0.03125182 0.029558277
0000d0 06 0e 25 bc ae a7 20 bd 4b 75 83 3c 13 f3 5e bc
       -0.010074144 -0.03922241 0.01604714 -0.013607758
0000e0 3e 25 c1 bc 86 6d 0c 39 d6 f1 c9 3c fe b5 e1 bc
       -0.023577329 0.00013392241 0.02465145 -0.027552601
0000f0 13 f3 07 bd 30 ac 8a 3b 53 c8 15 39 d6 ad 2a 3a
       -0.033190798 0.004231952 0.00014284374 0.0006510889
000100 8d 4c eb bc 99 e2 15 3d 8b a0 8f bc ae 4d d4 bb
       -0.028723026 0.036593053 -0.017532608 -0.0064789867
000110 f3 17 f3 3c 02 b0 b8 3c 32 e0 7a bb eb 5f b0 3c
       0.029674506 0.022544865 -0.0038280603 0.021530112
000120 a5 e6 51 3b 46 c5 05 bc 2e 1f 9c 3b fc a6 05 bc
       0.0032028344 -0.008164709 0.004764459 -0.008157488
000130 e9 5b 25 3d fd 85 bb 3c d3 cc 0c bd 08 10 55 bc
       0.040370855 0.022891039 -0.034375023 -0.01300431
000140 f8 ab b5 3c dc 12 8b 3b 9c 20 04 3c 22 7e b8 bc
       0.022176728 0.0042441916 0.008064415 -0.022521082
000150 f6 0c e8 bc 1d ba cd bc 26 0f ff 3b fd 83 2e bd
       -0.028326493 -0.02511316 0.0077837883 -0.042606343
000160 6a e8 ff 3c ce 0a 9a bc eb d2 41 bd 5e e0 ac bc
       0.031238753 -0.01880398 -0.047320288 -0.02110308
000170 f1 55 c7 bc 42 31 ef bc 07 bc b7 bc 51 d0 a7 3c
       -0.024332972 -0.029198293 -0.022428526 0.020485075
000180 ab b1 55 bc 08 a0 62 bc 36 9f fc bc bb d8 b9 bc
       -0.013042848 -0.0138321 -0.030837636 -0.022686353
000190 c5 4f 77 3c 76 76 f7 3c a2 66 05 bc 1c f3 17 3d
       0.015094702 0.030207854 -0.008142145 0.03709708
0001a0 4a 0d 6a bc ba 2a 55 ba 12 6e be 3b 78 a1 da 3c
       -0.014285395 -0.0008131672 0.0058114612 0.026688322
0001b0 7e 18 d6 3c b2 aa a6 bc 52 c0 61 bc da 82 c1 3c
       0.026134726 -0.020345066 -0.013778763 0.023621965
0001c0 24 d4 0a 3c 1a 69 84 3c 50 fd fc 3c 8d af 5b 3c
       0.00847343 0.016163398 0.030882508 0.013408554
0001d0 ce b7 58 bc f4 65 21 bc 0e e4 f7 bc 16 0c 2e bc
       -0.013227416 -0.009850968 -0.030260112 -0.010622999
0001e0 64 a5 b4 bc d6 9c 0a 3c b2 52 1c bd 9b 7e 03 bd
       -0.02205152 0.008460244 -0.038164802 -0.032103162
0001f0 e1 ff 9d ba 3d e2 16 3c 2d 34 e7 3c 3b 3b c2 3c
       -0.0012054407 0.009209213 0.028223122 0.023709884

3.weight f4 [10, 128]
000000 cf 35 b1 bd bc ce b2 3e d6 19 69 be 43 31 45 3e
       -0.08652841 0.3492335 -0.22763762 0.19257073
000010 06 6b e3 bd 0b c1 47 3e 6e 26 7e 3e 3a a6 c7 3e
       -0.111043975 0.19507234 0.24819347 0.38994008
000020 83 01 b0 bd 0d 99 76 be 12 7d e9 bd 6f 9c 3b bd
       -0.08594038 -0.24081822 -0.114008084 -0.045803484
000030 a4 08 2d be 33 ae 53 bd 4e 12 31 be f8 68 86 3e
       -0.16897827 -0.0516798 -0.17292139 0.2625196
000040 1a 49 74 3e 52 4e a6 3e fd 76 4b bd 23 d8 9a 3e
       0.23856011 0.3248163 -0.049674023 0.30243024
000050 e8 d9 f2 bd f0 0f 53 bc 6a e0 85 3e f4 1b 96 be
       -0.118579686 -0.012882218 0.26147777 -0.29318202
000060 21 4e 05 3f 88 f6 e3 be ef 99 b2 3c b6 ec 46 bd
       0.5207234 -0.44524026 0.021801917 -0.04856559
000070 f3 af 47 3c e1 a6 01 3e cc 6c ae 3e f3 75 e1 bd
       0.012187946 0.12661316 0.3406738 -0.11008825
000080 ba 52 67 3e 3c 92 b9 be 84 40 98 3e 4a 8c c9 be
       0.22590151 -0.3624438 0.29736722 -0.39364845
000090 01 0a ad 3e c6 ca 8e 3e 2a dd 0f 3f 66 56 2b be
       0.33796695 0.2788908 0.56196845 -0.16732177
0000a0 e3 73 6a 3e 1d e4 a3 be f2 a4 20 be ce be c1 be
       0.2289577 -0.32009974 -0.15687922 -0.37840885
0000b0 20 6d b0 bd f1 b2 aa 3e 95 33 bd 3d 46 41 a3 be
       -0.08614564 0.33339646 0.09238354 -0.31885737
0000c0 f2 32 ef 3d 45 80 d0 3c 31 fc bc be 30 08 7e be
       0.11679639 0.025451789 -0.36911157 -0.24807811
0000d0 57 99 0f 3e e4 c1 83 3d 2b 8d 5e 3e 8b fb d7 bc
       0.14023338 0.06433466 0.21733539 -0.026365062
0000e0 c6 18 a9 bd 22 3e 72 3e f1 6d 8e bd da ee 27 bd
       -0.08256678 0.23656514 -0.069545634 -0.04099927
0000f0 72 14 55 3e 71 28 04 be 1a df 9e 3e b8 c5 c7 bd
       0.2080858 -0.12906052 0.31029588 -0.09754509
000100 8b b3 1e 3e 3a cb 89 bd 3d fc d1 bc 0d cf 19 3e
       0.15498178 -0.067282155 -0.025632972 0.1502039
000110 c5 06 72 bd ef d8 12 bf 5f 8e 12 be e2 0b aa bd
       -0.059088487 -0.57362264 -0.14312123 -0.08303048
000120 20 5b 5b 3e 78 2e 13 bd ee 46 92 be c5 68 89 be
       0.2142148 -0.035932988 -0.2856974 -0.26837745
000130 43 27 18 be eb 63 78 3e 6a aa af 3d 73 3e e4 bd
       -0.14858727 0.24256866 0.08577426 -0.11144724
000140 a3 a1 a0 bc 6b 41 d5 be b3 8f f3 bb f8 db 7b be
       -0.019608324 -0.41651472 -0.0074329018 -0.2459563
000150 c4 11 37 3e e3 4b 82 3e 60 14 75 3d 53 c8 cf bc
       0.17877871 0.25448522 0.059833884 -0.025364077
000160 f1 44 40 be 3a e4 6d 3e 98 be b6 3d 12 9f 00 3c
       -0.18776299 0.23231593 0.089230716 0.007850425
000170 29 49 25 bf 25 bc ce 3d f2 10 88 be 02 a2 e2 bd
       -0.6456476 0.100944795 -0.26575428 -0.11066057
000180 80 08 fd be 7a 06 29 bc 96 6b 21 be cb c2 1d 3e
       -0.49420547 -0.010316486 -0.15763697 0.15406339
000190 1d 66 c0 3e 92 20 d0 3d 15 99 99 be 58 ac a2 bc
       0.37577906 0.10162462 -0.29999605 -0.01985757
0001a0 59 e1 c8 3c 87 3b 22 be e5 95 d1 bd c0 dc 98 3e
       0.024521517 -0.1584302 -0.10233668 0.2985592
0001b0 8a cc b9 3c f2 77 77 be 6d 32 ec bd 0c 8a 82 3d
       0.02268054 -0.2416685 -0.115330555 0.063739866
0001c0 76 10 8f bc 1d 08 73 bc 96 b3 c6 3d b9 7f ab 3e
       -0.017463904 -0.014833477 0.09702222 0.33495882
0001d0 f5 5c 85 3e 92 4f 68 3d 64 18 01 bc 7d 2a 63 3e
       0.26047483 0.05671651 -0.00787935 0.22184177
0001e0 6a b3 da bc 28 ca c6 bd 3e 82 d4 bd 50 94 75 be
       -0.02669688 -0.09706527 -0.10376404 -0.23982358
0001f0 70 06 bd 3d ea b3 16 3e e9 02 97 3e c8 2c 6c 3e
       0.092297435 0.1471707 0.29494408 0.23063958
000200 21 c6 8c 3c 20 e8 9f bd ed 6a bc 3e 19 b7 8c 3d
       0.017184319 -0.07807946 0.36800328 0.068708606
000210 d3 e7 3c 3d 45 94 be bd b6 1b 49 be 5b ea 66 bd
       0.046119522 -0.09305624 -0.19639477 -0.056375843
000220 de 2f b2 3d 7e 77 fa bd 7a bb af 3b ba 87 ed bd
       0.08700536 -0.122298226 0.005362925 -0.115981534
000230 62 fd 34 be 5e d1 f7 3d c6 bb 3a 3e f2 b5 05 be
       -0.17674783 0.121004805 0.18235692 -0.13057688
000240 90 0c 05 3e 7d 6e 1f 3e 32 72 0e 3e 1b fa d4 3c
       0.12993073 0.15569492 0.1391075 0.025998166
000250 ed 1d c6 3e 5f 0f 95 3e b6 b2 01 be be 21 99 3e
       0.38694707 0.2911329 -0.12665829 0.29908556
000260 ce 00 a3 be e3 26 51 3e f3 c9 ce 3c 6d 2f 49 bd
       -0.3183655 0.2042499 0.025242781 -0.049117494
000270 ee 13 89 3e 96 ec a8 3e 9e 22 01 be 0d 46 14 3e
       0.26773018 0.32993 -0.12610862 0.14479847
000280 ea e8 ba bd 2a 3b cd bd 2e 1f c3 3c 4b 73 90 bc
       -0.09126456 -0.1002105 0.023818579 -0.017633101
000290 a8 05 b4 bd f8 f9 ab 3e 0b b6 d0 bd b0 a9 cf 3e
       -0.08790141 0.3358915 -0.10190972 0.4055915
0002a0 da eb 01 be 68 8d a1 3e 85 0b b7 3e b3 6e 59 3e
       -0.12687626 0.31553197 0.35750976 0.21233635
0002b0 9e 57 0f 3f 85 54 5d 3e aa b5 e6 be d2 46 1b be
       0.5599307 0.21614273 -0.45060474 -0.15163735
0002c0 5e 04 52 bc 90 2b 6b be 45 b1 af 3d b0 e1 8e be
       -0.012818424 -0.22965837 0.08578733 -0.2790656
0002d0 08 a8 7f be 8f 08 3d be 82 dc 3f 3d 7c a7 21 bd
       -0.24966443 -0.18460296 0.046841152 -0.039466366
0002e0 de b9 21 3f e9 f8 09 3c 7e 94 4d 3d b6 43 83 bd
       0.63174236 0.008421161 0.05019044 -0.06409399
0002f0 85 44 0f 3e 0a fe 0f be dd 90 15 be 7d 4b e5 bd
       0.13990982 -0.14061752 -0.14606042 -0.11196039
000300 92 c2 82 3d 9d f3 3a bd 2c c0 2c 3f 70 04 c0 3e
       0.063847676 -0.045642484 0.6748073 0.37503386
000310 63 98 60 3d 92 21 73 be ec 9d 05 3f 6a fe 91 3c
       0.054832827 -0.23743275 0.52194095 0.01782151
000320 ed 8f 6c be e5 88 bc 3d 89 29 26 bd 57 96 41 3e
       -0.23101778 0.09205798 -0.040566955 0.18905006
000330 f6 43 e4 be db 49 91 3d bf 49 b2 be 92 b5 dd bd
       -0.445831 0.07094165 -0.3482189 -0.108256474
000340 96 6c 03 3d 0b 8b 00 3e 06 93 be 3c bf 11 84 3c
       0.032085977 0.1255304 0.023263466 0.016121743
000350 1a bd 17 3d 77 86 1c bc dd dd 87 3e 98 76 b7 3d
       0.037045576 -0.009553543 0.26536456 0.08958167
000360 ee 20 05 3d 66 b5 6a 3d a4 3a 24 3e 5d c9 19 bc
       0.032502107 0.0573019 0.16037995 -0.009386388
000370 e1 a2 02 bf d3 ca 66 be b2 c7 8a be 53 61 10 be
       -0.51029783 -0.22538309 -0.2710548 -0.14099626
000380 0d 6a ea 3d db 72 7e 3c 1a d1 89 3b 0e 56 4c 3e
       0.11446009 0.015530313 0.004205835 0.19954702
000390 a6 11 06 3d f6 ed d2 bc 72 ca 9d be 63 49 b9 be
       0.032731675 -0.025748234 -0.30818516 -0.36188802
0003a0 8e fe 4d 3d a6 b2 09 bf 97 f0 02 be 8e f9 82 be
       0.05029159 -0.5378822 -0.1278709 -0.2558102
0003b0 ea 59 12 3e da 2a 65 3e b0 8c 5b be 10 bc 56 3e
       0.14292112 0.22379628 -0.21440387 0.20970178
0003c0 35 1b 5b 3d 86 74 ea 3e 7e 17 0b 3e ee cb 1e be
       0.053492744 0.45792025 0.1358318 -0.1550748
0003d0 35 a6 b3 bd 52 56 3d 3e e6 ec bf 3e be 51 46 3c
       -0.08771936 0.1848996 0.37485427 0.01210445
0003e0 5b 87 06 3e 0a 0e 01 3f 69 56 2c bd c6 4d cb 3d
       0.13137572 0.50412047 -0.042074595 0.099269435
0003f0 40 b2 e2 3e 53 fd f7 be 1b d4 0a bd 0b f0 e8 bd
       0.4427662 -0.4843546 -0.033893686 -0.113739096

3.bias f4 [10]
000000 65 57 d5 bd 1a 9c 65 bc 6f 79 2d bc db f8 b6 3d
       -0.1041706 -0.014014268 -0.010588034 0.08934184
000010 b0 24 a7 3d f5 5d 89 3d 3a b6 bb 3d fb 7e c4 bd
       0.081612945 0.06707374 0.09165616 -0.09594532
000020 20 56 ed 3d 8e f3 12 3e
       0.11588693 0.14350721
