simulation/saved_models/global_model_test_qunatized_mqat_32168_noniid.pth (torch, 409600 bytes, 4 tensors)

fc1.weight f4 [128, 784]
00000000: 1734 efbc af3d 843c 87c1 0ebd 7073 f53c
00000010: 75d1 d8bc 3484 4f3c 0484 4abb 7fdd 1abd
00000020: 9f0b 0cbd df37 13bd f928 08bc 1c4e ec3c
00000030: ecbf 01bd 8773 d7bc 1cd7 77bc 0e8c 64bc
00000040: c79f 393c 0f8b ce3c 4f11 763b bc40 ddbb
00000050: aa02 9c3a fff2 dfbc ac5f c23c f970 a2bc
00000060: e10b 343b c771 11bc d9a2 2e3c 74d8 b6bc
00000070: f592 52bc 3439 833c 49a3 053c 0d5c 863c
00000080: 5ac3 eabc 8738 c03c f1d9 a2bc 0488 31bc
00000090: 519e 47bc 4ea0 5e3c 5c43 163b cf90 fabb
000000a0: 2e99 663b 0f0b 28bc 110d e2bc 32ca cd3c
000000b0: fbd1 e43c fb68 e83c b60d b23c d635 ffbc
000000c0: 270f 023d 5be9 d3bc eef6 1dbd a63c ce3c
000000d0: 8f9a 99bb 6c81 b23c 697a b7bc af12 08bd
000000e0: 22fe 88bc 2fb6 d33c ab76 a23c b903 c0bc
000000f0: 7e00 a4bc 0073 74bb f1e0 e2bc 955c c53c
00000100: a06b a7bc 85e4 d8bc 8662 2cbc bd2a 95ba
00000110: 5b11 283d af0a b7bb 5fcc 833c 4716 cabc
00000120: bbb2 9fb9 b73a c83c fc27 243b ac48 3c3b
00000130: b6ec 733c a9e4 073d d61a 3c39 6f21 bc3c
00000140: 3c58 93bc fcae 433c 8fbe 14bd 35ec 78bc
00000150: d9d2 273c a46e a4bb 741c 713c c17d cbbb
00000160: cc40 ec3c a9dd e23c ded7 cbbc 1729 ecbc
00000170: ab17 f83b 46e6 0b3c 8bdc 14bc 32ca 883d
00000180: 8a7b 4f3b 46fc f03c 2135 353d d279 ea3c
00000190: ea73 713d a6f9 2e3d ec97 193c e273 533d
000001a0: 70ba fb3c 8859 86bc 49c8 553c 2ca4 e13c
000001b0: 8224 fbbc 257f 253c 5061 e0bc f734 03bd
000001c0: 6f21 fdbc abe8 7d3c 65ee 4ebc 1a8d f73c
000001d0: fe19 93bc e48c d8bc 0046 debc 7416 e8bc
000001e0: b1c3 1bbc bbcb 513d 53ab 153d 2af0 713d
000001f0: 4ec9 9e3c 53b5 003d 24c5 143c be72 d13c
00000200: 4486 5d3c eba4 943d 0c7c e83c 018a 533d
00000210: e338 8d3c a68f f83c 47ed 0b3c 4b27 923c
00000220: 1950 193c 3baa 14bd e2f3 4a3c 9450 5a3c
00000230: a12d f63c 7442 bebc 62e7 943b 9107 4b3b
00000240: 55fb fb3c 95e1 12bd ef2e a1bb 9191 99bc
00000250: cb4a 5b3d fca2 683d b3a3 023d 7389 193d
00000260: 47c1 41bc 47dc 4ebc 8e97 f9bc 09dd 013d
00000270: a0df 803d e2df 8b3d 467f 673d e75e 583d
00000280: d9a8 5e3d 5a8f c23c 3634 0e3c 7fa8 a43c
00000290: ccc4 e13c a229 f03c 2f29 d83c 5e16 68ba
000002a0: 9f13 ec3c 3570 473c 7102 a3bc f055 c4bc
000002b0: 7227 403c 0ea0 d43b 7b80 c33c 0248 273d
000002c0: ca20 83bb 5178 823d 1ad9 c23a 2b47 3b3d
000002d0: 8707 8a3d 2e68 683b 47b9 b23d 196e 503d
000002e0: f76f 833d 3258 783d a52e ba3d 26af 643d
000002f0: 7bdb 8a3d e0ee 4b3c 00ca 6d3d 151b c63c
00000300: 754d 213d a5ab b2bb de13 b9bc b70e 16bc
00000310: 44c4 353c 7c61 a93c 90c4 91bc aa35 e93c
00000320: f786 8abc 2969 21bb ce8c a1bc e280 dabc
00000330: 97ed ee3c 2e68 103d 94cf 8b3d bc80 963d
00000340: b470 6f3d d277 b53d 9564 6a3d e749 a83d
00000350: 15d0 983c b55f 1f3c 0944 783c 0f3c 3ab9
00000360: b437 043d ebce 013d fe83 893c 51e3 fdbc
00000370: 311b be3c 974c 953c 50fe 22bb 92eb 8ebc
00000380: 49f2 58bc 4031 36bc e402 d5ba fc14 c6bc
00000390: 2bfd 243c 893a 23bc e33e 8abb e56d 13bd
000003a0: 6290 aa3c abfc e53c 754f 853d 451f c83d
000003b0: 6480 863d 8a8a 94bb 6c24 833d 7498 dc3c
000003c0: 0036 84bd 9685 42bd 72db efbd 309f b9bd
000003d0: 9659 5ebd e2bc adbd a7b2 81bd 025a 7cbc
000003e0: 24c6 44bb a8ea 073d 153c 4ebc 5953 1dbd
000003f0: 00ab fcbc ea58 fa3c 62e0 173c 0c0d db3c
-0.029199643 0.016142694 -0.03485253 0.029962271 -0.026467064 0.012665797 -0.0030901441 -0.03780889
-0.03419077 -0.035941955 -0.00831055 0.02884584 -0.03167717 -0.026300205 -0.01512697 -0.013949407
0.011329598 0.025212793 0.0037546938 -0.0067521017 0.001190265 -0.02733755 0.02372726 -0.01982926
0.00274729 -0.008877224 0.010658943 -0.02232001 -0.01285242 0.016018488 0.008156606 0.016401315
-0.028657604 0.023464454 -0.019879313 -0.010835651 -0.012183742 0.013588024 0.0022928333 -0.007646657
0.0035186517 -0.010256543 -0.027594121 0.025120828 0.027932158 0.028370371 0.021735054 -0.0311536
0.03175273 -0.025868108 -0.03856557 0.025175404 -0.0046876143 0.021790229 -0.022397237 -0.033220943
-0.016722742 0.025843708 0.019831976 -0.023439275 -0.020019766 -0.003729999 -0.027695151 0.024091998
-0.020437062 -0.026476154 -0.010521537 -0.0011380535 0.041032176 -0.0055859904 0.016088663 -0.024668826
-0.00030460008 0.02444206 0.0025048247 0.002872984 0.014887979 0.03317705 0.00017939074 0.022965161
-0.01798641 0.011943575 -0.036314543 -0.015193035 0.010243141 -0.005018072 0.014716256 -0.0062100594
0.028839491 0.027693586 -0.024883207 -0.028828187 0.007571181 0.008538788 -0.009085785 0.06679191
0.0031659328 0.029417168 0.04424012 0.028622542 0.058948435 0.042718552 0.0093746 0.051624186
0.030728549 -0.016400114 0.01304824 0.027544104 -0.030657057 0.010101114 -0.027390152 -0.032032933
-0.030899731 0.015497367 -0.01263008 0.03021865 -0.01795673 -0.02643437 -0.027132988 -0.028331019
-0.009507106 0.051219683 0.03654034 0.05906693 0.019383099 0.031422924 0.009080205 0.025567409
0.013520781 0.07258018 0.028379463 0.051645283 0.01723904 0.030341934 0.008540458 0.017841002
0.009357476 -0.036295157 0.012387248 0.013324875 0.030051054 -0.023225047 0.0045441845 0.0030979852
0.030759493 -0.035859663 -0.004918925 -0.01874617 0.053538125 0.05679606 0.031894397 0.037484597
-0.011825866 -0.01262576 -0.030467775 0.031704936 0.06292653 0.06829812 0.05651786 0.05282488
0.054360244 0.023749996 0.00867944 0.020099876 0.02755966 0.029316727 0.026386825 -0.00088534306
0.02881795 0.012172748 -0.019898625 -0.02396676 0.0117281545 0.0064888066 0.023864975 0.040840156
-0.0040017115 0.06370605 0.0014865727 0.045722168 0.06739717 0.0035462487 0.08726745 0.050886247
0.0641784 0.060630985 0.09090928 0.055831097 0.06780144 0.012447089 0.05805397 0.024182836
0.03938051 -0.0054525905 -0.022592481 -0.009158782 0.011094157 0.020676367 -0.017793924 0.028467972
-0.01691006 -0.002462933 -0.019720461 -0.026672784 0.029166026 0.035255603 0.06826702 0.07348773
0.05845709 0.088607445 0.05722483 0.08217221 0.018653909 0.009727408 0.01515294 -0.00017760716
0.032279685 0.031691473 0.016786572 -0.030992182 0.023206325 0.018224997 -0.002487082 -0.017446313
-0.013241359 -0.011120141 -0.0016251472 -0.024179928 0.010070126 -0.009962686 -0.0042189225 -0.035993475
0.0208208 0.028074583 0.06509296 0.09771589 0.06567457 -0.0045331167 0.06403431 0.026928164
-0.06455612 -0.04749068 -0.11711778 -0.09063566 -0.054284655 -0.08483292 -0.06332903 -0.015402319
-0.0030025328 0.03318277 -0.012587567 -0.038409565 -0.030843258 0.030559976 0.009269806 0.02673962

fc1.bias f4 [128]
00000000: 8f7f 99ba 7550 ba3c 4535 2d3c 2224 f13c
00000010: e61c 99bb 96bd 21bb 1bab 4dbc ffdb 27bd
00000020: 9e62 d93c d9bf c5bc 1fb7 5c3b 967a d3bb
00000030: 23ec 80bc c084 0538 b44e 733c 2c99 973c
00000040: 6fb2 153d 5181 143d 432c 983c 446d cabc
00000050: cf31 ff3c 6f65 bcbc 24c2 60bb 276a 843c
00000060: 463e 1e3c f2e3 14bd d1eb b0bc b963 273c
00000070: 9089 3fbc bbdf afbc 3f0e 06bd 7102 bf3c
00000080: cec5 153d b7d5 273c bcf2 a93c bec4 b1bc
00000090: 40d3 063d d1d4 9f3c 65ff a0bc d950 a8bc
000000a0: 07b7 163c 74dd 3dbc ccb1 223c 2fb2 a2bc
000000b0: 4fee 6f3b 24ee 973c 748b 863c 29ac 413c
000000c0: a0d2 dfbb 41b5 f93c a82f 8839 00db 823c
000000d0: a693 e63a 37e3 25bd f7b7 10bd f133 f5bb
000000e0: 9c28 053d 2128 4fbc 8a48 0fbc c5de 0abc
000000f0: c0b1 a2bb e681 c23c 02f8 063d f7a8 01bc
00000100: 1f31 eebb 3774 84bb f510 b8bc d4bf 6f3c
00000110: 1724 9c3c 69a5 6bbb 501b a83b 4eac adbb
00000120: 4f09 eebc 10c9 00bd bfdc 733c e7b2 d6bc
00000130: a0b8 c8bc 7247 373b ec59 d6bb ef5a ca3c
00000140: 3ecf e63c 7f34 ee3c 9aac ad3b 7e9c aa3c
00000150: 56fc c4bc 412f 513c 795b 38b9 9ef0 b8bc
00000160: cc10 d6bb f667 f63c 9223 583c fbe3 e0bc
00000170: 4f3b e93b 80c1 55bc 95f3 e03c 9106 33bc
00000180: 016c 20bc 8c05 fe3b 790e f33c b036 2c3c
00000190: 5623 da3c 3f54 fbbc f230 c4bb 019c 3ebc
000001a0: af43 2a3a f164 cfbc 0fb2 26ba 8ea8 153d
000001b0: e154 70bc 1964 0b3d 4fe3 01bd 9ff4 fdbc
000001c0: d19c bbba eef8 d93c 66a4 b53c ef96 ed3c
000001d0: 5252 c5bc 0fb7 caba 5cef 44bb a95c 56bb
000001e0: 243a fd3c f410 333c be41 413c 3181 f43c
000001f0: 9c40 b4bc 0f50 62bc a9de fabb 2db8 15bc
-0.0011710989 0.022743443 0.0105717825 0.029436175 -0.0046726344 -0.0024679652 -0.012553002 -0.04098129
0.026536282 -0.024139332 0.0033678485 -0.0064538224 -0.015737599 3.1833304e-05 0.014850307 0.018505655
0.03654712 0.03625614 0.018575793 -0.024710305 0.03115168 -0.022997586 -0.0034295404 0.016163899
0.009658402 -0.036350198 -0.021596821 0.010216647 -0.011690512 -0.021468988 -0.03272843 0.023316594
0.036565594 0.010243825 0.020745628 -0.02170026 0.032916307 0.019510658 -0.019653032 -0.020546364
0.009198911 -0.011588443 0.009930085 -0.019860355 0.003661055 0.018546171 0.016423918 0.011820831
-0.0068305284 0.030481936 0.00025975448 0.015973568 0.001759161 -0.040499892 -0.035331693 -0.0074829985
0.03250943 -0.012643845 -0.008745322 -0.008475964 -0.004965037 0.023743581 0.032951362 -0.0079138195
-0.0072690393 -0.004042174 -0.022469023 0.014633138 0.019060178 -0.0035956746 0.005130209 -0.0053000813
-0.029057173 -0.03144175 0.014884173 -0.026208354 -0.024502099 0.0027966169 -0.0065414812 0.024701564
0.028174993 0.029077766 0.0053001167 0.020826574 -0.024046104 0.012767614 -0.00017581684 -0.022575673
-0.006532764 0.03007887 0.013192074 -0.02745246 0.007117666 -0.013046622 0.027459899 -0.0109268585
-0.009791375 0.007752126 0.029669987 0.010511085 0.026628178 -0.03067982 -0.00598728 -0.011633874
0.0006495071 -0.025316687 -0.000635893 0.0365377 -0.014668674 0.034031007 -0.03171092 -0.031000433
-0.0014313703 0.026607957 0.022173118 0.029002635 -0.024087105 -0.0015465933 -0.0030049896 -0.0032709038
0.030911513 0.010929335 0.011795459 0.02984676 -0.022003464 -0.013813033 -0.0076559377 -0.009138149

fc2.weight f4 [10, 128]
00000000: 26ad 6dbd 6031 fe3b 9e78 3e3c 16bd 28be
00000010: 0a65 643d dcff ab3d 2b82 b43b 5127 da3c
00000020: bc92 063e a737 a4bd 31e9 c3bc d1bb 0fbe
00000030: 9002 0abe 2f60 7dbd d626 dbba 147d aabd
00000040: 3f1b a8bd 2685 bf3d 2ea4 803b d07a d13d
00000050: 459e c13d 07c1 a83d 7c14 2cbe 42f3 613d
00000060: 3eed fd3d 65f6 06bd a5a7 57be a9e1 d53d
00000070: 37ee fdbd 4963 1fbc 1756 a83d 6e7c 4c3c
00000080: 47a9 fe3d 9e79 dc3b 000b c4bd eca9 0b3d
00000090: ce31 593d 89cf 87bd 6775 863d 1926 aa3d
000000a0: 2fbf 83bd 921b 0c3e 47c4 1ebe 3cf4 90bd
000000b0: 2fd0 54bd dfaa e43d e6e1 cf3d 3d51 0c3e
000000c0: a20c 7bbe 7913 0e3c 6bb6 cc3d 696c 96bd
000000d0: 8c6b 00bd ff9b 5dbd e1f7 99bd d1e7 3bbd
000000e0: 67f0 0bbe 31f6 823c 06ce 9bbd 079c 6cbd
000000f0: 90f1 3ebe 917f 91bd cef4 cebc 253e 3b3d
00000100: e793 b53b 7769 4dbd 3509 51bb 114d dabd
00000110: 0ffc 61bc 412c afbd 520b 9cbd 3748 cebd
00000120: 7786 913d ef1d 0dbe 79cf 89bd 6742 87bd
00000130: f41a 40be aff8 18be 02ab 50bd 0431 27be
00000140: 5bc8 f43c ff16 b0bd 808d 9d3d cb19 d53d
00000150: 7add 0a3d 4f4d 753d 8a30 98bc e781 0c3d
00000160: b15f e83c 46c4 8b3d 5c3f b1bd bb8c 28be
00000170: d3a8 1bbe a956 c8bd a454 803c 9186 0a3d
00000180: 0b13 8b3c 4a75 83bd 591a 2e3e 88b5 12bd
00000190: 9c3a 903b e701 863d b4cf b8bb 253e 6dbd
000001a0: c7a8 b73d a16e 96bd 1aed c7bb 3df3 983c
000001b0: 52fc b53d 5ff1 b93d cfff 6fbd b269 aa3d
000001c0: 21fe 8dbd 4ee2 b3bd 0901 80bd a2cc ce3c
000001d0: 313c 9abd 5ae8 41bd 8e34 b13c befc 3b3c
000001e0: 30ee b63d 0e20 48bd 9a14 4b3c 06fd 323d
000001f0: ddef 06be 0f1c 22bd c48a 09be 9bbd babc
00000200: 7f0c b8bd e17b ffbd fab1 c53d 1e3f 58bd
00000210: a078 e03c cc71 9cbd a746 3f3d 1a2e 4abd
00000220: 179e 02be 804a ad3d ff03 cebc 1a92 03bc
00000230: 6454 a93d f1ea d33d 0fa1 e1bd ac53 7f3c
00000240: 8a10 7d3c ba52 01be 9e82 29bd da78 14be
00000250: bb79 abbd 5142 b6bd fb9c 9f3a 197a 9d3c
00000260: e121 493d 061b 8e3d 5734 be3d 853b f6bd
00000270: 3a6a 103d 6955 49bd d7cf e9bc 7609 31bd
00000280: 5c9a 42be 41f6 593b 7c02 6fbe c51b b9ba
00000290: be54 5f3d 0a1d d6bd 47d9 c23d 3c00 b1bc
000002a0: 5484 bdbc 0fcb 1cbe 44f1 4cbd 14fd 923b
000002b0: 99a2 8f3d e695 3fbe e94c 54be 54db 47be
000002c0: d24f fabd 7740 863d 316f 07be 9012 0c3d
000002d0: 0e4a 38bc 4072 153d 4167 8a3d e770 98bd
000002e0: 8120 763d b25a cdbd 3b08 dd3d 77f0 2dbc
000002f0: c032 f23d 9fee 6fbc cea4 08be bf4c 623c
00000300: b28d be3c eb2a b6bc 1777 1fbe 91a5 693d
00000310: 5970 953d 9c1a abbd 6996 653d b676 31bc
00000320: d901 9fbd 85e1 843d 41f3 673d d1ac 14be
00000330: 61f4 9ebd 6182 e63d 513b 633d baf1 ccbd
00000340: d248 bebd 4624 c53b 9069 f8bc 6501 13be
00000350: 3ed9 e93c ea68 493d 4417 acbc b1c3 e53c
00000360: 0e58 8a3c 1ef2 3bbe 2260 30be 8425 a33d
00000370: df5d 72bc 01e2 323d 451f e4bd 6007 6dbd
00000380: d104 32bd f7ff 2fbe d1a0 e1bb f17b 1c3d
00000390: d423 693d 522a 173e f50b 2bbd d0fa 4d3d
000003a0: 84d5 32be afd9 5f3d a25d 683d c553 b3bd
000003b0: 46ae 893d c00b 68bd 4981 a5bc 0c53 9abd
000003c0: 5a06 b7bd 756f f9bd c12d 793d 0c53 c2bd
000003d0: 01b9 c43d bf69 1c3d d6e6 0dbe 6c22 443d
000003e0: 065b b1bd 9590 a33d 4a43 30bc 7a6f 3a3d
000003f0: 1694 16be 5f50 8dbd 1ca5 253d 271f f2bd
-0.058026455 0.007757351 0.011625437 -0.1647838 0.05576042 0.08398411 0.0055086813 0.026630076
0.13141912 -0.08018427 -0.023914905 -0.1403649 -0.1347754 -0.061859306 -0.0016719948 -0.08324638
-0.08208322 0.09351568 0.0039258217 0.10228503 0.09454016 0.08239942 -0.16804689 0.05516363
0.12398766 -0.032949824 -0.21060045 0.10443432 -0.123989515 -0.009728261 0.08219545 0.012480838
0.12434631 0.006728365 -0.095724106 0.034097597 0.053026013 -0.06631381 0.065653615 0.08308048
-0.0643295 0.13682392 -0.15504561 -0.07077834 -0.05195635 0.111654036 0.101505086 0.13702865
-0.24516538 0.008671635 0.09995731 -0.07344896 -0.031352565 -0.054103848 -0.07517982 -0.045875374
-0.13665925 0.015986534 -0.07607655 -0.057765987 -0.18646836 -0.071044095 -0.025263216 0.045713563
0.005541313 -0.050149407 -0.0031896357 -0.106592305 -0.013793006 -0.08553363 -0.07619347 -0.10072368
0.07105725 -0.1378095 -0.067290254 -0.06604462 -0.18760282 -0.14938615 -0.050944336 -0.16327292
0.029880693 -0.08598136 0.076930046 0.1040531 0.033902623 0.05988818 -0.018577833 0.034303572
0.028365942 0.068245456 -0.08654663 -0.16459934 -0.1520112 -0.09782154 0.01566536 0.03381974
0.016976854 -0.064188555 0.17002238 -0.035817653 0.004401518 0.065433316 -0.0056399945 -0.057920594
0.089677386 -0.073453195 -0.0061012628 0.018670673 0.08886017 0.09079241 -0.058593567 0.08320941
-0.06933237 -0.087833986 -0.062501974 0.02524406 -0.07531012 -0.04734073 0.021631505 0.011473833
0.089321494 -0.048858695 0.0123950485 0.043698333 -0.13177438 -0.03957754 -0.13431841 -0.022795489
-0.089867584 -0.124748 0.09653087 -0.05279457 0.027401268 -0.076388925 0.04669824 -0.049360372
-0.12755619 0.08461475 -0.02514839 -0.008030439 0.08268049 0.10347546 -0.110170476 0.015583914
0.015445838 -0.12629214 -0.041384332 -0.14499226 -0.083728276 -0.088993676 0.0012177521 0.01922326
0.049104575 0.06938748 0.09287327 -0.12023071 0.035257556 -0.04915372 -0.028541489 -0.043221913
-0.19004196 0.003325835 -0.23340791 -0.0014122656 0.054524176 -0.104547575 0.095140986 -0.021606557
-0.023134388 -0.15311836 -0.050034776 0.0044857357 0.07013435 -0.18709525 -0.20732464 -0.19517261
-0.12222256 0.065552644 -0.1322601 0.03419739 -0.011248125 0.03648591 0.06757975 -0.074434094
0.060089592 -0.100270644 0.107925855 -0.010616413 0.11826086 -0.014644294 -0.13344118 0.013812243
0.023260925 -0.022237262 -0.15572773 0.057042662 0.07296819 -0.08354685 0.056051645 -0.010831526
-0.07764024 0.06488327 0.05662847 -0.14519049 -0.07761455 0.112553366 0.05547649 -0.10007043
-0.09291233 0.006016287 -0.030323774 -0.14356 0.028545972 0.04917232 -0.021007188 0.028047414
0.01688769 -0.18354079 -0.17224172 0.0796614 -0.014792888 0.043672565 -0.11138777 -0.05786836
-0.043461625 -0.17187487 -0.006885626 0.038204137 0.056918934 0.14762238 -0.04175945 0.05028802
-0.17464262 0.05465096 0.05672992 -0.08756212 0.06722693 -0.05665183 -0.02020325 -0.07535371
-0.08936758 -0.12179462 0.06083465 -0.09488496 0.09605599 0.038186785 -0.13857588 0.04788439
-0.086599395 0.07986561 -0.01075823 0.04551647 -0.14704928 -0.06900095 0.040440664 -0.11822348

fc2.bias f4 [10]
00000000: 70f1 863d 9492 b5bc 8785 903b d5e1 aa3d
00000010: 9462 70bd 0f33 063d 6a71 0cbd eaf4 7ebd
00000020: 52fd 733d a772 22bc
0.06589019 -0.02216462 0.004410449 0.08343855 -0.05868776 0.032763537 -0.034287848 -0.062245287
0.059567757 -0.009915031
