simulation/saved_models/global_model_delta_12-03_22-46.pth (torch, 409416 bytes, 4 tensors)

fc1.weight f4 [128, 784]
0.0050284825 0.0049905926 -0.014817781 0.023401137 0.0020883596 0.011372368 -0.004534228 0.04145623
0.016959915 0.0017281431 0.035164166 -0.020988889 0.00093347515 0.028081119 0.009844002 0.008654424
-0.012857251 -0.0064484277 0.016435787 0.038247168 0.039025024 0.018406998 -0.0002727477 0.03076042
0.017608965 0.013709653 0.034456477 -0.003827889 -0.02004971 -0.0031809234 -0.004912889 0.024140127
0.031173924 0.013795126 0.03235565 0.036160633 0.035435136 0.010739832 -0.02558354 -0.007060359
0.029962055 -0.00093936996 0.024700042 0.014714708 0.033672772 0.03541674 0.040479496 0.015446295
0.0005759632 0.0164833 -0.0055697593 -0.0055603157 0.009995706 0.012462527 0.02561776 0.0035259193
-0.026820723 -0.007245415 0.0030815927 0.0016538496 -0.011406576 0.0048891893 -0.027087618 -0.013873976
-0.02724525 0.040473573 0.039966844 -0.02151702 0.031067854 -0.013859617 -0.02933047 0.0048659956
0.019328997 -0.0061466927 -0.025300704 0.036820896 0.029491797 0.03925333 -0.025437795 0.038029358
0.00583703 -0.0035425562 -0.025961649 -0.009450203 0.03925611 -0.029262036 0.004085611 0.018630799
-0.0045571886 0.016920416 0.036683857 0.010927129 0.034975935 -0.0066277357 0.030725483 0.014301922
0.008108724 -0.028273154 0.011650344 0.015360209 0.023775376 0.009509921 0.020964209 0.0015829687
0.0047935923 0.0013554835 0.00014275697 0.0041023414 0.012065049 0.039413445 0.02238841 0.04129629
-0.02193917 -0.008862056 0.036655553 0.037989676 -0.005741322 -0.02278417 0.0048774546 -0.015628135
-0.01915348 0.009853946 -0.01827937 0.008916039 -0.014582863 0.016142104 -0.025535816 -0.01000454
0.014206329 0.029698702 0.019588843 -0.012782053 0.0021881543 -0.014373126 -0.025577024 -0.013551554
0.008500555 -0.02216309 0.015679423 -0.009590052 -0.009040531 -0.016264627 -0.019832034 -0.019262224
-0.00029775183 -0.008804527 -0.007644101 -0.010442547 0.026185324 0.0033803396 0.013379967 0.0051573133
-0.016366994 0.024588445 0.035372224 -0.012986371 0.013601665 0.018217754 -0.013710191 2.7789734e-05
0.03776165 -0.011853963 -0.017494049 0.03262879 -0.0022539075 0.02358443 -0.027404686 -0.008896219
0.0133031905 0.0028886828 -0.022426486 -0.014744629 -0.022631608 0.018375773 -0.015823405 0.0054242206
0.009884741 0.025997542 0.0025030705 0.031015355 0.0053694993 0.006197558 0.030099284 0.030256176
0.013464885 -0.0044493903 0.004042182 0.00021125004 -0.013637735 0.020536862 -0.024538685 0.03094412
0.02678734 -0.013190675 -0.006895337 -0.006598304 -0.022880968 -0.023238908 -0.02205788 0.0005714407
-0.01852552 0.014449775 0.0130263455 -0.024881205 0.027721496 0.022107568 0.03223151 0.026154678
-0.003609966 -0.02558123 0.024658825 0.02275386 0.027777467 -0.009183804 0.004105679 -0.0051439116
-0.029039208 0.0014213249 0.016604114 0.028960448 0.038400374 0.00201977 -0.0123839425 0.012137417
-0.010634525 0.03622818 -0.0040434357 -0.0039913785 -0.009459777 -0.005944924 -0.0008168904 -0.007599002
-0.018785156 0.0008677544 0.026269753 0.011955358 0.011417768 0.005683792 0.040491346 0.0376002
-0.011363694 0.0094638495 -0.0029783223 0.027049001 0.013120935 0.03264747 0.013613677 0.037227597
0.002098137 0.027401127 -0.028109686 0.013146814 0.03884372 -0.0074140998 0.013459086 0.028032683
00000000: f8c5 a43b 2088 a33b 47c6 72bc beb3 bf3c
00000010: dcdc 083b 2b53 3a3c dc93 94bb 02ce 293d
00000020: 85ef 8a3c dc82 e23a 4d08 103d e4f0 abbc
00000030: 75b4 743a 600a e63c bd48 213c 49cb 0d3c
00000040: 38a7 52bc 554d d3bb 58a4 863c 10a9 1c3d
00000050: b4d8 1f3d 46ca 963c 94ff 8eb9 47fd fb3c
00000060: ad40 903c 749e 603c 3c22 0d3d 52dd 7abb
00000070: 4a3f a4bc 0a77 50bb 4dfc a0bb 84c1 c53c
00000080: 7560 ff3c f404 623c 5c87 043d 2c1d 143d
00000090: 6f24 113d 1ff6 2f3c 9294 d1bc 965a e7bb
000000a0: fc72 f53c 0d40 76ba be57 ca3c f515 713c
000000b0: 76ec 093d 2511 113d d4cd 253d 7512 7d3c
000000c0: 3cfc 163a fc07 873c 8782 b6bb 4f33 b6bb
000000d0: 08c5 233c a02f 4c3c 56dc d13c 1c13 673b
000000e0: 22b7 dbbc f26a edbb 8cf4 493b fcc5 d83a
000000f0: a6e2 3abc 7e35 a03b dae6 ddbc ac4f 63bc
00000100: 6e31 dfbc 9ec7 253d 46b4 233d 7644 b0bc
00000110: 0382 fe3c 7213 63bc 7446 f0bc ee72 9f3b
00000120: d857 9e3c 326a c9bb 6c43 cfbc 82d1 163d
00000130: c898 f13c 1ac8 203d ec62 d0bc acc4 1b3d
00000140: 8e44 bf3b 3b2a 68bb 86ad d4bc 06d5 1abc
00000150: 04cb 203d f0b6 efbc 97e0 853b 9e9f 983c
00000160: 7854 95bb af9c 8a3c d041 163d b307 333c
00000170: ed42 0f3d 7a2d d9bb 02b4 fb3c 9c52 6a3c
00000180: 74da 043c 1a9d e7bc 16e1 3e3c 63a9 7b3c
00000190: 94c4 c23c 80cf 1b3c 22bd ab3c 9e7b cf3a
000001a0: 9113 9d3b 7baa b13a 08b1 1539 ef6c 863b
000001b0: 7cac 453c fe6f 213d e667 b73c 4c26 293d
000001c0: c6b9 b3bc 2832 11bc 2224 163d 109b 1b3d
000001d0: b321 bcbb dea5 babc 0ed3 9f3b 9306 80bc
000001e0: c2e7 9cbc 7272 213c 9ebe 95bc 9414 123c
000001f0: f6ec 6ebc 723c 843c 7d30 d1bc 15ea 23bc
00000200: aac1 683c b14a f33c c878 a03c d16b 51bc
00000210: 2367 0f3b 437d 6bbc e886 d1bc 5607 5ebc
00000220: e945 0b3c 5e8f b5bc 2272 803c 981f 1dbc
00000230: bc1e 14bc 653d 85bc ca76 a2bc d0cb 9dbc
00000240: 931b 9cb9 dd40 10bc 5e7b fabb 3717 2bbc
00000250: 9b82 d63c b088 5d3b a637 5b3c aefe a83b
00000260: 1314 86bc b56d c93c 77e2 103d cac4 54bc
00000270: 85d9 5e3c 663d 953c b5a0 60bc 001e e937
00000280: f6ab 1a3d 2037 42bc ae4f 8fbc c4a5 053d
00000290: 4bb6 13bb 2234 c13c cb7f e0bc 72c1 11bc
000002a0: a0f5 593c 0e50 3d3b c0b7 b7bc 7593 71bc
000002b0: ec65 b9bc ca88 963c 16a0 81bc a9bd b13b
000002c0: 9cf3 213c ccf8 d43c 8e0a 243b ea13 fe3c
000002d0: a0f2 af3b e214 cb3b c692 f63c cddb f73c
000002e0: d29b 5c3c 31cc 91bb 4874 843b 0083 5d39
000002f0: ce70 5fbc ec3c a83c 5a05 c9bc 867e fd3c
00000300: 2071 db3c b31d 58bc 47f2 e1bb 9636 d8bb
00000310: de70 bbbc 865f bebc bab2 b4bc bccc 153a
00000320: d5c2 97bc c0be 6c3c 746c 553c abd3 cbbc
00000330: 3118 e33c ee1a b53c 3005 043d 5642 d63c
00000340: 2e95 6cbb ba8f d1bc 4e01 ca3c 4e66 ba3c
00000350: 928d e33c aa77 16bc ef88 863b 428e a8bb
00000360: a2e3 edbc c04b ba3a 5a05 883c 763e ed3c
00000370: b649 1d3d 1e5e 043b 05e6 4abc 04dc 463c
00000380: 6e3c 2ebc 0064 143d cc7e 84bb 1cca 82bb
00000390: 2efd 1abc a3cd c2bb 9624 56ba 0d01 f9bb
000003a0: 54e3 99bc 037a 633a aa33 d73c 68e0 433c
000003b0: 9711 3b3c 1a3f ba3b 41da 253d ab02 1a3d
000003c0: ca2e 3abc 430e 1b3c f52f 43bb de95 dd3c
000003d0: 31f9 563c 5ab9 053d e60b 5f3c f77b 183d
000003e0: e680 093b 5478 e03c 4946 e6bc bc65 573c
000003f0: 981a 1f3d faf1 f2bb 8083 5c3c cca4 e53c

fc1.bias f4 [128]
-0.033303887 0.026409814 -0.023820054 0.014614843 -0.027688857 -0.014114121 0.022628061 -0.019776257
0.0026906263 0.028477889 -0.028532164 0.0054446342 -0.0043591093 -0.013336673 0.021863725 -0.019157842
-0.004026259 -0.03456554 -0.0092273345 0.027900666 -0.024022926 -0.017862298 0.034953333 0.016487304
-0.022695791 0.004839266 -0.02774335 -0.0053845523 0.010094283 -0.038244262 -0.02084216 0.0231996
-0.016646795 0.01044282 0.015239634 -0.0031253034 0.005215724 0.003079172 0.012385972 -0.0069673294
0.025776211 0.048153862 -0.00031999033 -0.020170437 0.021076635 0.003472121 -0.03792771 -0.020916402
0.025585216 -0.02939012 -0.027440496 -0.002466904 0.034731116 -0.01436351 -0.001089505 0.02257226
-0.039863735 0.005049204 0.039176475 -0.03656149 -0.030025713 0.017246574 -0.016758565 0.022673456
0.024261404 -0.0067626643 -0.011023333 0.0076201214 -0.003288885 0.029347258 0.0041919523 -0.033428818
-0.030469783 0.01519038 0.01878268 -0.017609358 0.0053984514 0.0041469955 -0.0026376145 -0.01830509
0.024873842 -0.010967711 -0.002594663 0.020807836 -0.0419702 -0.016936805 -0.010391041 -0.021015082
0.004362222 -0.0034392849 0.03746141 -0.015845332 -0.02189728 0.031833954 0.0063398518 -0.038100123
0.024162414 0.01221217 -0.026164826 0.046033695 0.00374484 0.023731448 0.0011194409 -0.011360144
0.019191913 0.018115079 -0.014210002 -0.0063360226 0.022988828 0.013490463 0.023635633 -0.022539984
-0.011682732 -0.027265588 0.025549993 0.022690708 -0.028027344 -0.020995667 0.02502429 -0.032814987
0.021012248 -0.0050199637 0.044360492 0.01521302 -0.02011741 -0.0021779877 0.0047031525 0.0072958833
00000000: a869 08bd 6559 d83c 4622 c3bc 1873 6f3c
00000010: bed3 e2bc ea3e 67bc 7c5e b93c d101 a2bc
00000020: 3855 303b 764a e93c 49bc e9bc e768 b23b
00000030: dcd6 8ebb 1082 5abc 8e1b b33c e8f0 9cbc
00000040: b5ee 83bb 9894 0dbd 3f2e 17bc f08f e43c
00000050: bacb c4bc f453 92bc 3a2b 0f3d 6210 873c
00000060: 86ec b9bc b592 9e3b 0646 e3bc e670 b0bb
00000070: 7e62 253c 04a6 1cbd 2dbd aabc 160d be3c
00000080: dc5e 88bc 5d18 2b3c a8af 793c e4d1 4cbb
00000090: aae8 aa3b efcb 493b 88ee 4a3c 324e e4bb
000000a0: a228 d33c fc3c 453d 60c4 a7b9 793c a5bc
000000b0: e8a8 ac3c 868c 633b 165a 1bbd e058 abbc
000000c0: 1698 d13c 8dc3 f0bc e4ca e0bc c8ab 21bb
000000d0: 3742 0e3d ed54 6bbc b9cd 8eba 76e9 b83c
000000e0: 2848 23bd cb73 a53b 8377 203d 80c1 15bd
000000f0: 7cf8 f5bc b048 8d3c 4249 89bc afbd b93c
00000100: dabf c63c 5799 ddbb 369b 34bc 36b2 f93b
00000110: 568a 57bb a969 f03c a55c 893b a8ec 08bd
00000120: c49b f9bc 12e1 783c 23de 993c 8041 90bc
00000130: 7ee5 b03b 85e3 873b d4db 2cbb 8ef4 95bc
00000140: 3ac4 cb3c eab1 33bc 390b 2abb 3275 aa3c
00000150: f2e8 2bbd 0ebf 8abc 2f3f 2abc d227 acbc
00000160: f8f0 8e3b a065 61bb 2371 193d 12ce 81bc
00000170: ed61 b3bc 5264 023d 88be cf3b e00e 1cbd
00000180: 41f0 c53c 8e15 483c 9e57 d6bc d48d 3c3d
00000190: fd6b 753b 7468 c23c 34ba 923a e61f 3abc
000001a0: 5c38 9d3c 1366 943c 11d1 68bc 699e cfbb
000001b0: 1153 bc3c 1a07 5d3c 849f c13c c6a5 b8bc
000001c0: ee68 3fbc 155c dfbc 384e d13c dde1 b93c
000001d0: 9a99 e5bc 1bff abbc bdff cc3c 0269 06bd
000001e0: e121 ac3c 827e a4bb 59b3 353d 0840 793c
000001f0: 44cd a4bc 92bc 0ebb e71c 9a3b 4e12 ef3b

fc2.weight f4 [10, 128]
-0.030894086 0.032942545 -0.027931388 -0.039710462 0.08797173 -0.028712774 -0.05137998 -0.05969017
-0.022143394 -0.039793335 -0.109790005 -0.14682907 0.00773098 0.07322673 -0.03041789 -0.029779386
-0.07564008 0.01812565 -0.11574288 -0.0057895933 -0.07970317 -0.059496723 0.09485181 0.034287266
0.0688684 0.00279591 0.01934094 0.09044935 0.051612943 -0.12928541 0.07067091 -0.11219305
-0.049406856 -0.012419364 -0.054674637 -0.11820112 0.07035566 0.026458884 -0.052172422 -0.13592093
-0.024780897 0.08937296 0.02921151 0.041218564 0.023222424 0.009511747 -0.11797266 -0.047003992
0.110184595 -0.06966287 -0.039197862 -0.12087512 0.050603643 0.016751572 0.07484031 -0.08085717
-0.1804645 -0.05047122 0.09775059 0.046865948 0.026650837 -0.01849879 0.10623946 0.04822565
0.017536048 0.03261164 -0.010889469 0.10635242 -0.08545689 0.08034075 -0.085051015 0.08028244
0.07238503 0.06461065 -0.13500902 0.047478072 0.11895027 0.15068127 -0.029244505 0.058397047
0.033089027 0.058529653 -0.065046385 -0.11597625 0.03746374 0.009955406 -0.0007581464 -0.13265423
-0.07699354 -0.10445978 0.10891275 -0.1547102 -0.15944865 -0.11499763 -0.028265815 0.012337768
-0.05429279 -0.0024938798 0.057403248 0.048756316 0.1112294 -0.13010114 -0.11155663 -0.065745555
-0.045177877 -0.14693974 -0.07351033 0.08760175 0.065765485 -0.0013058928 -0.09071709 -0.023291647
0.09093302 0.033383302 0.041639097 0.046260484 -0.10374496 -0.054076977 0.14652112 -0.07564899
-0.08859704 -0.072288156 0.10433903 0.0071357805 -0.12504765 -0.011038096 -0.09118548 0.054302596
0.05632909 -0.12239417 -0.09450387 -0.11205465 0.008279467 -0.06915212 -0.071155906 0.024297902
0.14429708 0.07564332 -0.10359219 0.10591419 0.07843368 -0.13070717 -0.073929116 0.0030556668
-0.10920944 -0.027774453 0.014031112 0.035022248 -0.060687628 0.046217643 0.01812822 -0.055405222
-0.097924344 -0.0067395414 0.011082437 0.041477606 0.03243936 0.091081515 0.013701484 0.10059095
0.06589076 0.12517951 0.028638473 0.11688548 -0.06637138 0.067777395 0.09965387 -0.045708213
0.030214598 0.015734248 -0.037935056 -0.11813398 -0.112102516 0.06392699 -0.06482209 -0.08210789
-0.09994338 0.068283424 -0.016232178 -0.049014404 -0.12591785 -0.116828784 0.006619045 -0.011247374
0.10728193 -0.13321811 -0.034667894 0.014218008 -0.06453583 0.048116483 0.031004172 -0.11811784
0.042531792 -0.1310531 0.0044838795 -0.07489656 0.04654109 0.08010579 -0.124294 -0.17014521
-0.06805042 0.0033579846 0.044843387 -0.092375964 -0.09892894 -0.09325321 0.10334053 -0.07540833
-0.14143017 0.0012893575 -0.08390205 0.008273488 -0.033316046 0.055943657 0.0011615509 -0.10450256
-0.041301582 -0.04605958 -0.0859523 0.056959707 0.0007162382 -0.089055866 -0.08575159 0.023967817
-0.060334742 -0.0840583 -0.121363394 -0.11328104 -0.11270756 0.0899182 -0.05907931 0.061967835
0.01990078 -0.060356475 0.103958465 -0.2139201 -0.1022278 0.0781939 -0.12919526 -0.070445016
-0.01963629 0.07686244 -0.11892208 -0.0072328667 -0.030698251 0.045966424 0.09701651 -0.054523133
0.05550992 -0.07450281 -0.14598513 0.030389152 0.05421679 0.007246172 -0.084686205 -0.014046118
00000000: 9815 fdbc c3ee 063d 5ed0 e4bc 70a7 22bd
00000010: 862a b43d 0d37 ebbc d073 52bd ae7d 74bd
00000020: 1066 b5bc 56fe 22bd 95d9 e0bd 5c5a 16be
00000030: 2954 fd3b e5f7 953d f02e f9bc e6f3 f3bc
00000040: 30e9 9abd 3e7c 943c 9a0a edbd a1b6 bdbb
00000050: 6a3b a3bd d6b2 73bd aa41 c23d ce70 0c3d
00000060: e00a 8d3d 963b 373b e470 9e3c 823d b93d
00000070: 1868 533d 6563 04be e9bb 903d 78c5 e5bd
00000080: d85e 4abd 977a 4bbc 83f2 5fbd 6e13 f2bd
00000090: a116 903d 4dc0 d83c c0b2 55bd db2e 0bbe
000000a0: 4f01 cbbc 2c09 b73d fa4c ef3c ccd4 283d
000000b0: f43c be3c 29d7 1b3c a69b f1bd 4287 40bd
000000c0: 76a8 e13d 68ab 8ebd f08d 20bd 608d f7bd
000000d0: c445 4f3d 983a 893c e045 993d 7298 a5bd
000000e0: b0cb 38be e9ba 4ebd 7631 c83d 82f6 3f3d
000000f0: db52 da3c c68a 97bc 1394 d93d 4288 453d
00000100: c2a7 8f3c c893 053d be69 32bc 4ccf d93d
00000110: 0604 afbd b189 a43d 3a2f aebd 1f6b a43d
00000120: 9a3e 943d 9752 843d ce3f 0abe 5e78 423d
00000130: 339c f33d 314c 1a3e 2c92 efbc be31 6f3d
00000140: 5c88 073d cabc 6f3d 0a37 85bd f584 edbd
00000150: 9473 193d 001c 233c 58be 46ba 83d6 07be
00000160: caae 9dbd 02ef d5bd a60d df3d 5a6c 1ebe
00000170: 8246 23be e183 ebbd b68d e7bc 5a24 4a3c
00000180: 1e62 5ebd 5c70 23bb ab1f 6b3d b4b4 473d
00000190: 3dcc e33d 3c39 05be cd77 e4bd 9ba5 86bd
000001a0: 700c 39bd 5f77 16be 958c 96bd 8c68 b33d
000001b0: 0eb0 863d 7e2a abba e2c9 b9bd 20ce bebc
000001c0: 173b ba3d eebc 083d c28d 2a3d a27b 3d3d
000001d0: 3d78 d4bd d27f 5dbd a209 163e dced 9abd
000001e0: 5d72 b5bd d00b 94bd b4af d53d 44d3 e93b
000001f0: 7e0c 00be 21d9 34bc 74bf babd 666c 5e3d
00000200: 55b9 663d cba9 fabd 3f8b c1bd e97c e5bd
00000210: 9aa6 073c a09f 8dbd 30ba 91bd 650c c73c
00000220: 9dc2 133e e3ea 9a3d 2428 d4bd 8ae9 d83d
00000230: d6a1 a03d 1ad8 05be 2668 97bd 9541 483b
00000240: 33a9 dfbd 4087 e3bc c0e2 653c 7d73 0f3d
00000250: 9793 78bd b64e 3d3d a281 943c 96f0 62bd
00000260: 8f8c c8bd 5fd7 dcbb 1c93 353c 6ce4 293d
00000270: 22df 043d f288 ba3d 307c 603c a102 ce3d
00000280: bcf1 863d 0f2f 003e 3b9b ea3c a861 ef3d
00000290: b8ed 87bd e0ce 8a3d 5417 cc3d 8938 3bbd
000002a0: 9b84 f73c 1ce5 803c ca61 1bbd 3af0 f1bd
000002b0: 0196 e5bd 27ec 823d 72c1 84bd 2e28 a8bd
000002c0: 1daf ccbd 2ed8 8b3d 58f9 84bc 54c3 48bd
000002d0: 9cf0 00be ee43 efbd 93e4 d83b e846 38bc
000002e0: a1b6 db3d 546a 08be ecff 0dbd a6f2 683c
000002f0: 5c2b 84bd ca15 453d 76fc fd3c c4e7 f1bd
00000300: d135 2e3d c932 06be 82ed 923b 5e63 99bd
00000310: dfa1 3e3d 810e a43d da8d febd 8c3a 2ebe
00000320: 055e 8bbd a211 5c3b b3ad 373d 9c2f bdbd
00000330: 429b cabd 8afb bebd 33a4 d33d af6f 9abd
00000340: 12d3 10be a9ff a83a d7d4 abbd 868d 073c
00000350: 6876 08bd 2d25 653d 2e3f 983a 7005 d6bd
00000360: d92b 29bd f8a8 3cbd c207 b0bd 954e 693d
00000370: efc1 3b3a ec62 b6bd 889e afbd 2858 c43c
00000380: 9021 77bd c226 acbd 5f8d f8bd e4ff e7bd
00000390: 39d3 e6bd 0927 b83d 26fd 71bd fcd1 7d3d
000003a0: f606 a33c 5a38 77bd 2de8 d43d df0d 5bbe
000003b0: cf5c d1bd 2024 a03d c34b 04be 7a45 90bd
000003c0: 49dc a0bc 0e6a 9d3d 6b8d f3bd af01 edbb
000003d0: e67a fbbc 4a47 3c3d 98b0 c63d a653 5fbd
000003e0: 5f5e 633d ee94 98bd 207d 15be acf2 f83c
000003f0: 6d12 5e3d 4c71 ed3b f66f adbd b021 66bc

fc2.bias f4 [10]
0.05956866 0.0159141 -0.025869044 0.018737562 0.028933428 -0.007910663 0.0345871 -0.036361042
-0.028233908 -0.03219311
00000000: 44fe 733d 495e 823c 51eb d3bc 847f 993c
00000010: cc05 ed3c ba9b 01bc 34ab 0d3d 51ef 14bd
00000020: cc4a e7bc ecdc 03bd
