simulation/saved_models/global_model_test_12-04_00-13.pth (torch, 409408 bytes, 4 tensors)

fc1.weight f4 [128, 784]
0	0xbd07d8eb	-0.033165853
1	0x3b6ffdcc	0.003661978
2	0xba7bd3f2	-0.00096064724
3	0xbcfbb592	-0.030726228
4	0xbbf80865	-0.00756936
5	0xbc268e51	-0.010165767
6	0xbd0dcd72	-0.034619756
7	0x3c8d5f9e	0.017257508
8	0x3bf7a022	0.007556931
9	0xbcc4480a	-0.023960132
10	0xbca5cbaf	-0.020238725
11	0xbca0b6f6	-0.019618493
12	0xbc5ebdb7	-0.013595036
13	0xbd1d84c7	-0.038456704
14	0xbd417e3c	-0.047239527
15	0xbccb83fa	-0.024843205
16	0x3c7ffc8b	0.015624176
17	0xbce01d70	-0.027357787
18	0xbca52f2c	-0.020164095
19	0xbd3d8df0	-0.04627794
20	0x3c4a90c5	0.012363617
21	0x3b986887	0.0046511325
22	0xbd401330	-0.0468933
23	0xbce20c30	-0.027593702
24	0x3c8afe44	0.016966946
25	0xbbb5407c	-0.005531369
26	0x3c33c53d	0.010972318
27	0xbcf61ac9	-0.030042069
28	0x3bff7e4e	0.007797039
29	0x3b791699	0.0038007854
30	0xbd1fae96	-0.038984857
31	0x3c0f94f4	0.008763541
32	0xbd2a539d	-0.041583646
33	0xbd0ebfbf	-0.034850832
34	0xbb87b8ca	-0.0041419016
35	0xbd0c36fb	-0.03423212
36	0xbc13b223	-0.009014639
37	0xbd4a8d96	-0.049451433
38	0xbccbe458	-0.024889156
39	0x3c987007	0.018608106
40	0x3b7251e4	0.003697508
41	0x3c317a15	0.010832329
42	0xbd385367	-0.045001414
43	0x3a86dbc7	0.0010288887
44	0xbd008c08	-0.031383544
45	0x3be4e814	0.0069856737
46	0xbbaaab94	-0.005208442
47	0x3c59bcda	0.013289655
48	0xbd2c6433	-0.042087745
49	0x3b982184	0.0046426672
50	0xbd2a23bc	-0.041537985
51	0xbd467000	-0.048446655
52	0xbd36f134	-0.044663623
53	0x3bf1011e	0.0073548695
54	0xbce2ae52	-0.027671013
55	0x3ca17e69	0.019713597
56	0xbc35c357	-0.011093936
57	0xbce1091a	-0.02747016
58	0xbc86d21a	-0.016457606
59	0xbd34df87	-0.044158485
60	0xbc348f3c	-0.011020478
61	0xbcc82d34	-0.024435617
62	0xbcef6f62	-0.029227916
63	0xbd0442dc	-0.032290325
64	0xbbf46fa5	-0.007459598
65	0xbd299dbc	-0.041410193
66	0xbc5987b4	-0.013276983
67	0x3ac2da70	0.0014866125
68	0xbd2863b5	-0.041110713
69	0xbc78a044	-0.015174929
70	0xbd045648	-0.032308847
71	0x3bdc5125	0.0067235404
72	0x3b3994a3	0.0028317354
73	0xbc5b0e19	-0.01337006
74	0xbcc3c84b	-0.023899218
75	0xbc8ee8f9	-0.017445074
76	0x3c50f0b2	0.012752699
77	0xbca34c38	-0.019933805
78	0xbc727874	-0.014799226
79	0xbb81a163	-0.0039560064
80	0xbcdd9e2b	-0.02705296
81	0xbca83098	-0.020530984
82	0xbc04a964	-0.0080970265
83	0x3c0f820a	0.008759031
84	0xbcfefe92	-0.031127248
85	0xbc5241e6	-0.012833094
86	0x3c71fa3e	0.014769135
87	0xbd22bda7	-0.039731648
88	0xbd30bd2a	-0.04314915
89	0xbcf1a00e	-0.029495265
90	0xbcac11e9	-0.021004634
91	0x3b2ee2a1	0.0026685374
92	0x3c897aa3	0.01678211
93	0xbbd304fb	-0.0064398027
94	0x3cfb53ce	0.03067961
95	0xbcdc3e95	-0.02688531
96	0x3ccdd8a6	0.02512772
97	0x3c70d2a4	0.014698658
98	0xbcc7d1b4	-0.024391986
99	0x3bd67fe4	0.0065460075
100	0xbca7b82f	-0.020473568
101	0xbd35a7be	-0.044349425
102	0xbcc96334	-0.024583437
103	0xbd87214f	-0.0659815
104	0xbd0dca59	-0.034616802
105	0xbc5d81b4	-0.013519693
106	0x3bac7ea5	0.0052641206
107	0xbc651deb	-0.013984184
108	0x3c2e339a	0.01063242
109	0x3c296f51	0.010341481
110	0xbd014011	-0.03155524
111	0xbb743624	-0.0037263716
112	0xbcb95b2a	-0.022626478
113	0xbc8649f7	-0.016392691
114	0xbc894ade	-0.016759332
115	0xbcf63f5c	-0.030059509
116	0xbd02042f	-0.03174227
117	0xbd0423be	-0.03226065
118	0x3c7cbe70	0.015426263
119	0xbc88c90c	-0.01669743
120	0xb9fcd792	-0.00048225798
121	0x3d4aa93c	0.0494778
122	0xbbbeb926	-0.0058204113
123	0x3d86d0e4	0.065828115
124	0x3da7050a	0.08155258
125	0x3da321a5	0.079654016
126	0x3cc4bf07	0.02401687
127	0x3db202a0	0.08691907
128	0x3d5e19f4	0.05422397
129	0x3c071d41	0.008246721
130	0x3c6d78fe	0.014494179
131	0xbc727b35	-0.014799883
132	0xbcdbfaef	-0.026853053
133	0xbd68f06c	-0.05686991
134	0xbb1bc924	-0.0023771012
135	0xbd4a69c1	-0.04941726
136	0xbc9ade04	-0.018904693
137	0xbd198137	-0.037476745
138	0x3c62f30c	0.013851892
139	0xbca32dd7	-0.01991932
140	0xbcdbfb1a	-0.026853133
141	0x3c74d842	0.014944138
142	0xbb0a3734	-0.0021090033
143	0xbd2dedd0	-0.042463124
144	0x3bb08042	0.0053863833
145	0xbc2ac4ba	-0.01042288
146	0x3cfcb384	0.030847318
147	0x3d493d87	0.049130943
148	0x3d33acc2	0.043865927
149	0x3d8d083c	0.06886336
150	0x3d1052d4	0.03523524
151	0x3d5d836d	0.054080416
152	0x3dabb001	0.083831795
153	0x3da753dd	0.081702925
154	0x3db47f44	0.088133365
155	0x3d5b0b3b	0.053477507
156	0x3db621bf	0.08893155
157	0x3d9c6533	0.0763649
158	0x3ce1d867	0.027569009
159	0x3d24eac8	0.040262967
160	0x3d10fed0	0.035399258
161	0x3d0a0f5e	0.03370606
162	0x3d00c681	0.031439308
163	0x3c897376	0.016778689
164	0xbd22a378	-0.039706677
165	0x3ca4a3d4	0.02009765
166	0x3be600db	0.007019145
167	0xbd20f166	-0.039292715
168	0xbca79603	-0.020457273
169	0x3c6c48f2	0.014421688
170	0xbcacb110	-0.021080524
171	0x3cbebd49	0.023283618
172	0xbc8434c9	-0.016138451
173	0x3d0124c5	0.031529207
174	0x3b41e1d1	0.002958406
175	0x3ccc5d7d	0.024946922
176	0x3b9357bd	0.004496543
177	0x3d3522d5	0.04422267
178	0x3d8ff8a8	0.07029849
179	0x3d8a0d72	0.06740846
180	0x3cd617a7	0.026134325
181	0x3d01c90c	0.031685874
182	0x3d36820a	0.04455761
183	0x3d51cbbc	0.051219687
184	0x3d53957f	0.051656242
185	0x3d5a5d6d	0.053311754
186	0x3cb1789d	0.021663958
187	0x3c68b68b	0.014203678
188	0x3c1fc6fe	0.009752033
189	0x3d1490c8	0.036270887
190	0x3cb4c01f	0.022064267
191	0x3d186188	0.037202388
192	0xbcbd0582	-0.023073915
193	0xbce0db08	-0.027448192
194	0xbcbb1fce	-0.022842314
195	0xbb9d32a1	-0.004797295
196	0xbcccd10a	-0.025002021
197	0xbcd848be	-0.026401874
198	0x3bbbe25c	0.0057337712
199	0xbcf788d5	-0.030216614
200	0xbb5f3daa	-0.0034063854
201	0x3cae44bb	0.021273008
202	0xbc917e8a	-0.017760534
203	0x3ae3b6a4	0.0017373157
204	0x3cc8d1e2	0.024514142
205	0x3cbef669	0.023310857
206	0x3cd55d25	0.026045391
207	0x3cb11c24	0.021619864
208	0x3b3e1eb9	0.0029010011
209	0x3c0a6c73	0.008448708
210	0x3b68f33c	0.003554537
211	0x3bc0a8e1	0.005879507
212	0xbd7be472	-0.06149716
213	0xbc82dc40	-0.015974164
214	0xbbfabc20	-0.007651821
215	0x3d61cc2c	0.055126354
216	0x3d500980	0.05079031
217	0x3d6c857b	0.057744484
218	0x3d0fa35c	0.0350679
219	0x3d85f9bc	0.06541774
220	0x3d257934	0.04039879
221	0x3c814813	0.015781438
222	0x3bd3b775	0.0064610788
223	0xbc9aa29c	-0.018876366
224	0x3a71b6b5	0.0009220646
225	0xbd1ddaa2	-0.038538583
226	0xbd214f4a	-0.039382257
227	0xbd3cc865	-0.04608955
228	0xbc382fa3	-0.011241826
229	0xbc0819d0	-0.008306935
230	0xbc4f14b4	-0.012639213
231	0x3d21d4d4	0.03950961
232	0x3c704a5c	0.014666166
233	0xbcd1ea24	-0.025624342
234	0x3c82f7af	0.015987245
235	0x3c7ca1ce	0.015419437
236	0xbc32ee84	-0.010921124
237	0xbd201b0c	-0.039088294
238	0x3c2b3c65	0.010451411
239	0x3c71c8b0	0.01475732
240	0xbd56f380	-0.052478313
241	0xbc733b90	-0.014845744
242	0x3d16ec91	0.0368467
243	0x3d79bc1b	0.060970407
244	0x3d8ab154	0.06772104
245	0x3d3ed0fe	0.04658603
246	0x3da490a4	0.080354005
247	0x3d09d771	0.033652727
248	0x3d95ee98	0.07320899
249	0x3d1ee22d	0.038789917
250	0xbc9b261c	-0.01893907
251	0x3b802b4b	0.003911411
252	0xbc292ddb	-0.010325874
253	0x3aff567b	0.0019480729
254	0xbcd1b19c	-0.025597386
255	0xbb365db9	-0.002782686

fc1.bias f4 [128]
0	0x3cf48839	0.029850112
1	0x3ba377dd	0.004988654
2	0x3d214548	0.039372712
3	0x3acdff2f	0.001571631
4	0xbccbc660	-0.024874866
5	0x3c1e2f44	0.009654824
6	0x3ce15a09	0.027508752
7	0x3d0a0a99	0.033701513
8	0xbc09b2f7	-0.008404485
9	0xbcd27133	-0.025688743
10	0xbbf2bb44	-0.0074075777
11	0xbd1ac425	-0.037784714
12	0x3c0135d1	0.007886366
13	0x3b148fc6	0.0022668703
14	0xbca96ec6	-0.020682704
15	0xbd0b2cff	-0.03397846
16	0x3ba17714	0.0049275253
17	0x3d083013	0.033248972
18	0x3cc8c842	0.024509553
19	0xbcb00d4e	-0.02149072
20	0x3b6bb44b	0.0035965617
21	0xbd0a3f82	-0.033751972
22	0x3ba9938f	0.005175061
23	0x3c493020	0.01227954
24	0x3c68f6fe	0.014219044
25	0x3c6c03b5	0.014405181
26	0xbcf56282	-0.029954199
27	0x3baaa8e4	0.0052081216
28	0x3cdfc592	0.027315889
29	0x3bc76091	0.0060845097
30	0x3d25b161	0.040452365
31	0x3c539495	0.012913843
32	0x3c065aef	0.008200391
33	0xbc8a1ad9	-0.016858505
34	0xbcbd5484	-0.02311159
35	0x3bf8ab37	0.00758877
36	0xbce05515	-0.02738432
37	0xbc3a7fb1	-0.011382983
38	0xbb7d2412	-0.0038626236
39	0x3c8b3549	0.016993182
40	0x3d29b72d	0.041434456
41	0xbd062764	-0.03275241
42	0x3bb88ae4	0.0056317914
43	0xbaecfa6e	-0.0018080005
44	0xbcfbcbc2	-0.030736808
45	0xbccffbce	-0.025388625
46	0x3c02f02c	0.007991832
47	0x3ce10091	0.02746609
48	0x3c703625	0.014661347
49	0x3c0bceca	0.008533189
50	0x3b39aa99	0.0028330444
51	0xbcdea3f4	-0.027177788
52	0x3cd60adf	0.02612823
53	0xbb23ef70	-0.0025014542
54	0x3bb24e64	0.005441474
55	0xbcd529ca	-0.026020903
56	0x3c840a2d	0.016118133
57	0x3d01b7cc	0.031669423
58	0xbd1fa73f	-0.038977858
59	0xbc29dc64	-0.010367487
60	0xbc8fc2bf	-0.017548917
61	0x3ccc3a47	0.024930133
62	0xbc6b5a55	-0.014364799
63	0xbc523aa7	-0.012831367
64	0x3cc1cafc	0.02365636
65	0x3c53d511	0.012929217
66	0x3c432569	0.011910775
67	0xbc6af7d4	-0.014341313
68	0xbc9a0e7e	-0.018805739
69	0x3cd4d9e0	0.025982797
70	0xbc48dd5b	-0.0122598065
71	0xbb7c290b	-0.0038476612
72	0xbc687a3c	-0.014189299
73	0x3cbd5524	0.023111887
74	0xbb140eb4	-0.0022591772
75	0x3bb53f44	0.0055312235
76	0xbc390822	-0.011293443
77	0x3bf26765	0.0073975795
78	0x3bd58dc4	0.006517144
79	0x3cbb3381	0.022851707
80	0xbc89a159	-0.01680057
81	0x3c3a5501	0.011372806
82	0xbbc25b04	-0.00593126
83	0x3c26c611	0.010179059
84	0x3cde1e4b	0.027114054
85	0xbd1918f0	-0.037377298
86	0xbc18c0de	-0.009323327
87	0x3cf3fede	0.029784616
88	0x3c0121e7	0.007881618
89	0xbc65f492	-0.014035361
90	0x3c5c3fbb	0.013442929
91	0xbca44acc	-0.020055197
92	0x3d1aebf0	0.037822664
93	0xbc29565b	-0.01033553
94	0x3b436947	0.002981739
95	0xbc4fe8f4	-0.012689818
96	0xbc50f52a	-0.012753764
97	0x3c2b5aa0	0.010458618
98	0xbcd5884e	-0.026065972
99	0xbca2b438	-0.019861326
100	0x3cfe757b	0.031061878
101	0xbcc9c834	-0.024631597
102	0x3b5b4bff	0.0033462045
103	0x3d28c095	0.041199286
104	0x3c0ea2e0	0.008705825
105	0x3a033f77	0.00050067104
106	0x3d1133ef	0.03544992
107	0x3c517781	0.01278484
108	0x3bbe427c	0.0058062654
109	0x3d13c597	0.03607711
110	0x3d07f2d4	0.033190563
111	0x3cbb2601	0.02284527
112	0xbbdcb401	-0.0067353253
113	0xbbbfaa04	-0.005849125
114	0xbcf70922	-0.030155722
115	0x3d09814c	0.033570573
116	0x3c8b653b	0.017016044
117	0xbc2a273f	-0.010385334
118	0xbbb9e867	-0.0056734565
119	0x3cb115a1	0.021616759
120	0xbcbb5b94	-0.022870816
121	0xbcdd614b	-0.027023932
122	0xbd031dbf	-0.03201079
123	0xbce52f4e	-0.027976658
124	0x3c1446c2	0.009050073
125	0x3c086da1	0.008326919
126	0xbca518f3	-0.020153498
127	0xbbd565fe	-0.0065124026

fc2.weight f4 [10, 128]
0	0xbdba9ca9	-0.09111912
1	0xbe3491b4	-0.17633706
2	0x3c109c73	0.008826363
3	0xbd559140	-0.052140474
4	0xbd12f291	-0.03587586
5	0xbd34bab2	-0.04412336
6	0x3d93d53c	0.072184056
7	0x3dc1e52c	0.09467539
8	0xbd70c30b	-0.058779757
9	0xbc394cad	-0.011309785
10	0xbe254cd2	-0.16142586
11	0x3d3293c4	0.04359795
12	0x3c7ff9fe	0.015623568
13	0xbe7db10b	-0.24774568
14	0xbddf6674	-0.10908213
15	0xbd6b38e0	-0.057427287
16	0xbe1b7624	-0.15181786
17	0xbdc8e97b	-0.09810158
18	0x3dc25d58	0.0949046
19	0xbdafe3cf	-0.08588373
20	0xbdcd91f1	-0.10037602
21	0xbe414ccb	-0.1887695
22	0xbd2c7849	-0.0421069
23	0x3df8c6c0	0.121472836
24	0xbd1d19b9	-0.03835461
25	0x3dab32bc	0.08359286
26	0xbe3f43a9	-0.18678154
27	0x3d88ce38	0.06679958
28	0xbd5dfb82	-0.054194935
29	0xbd0579cf	-0.03258687
30	0xbca3a162	-0.019974414
31	0xbc8a66ec	-0.01689478
32	0xbd1ee7b1	-0.038795177
33	0xbc3272f1	-0.010891662
34	0x3c3feb04	0.011713747
35	0x3ddeb1c3	0.10873749
36	0x3d01aa23	0.031656396
37	0x3cd8c580	0.026461363
38	0x3c108eb5	0.0088230865
39	0x3ca8a619	0.020587014
40	0x3c8c081e	0.017093714
41	0x3ac2496b	0.0014822906
42	0x3cde205d	0.027115041
43	0x3d4e1e28	0.050321728
44	0xbd10b559	-0.035329197
45	0x3df77899	0.12083549
46	0xbc4331f0	-0.0119137615
47	0xbd326e0f	-0.04356199
48	0x3dea8a5b	0.114521705
49	0xbe11193d	-0.14169784
50	0xbd6400d2	-0.055664845
51	0xbdfaa9e2	-0.12239434
52	0x3d91d3f1	0.07120503
53	0xbd815e9f	-0.06316876
54	0x3d91dddb	0.07122394
55	0xbd0a3a9a	-0.033747293
56	0xbcddc633	-0.027072048
57	0x3cc20da4	0.023688145
58	0xbd3e6b64	-0.046489134
59	0x3dc3273d	0.095289685
60	0xbd516481	-0.05112124
61	0xbddd293e	-0.10798882
62	0xbdc956fa	-0.098310426
63	0xbe1589f2	-0.14603403
64	0x3da9fb30	0.08299863
65	0xbb4ce4f1	-0.003126439
66	0xbda112ac	-0.078648895
67	0xbe2b133c	-0.16706556
68	0x3dafca3b	0.08583494
69	0xbd246885	-0.04013874
70	0xbe191f4a	-0.14953342
71	0xbd0c4bef	-0.034252103
72	0xbdb20bae	-0.08693634
73	0xbd13fd5f	-0.036130305
74	0x3ddc0dfc	0.10744855
75	0x3d5f7209	0.05455211
76	0xbe627f17	-0.22118793
77	0xbde4221b	-0.111393176
78	0x3dbaf045	0.09127859
79	0xbda59e55	-0.0808684
80	0xbd2a11d0	-0.041520894
81	0x3bd1757f	0.0063921805
82	0xbc7c81ae	-0.015411777
83	0xbd5006d1	-0.05078775
84	0xbd9749fb	-0.073871575
85	0x3d375a87	0.044764068
86	0x3d5607e9	0.052253637
87	0x3d113cd9	0.03545842
88	0x3d160cf2	0.03663344
89	0xbd2a9c39	-0.04165289
90	0xbde5381e	-0.11192344
91	0x3e20608b	0.15661828
92	0x3de43a65	0.111439504
93	0xbcf6be84	-0.030120142
94	0x3d103a77	0.035212006
95	0x3c8d0116	0.017212432
96	0x3d34d05f	0.04414403
97	0x3da80d27	0.082056336
98	0xbcf07dc4	-0.029356845
99	0x3a4f167c	0.0007899774
100	0x3da4d231	0.08047903
101	0xbe11910a	-0.14215484
102	0x3d935305	0.07193569
103	0xbe0a1d35	-0.13487704
104	0x3dbee2d9	0.093206115
105	0x3d1b93c7	0.03798273
106	0xbddcd512	-0.107828274
107	0x3d34380f	0.043998774
108	0x3c5080c1	0.01272601
109	0xbe23e40b	-0.1600496
110	0xbd8f543d	-0.06998489
111	0xbd9739eb	-0.07384094
112	0xbd81fb7c	-0.06346795
113	0x3df74154	0.12073007
114	0x3d842344	0.06452039
115	0xbda0a587	-0.07844072
116	0xbe2cc08c	-0.16870326
117	0xbd06e51f	-0.03293335
118	0xbd9d9bb6	-0.07695715
119	0xbe1cf047	-0.15326034
120	0x3c31aca7	0.010844386
121	0x3cf22f64	0.029563613
122	0xbb6a8a4b	-0.0035787995
123	0xbe029d73	-0.12755375
124	0x3dccd450	0.10001433
125	0x3d874399	0.0660469
126	0xbe4e52cf	-0.20148776
127	0x3df7370c	0.12071046
128	0x3d5fbb47	0.05462196
129	0x3c4bbb12	0.012434738
130	0x3d4772cc	0.048693463
131	0x3d1d3c85	0.038387794
132	0x3d8721ed	0.06598268
133	0xbe0c3560	-0.13692236
134	0xbe4e6665	-0.20156248
135	0xbd370282	-0.044680126
136	0xbda37a88	-0.07982355
137	0x3d8e87c4	0.06959489
138	0x3e01cbcc	0.12675399
139	0xbe3c4555	-0.18385823
140	0xbc4835b4	-0.012219835
141	0x3d929bb6	0.07158606
142	0x3db7db5f	0.089773886
143	0x3d50ab01	0.050944332
144	0xbe28bc4c	-0.1647808
145	0xb99868fe	-0.00029069924
146	0xbd1e65b0	-0.038671196
147	0x3db9ec9c	0.09078333
148	0xbd1f7ae1	-0.038935546
149	0x3dda2553	0.1065165
150	0x3dc71eeb	0.09722694
151	0xbe2a4ba2	-0.16630414
152	0xbda7b2a7	-0.08188372
153	0x3d931a99	0.071828075
154	0xbceb45f5	-0.028719882
155	0xbd9bb730	-0.076032996
156	0xbdd8a3e5	-0.105781354
157	0xbd4107df	-0.047126647
158	0xbdbe24a5	-0.09284333
159	0x3d5c3cc6	0.053768896
160	0xbb0ff420	-0.0021965578
161	0xbda767df	-0.08174109
162	0xbc1f00e6	-0.009704804
163	0x3dc1021f	0.09424233
164	0x3d8d8782	0.06910612
165	0xbca7e2cf	-0.020493893
166	0xbe0ba4ec	-0.13637131
167	0x3d4a2001	0.049346928
168	0xbdc7ac2c	-0.09749636
169	0xbe1a2364	-0.15052563
170	0x3cb70277	0.022340043
171	0xbdc63e75	-0.096798815
172	0x3d96ba49	0.0735975
173	0xbe17fe89	-0.14843191
174	0x3d865a18	0.06560153
175	0x3d17dd39	0.03707621
176	0xbe070176	-0.13184151
177	0xbe2802c2	-0.16407302
178	0xbd53050f	-0.051518496
179	0xbdb642f2	-0.088994876
180	0xbd86d411	-0.06583417
181	0xbd6cf615	-0.05785187
182	0xbd8b6894	-0.06807056
183	0xbda59919	-0.08085842
184	0xbcf9d270	-0.030495852
185	0xbe135789	-0.14388861
186	0xbb7e6322	-0.0038816412
187	0xbdccc703	-0.09998896
188	0xbd1c1e49	-0.03811482
189	0xbe022b27	-0.12711774
190	0xbe3b9e9b	-0.18322222
191	0xbdf24a7e	-0.118306145
192	0xbe07b6a8	-0.13253272
193	0xbd5b341f	-0.053516503
194	0xbd513f69	-0.051085863
195	0x3dca2be3	0.09871652
196	0x3dd4c81b	0.103897296
197	0x3d1406df	0.036139365
198	0x3d834539	0.064096875
199	0x3d8ffc3c	0.07030532
200	0xbd87c44d	-0.06629238
201	0xbc0b4597	-0.008500478
202	0xbe45f6d3	-0.19332437
203	0xbdd434b1	-0.103616126
204	0x3dc15007	0.09439092
205	0xbda86d7f	-0.0822401
206	0x3c5b7809	0.013395318
207	0x3b4aa56c	0.0030921353
208	0x3ce6f042	0.028190736
209	0xbd5b8a71	-0.053598825
210	0x3af65fc2	0.0018796849
211	0xbc3ff847	-0.011716909
212	0x3c6236ae	0.013806982
213	0xbd7e3f00	-0.0620718
214	0xbd17f216	-0.037096106
215	0x3d6603de	0.05615603
216	0x3d3c6832	0.045997806
217	0xbca6eca4	-0.02037651
218	0xbe11d00c	-0.1423952
219	0x3d0c438c	0.034244105
220	0xbe3de88b	-0.1854574
221	0x3dc279cf	0.094958894
222	0x3db7052a	0.08936532
223	0xbd3dd7f2	-0.04634852
224	0xbdfcef0b	-0.12350281
225	0xbcd36da1	-0.025809111
226	0x3dda2851	0.10652221
227	0xbd337de1	-0.04382122
228	0xbd4f3f55	-0.050597508
229	0x3dfc5919	0.123216815
230	0xbe3aee63	-0.18255
231	0xbc533cf9	-0.012892955
232	0x3d8e8736	0.06959383
233	0xbc77b49e	-0.015118746
234	0xbd92d237	-0.071690015
235	0x3cf38ede	0.02973121
236	0xbd091777	-0.033469643
237	0xbcd6a04b	-0.02619948
238	0xbab208da	-0.001358296
239	0xbb5e24ff	-0.0033896563
240	0x3c342499	0.010995054
241	0xbbc22989	-0.0059253615
242	0xbe1ae61c	-0.15126842
243	0xbd8cd6ad	-0.06876884
244	0x3ddd0c61	0.10793377
245	0xbcb1fe44	-0.021727689
246	0xbe11cb89	-0.14237799
247	0x3d6253f9	0.055255864
248	0x3d215629	0.03938881
249	0x3cdd6929	0.027027683
250	0xbe5396d2	-0.20663002
251	0x3d9dc1e4	0.07702997
252	0xbe49a165	-0.19690473
253	0xbc822dc9	-0.015890973
254	0x3dee2f1e	0.11630081
255	0xbe2ee03a	-0.17077723

fc2.bias f4 [10]
0	0xbd22c400	-0.0397377
1	0xbd8bd585	-0.06827835
2	0xbd89d4bc	-0.06730029
3	0x3d95e147	0.07318359
4	0xbcdfc9c0	-0.027317882
5	0xbb549ee0	-0.003244333
6	0x3d96c27b	0.07361313
7	0x3da039c1	0.07823516
8	0xbaca636e	-0.0015441009
9	0xbdb75025	-0.08950833
