simulation/saved_models/global_model_alpha.pth (torch, 409192 bytes, 4 tensors)

1.weight f4 [128, 784]
0	0xbbdcb08b	-0.0067349127
1	0x3c0687eb	0.008211116
2	0x3cce40b0	0.02517733
3	0x3ce6d38b	0.028177043
4	0xbcb548ab	-0.022129377
5	0xbc60cd85	-0.013720875
6	0x3cdcdb7b	0.026960125
7	0xbc47a1af	-0.0121845445
8	0x3c5d09b0	0.013491079
9	0xbc545c85	-0.0129615115
10	0x3cd22a67	0.025654985
11	0x3cdd060d	0.026980424
12	0x3cc924a9	0.024553614
13	0xbd16ae6f	-0.036787447
14	0x3ba5bb0e	0.005057699
15	0xbcebf86e	-0.028804984
16	0x3cdb4d67	0.026770307
17	0xbc64e550	-0.013970688
18	0xbbed261e	-0.00723721
19	0xbc3c36f5	-0.011487712
20	0xbc76d2a0	-0.015064865
21	0xbd05a469	-0.032627497
22	0xbb41dd12	-0.002958123
23	0x3ca24d75	0.019812325
24	0xbc4becd0	-0.012446597
25	0xbc56ce50	-0.013110712
26	0x3c5a9c9b	0.013343002
27	0x3cb3c727	0.02194555
28	0xbcff9866	-0.031200599
29	0x3cc99b77	0.024610264
30	0x3b8b848a	0.0042577432
31	0xbc273460	-0.010205358
32	0xbbe3ef9e	-0.006956055
33	0xbb956bcb	-0.004559969
34	0xbd0a98a1	-0.033836965
35	0x3d069a8f	0.032862242
36	0xbb1f43d0	-0.0024301894
37	0xbd0e81a5	-0.034791607
38	0x3a5d45ce	0.00084408827
39	0xbab717d9	-0.0013968899
40	0x3c33d6a9	0.010976472
41	0x3c880ca3	0.016607588
42	0x3cd30135	0.025757411
43	0xbb78b5a0	-0.0037950054
44	0x3ce66f8f	0.028129367
45	0xbd1ba119	-0.03799543
46	0x3c7e9aa0	0.015539795
47	0xbd01d3b2	-0.03169603
48	0xbba75418	-0.0051064603
49	0x3cf33509	0.029688375
50	0x3cad5850	0.021160275
51	0xbb4732c2	-0.0030395244
52	0xbc8bfb12	-0.017087493
53	0xbc8ccc52	-0.017187271
54	0x3ccb4f77	0.024818165
55	0xbcf3966e	-0.029734816
56	0xbba7b816	-0.0051183803
57	0xbcddea10	-0.027089149
58	0xbc90a0e5	-0.017654845
59	0x3c2a04d0	0.010377124
60	0x3ca2799e	0.019833382
61	0xbcfaa78f	-0.030597476
62	0xbc8dfaa3	-0.017331427
63	0x3c16f265	0.009213065
64	0xba8c0a65	-0.001068425
65	0xbc98fa89	-0.018674152
66	0xbd27ce86	-0.04096844
67	0xbcbca17f	-0.023026226
68	0x3c7bdf52	0.015373068
69	0xbb8e0465	-0.00433402
70	0x3c192eb3	0.009349513
71	0xbd173e89	-0.036924873
72	0x3b149d3b	0.0022676724
73	0xbbf52862	-0.0074816206
74	0xbd0be62f	-0.034155067
75	0xbcc2e7e6	-0.023792218
76	0xbc8e1ae1	-0.017346801
77	0xbcd0f820	-0.02550894
78	0x3c229881	0.009924055
79	0xbd0b9f18	-0.03408727
80	0xbcbe5455	-0.023233572
81	0xbb9ce119	-0.004787576
82	0xbd05c605	-0.03265955
83	0xbbb99c7f	-0.0056644077
84	0x3d025a97	0.031824674
85	0x3c95e518	0.018297717
86	0xbbefa6f2	-0.0073136026
87	0xbcdf5b16	-0.027265113
88	0xbd0146d3	-0.031561684
89	0x3bedf868	0.0072622783
90	0x3ca246cb	0.019809147
91	0xbcc8b5b0	-0.024500698
92	0xbd15fa36	-0.036615573
93	0xbc9a015d	-0.018799478
94	0xbc9e7a7e	-0.019345518
95	0x3c06f866	0.008237934
96	0x3b2115fa	0.002457975
97	0xbcd422a5	-0.025895426
98	0xbd07d5eb	-0.033162992
99	0xbc0dd697	-0.008657119
100	0xbd26ee8a	-0.040754832
101	0x3ba98543	0.0051733567
102	0xbd441510	-0.04787165
103	0x3bafab60	0.0053610057
104	0x3c6748c3	0.014116469
105	0xbb864a8f	-0.0040982435
106	0x3c33d423	0.01097587
107	0xbd1bd7ee	-0.038047723
108	0xbb25e880	-0.0025315583
109	0xbd036bae	-0.032085113
110	0xbccc3a27	-0.024930073
111	0x3bb0e2a5	0.005398112
112	0xbd0ffba5	-0.035152096
113	0xbcfcc9b3	-0.030857896
114	0x3ab53360	0.0013824515
115	0x3c88be96	0.016692441
116	0xbc17f9f0	-0.009275898
117	0x3cd96d01	0.026541235
118	0xbc8fe13f	-0.01756346
119	0x3b9a7701	0.0047138934
120	0x3ca5587e	0.020183798
121	0xbc61fe01	-0.013793469
122	0xbc04ffd9	-0.008117639
123	0xbd0f182c	-0.03493516
124	0xbd1f76d9	-0.0389317
125	0x3c5fd4f7	0.013661615
126	0xbc31bc72	-0.0108481515
127	0x3c8fec4a	0.017568726
128	0x3c9a1a32	0.018811319
129	0x3ad460ee	0.0016203204
130	0xbd059cc0	-0.03262019
131	0xbc1ed035	-0.009693195
132	0xbc2decd5	-0.010615547
133	0x3c9a5545	0.018839488
134	0xbc396787	-0.011316187
135	0xbcc46e6b	-0.023978433
136	0x3c9c2be8	0.019063905
137	0xbcb1ac82	-0.021688703
138	0x3c6cb62e	0.014447732
139	0x3c31ad82	0.01084459
140	0xbb78d842	-0.0037970697
141	0x3a9919ee	0.0011680701
142	0xbcb978b2	-0.02264056
143	0xbcdd568e	-0.027018812
144	0x3ccd459b	0.025057605
145	0x3b41e4ae	0.0029585767
146	0x3b0262ff	0.0019895432
147	0xbcd56c13	-0.02605251
148	0xbcaadb03	-0.020856386
149	0xbc43cfd2	-0.011951404
150	0xbc890fef	-0.01673123
151	0x3b715119	0.003682202
152	0x3b32ecae	0.0027301717
153	0x3c60439e	0.013687996
154	0xbc5437c3	-0.012952748
155	0x3cade097	0.021225257
156	0x3ca7a937	0.02046643
157	0xbc842cb2	-0.016134594
158	0xbd14bb6e	-0.03631156
159	0xbc52eb07	-0.012873418
160	0x3cc38b12	0.023870025
161	0x3cebc710	0.028781444
162	0x3ca3ecdf	0.02001041
163	0x3c5198db	0.012792791
164	0xbcd77300	-0.026299953
165	0xbbadd530	-0.005304955
166	0x3cca301b	0.024681142
167	0x3cf0e29e	0.029404934
168	0x3cd69b51	0.026197108
169	0x3cbf8ecb	0.023383519
170	0x3c809c32	0.01569948
171	0xbcf92763	-0.030414289
172	0xbb111a46	-0.0022140904
173	0x3bcc0925	0.006226676
174	0xbbbaad6e	-0.005696944
175	0xbcbcc465	-0.023042867
176	0xbc6fca47	-0.014635629
177	0xbc87a37f	-0.016557453
178	0xbc429b7b	-0.01187789
179	0xbb9b8d67	-0.004747081
180	0xbca6ae36	-0.020346742
181	0xbcf52db0	-0.029929012
182	0xbcb74798	-0.022373006
183	0xbbf0ff65	-0.007354664
184	0x3c6ced7b	0.014460917
185	0x3c24ff96	0.010070702
186	0xbc811ce1	-0.01576084
187	0xbce2b689	-0.02767493
188	0x3b634f32	0.0034684655
189	0xbc86ff0d	-0.01647904
190	0x3c84c715	0.016208211
191	0x3d10b7ca	0.035331525
192	0x3c1b9723	0.009496483
193	0x3ba75831	0.005106949
194	0xbcadcf20	-0.021216929
195	0x3c7d2cc3	0.015452567
196	0xbc9a8f0e	-0.018867042
197	0xbcafd7d9	-0.021465229
198	0xbd10ec01	-0.03538132
199	0x3bd83d09	0.006599073
200	0xbd1a4749	-0.03766564
201	0xbd275815	-0.040855486
202	0xbd432bc0	-0.047649145
203	0x3c948f2e	0.01813468
204	0xbc566e67	-0.013087845
205	0xb95b75dd	-0.00020929375
206	0xbcc2be32	-0.023772333
207	0xbd1d2630	-0.038366497
208	0xbc936725	-0.01799352
209	0xbca373c9	-0.019952672
210	0x3bbba00b	0.0057258657
211	0xbbecddd9	-0.0072285947
212	0xba31b521	-0.00067790045
213	0x3c6b9589	0.014378914
214	0xbcb7af4e	-0.022422459
215	0xba8f6832	-0.0010941087
216	0xbc5822f2	-0.013191925
217	0x3b59dbd6	0.0033242605
218	0xbc32ac3e	-0.010905324
219	0xbc74e240	-0.01494652
220	0xbd0144b0	-0.031559646
221	0xbce87b1e	-0.02837902
222	0xbcedb9ed	-0.02901932
223	0x3ce58969	0.028019624
224	0x3c5f06fe	0.013612507
225	0xbc4c504e	-0.012470318
226	0x3cf8b5d5	0.030360142
227	0xbc277a7e	-0.0102220755
228	0x3bb9fe87	0.005676094
229	0xbcf7fbf0	-0.0302715
230	0x3bb1edc2	0.0054299543
231	0x3c0cba42	0.008589329
232	0xbc91955a	-0.017771412
233	0xbd30546e	-0.04304927
234	0xbcde3867	-0.027126504
235	0x3c7e7a40	0.015532076
236	0x3c0ae4dd	0.008477417
237	0x3d17c1e9	0.03705016
238	0xbcef8241	-0.029236915
239	0x3c3e8585	0.011628513
240	0x3c4a4b3f	0.012347042
241	0xbb75bdd5	-0.0037497182
242	0x3ca9f8e5	0.020748565
243	0xbbf3962e	-0.0074336743
244	0xbc82b841	-0.015957
245	0x3b3df016	0.0028982214
246	0x3bea2817	0.0071458924
247	0xbcd6eb01	-0.026235105
248	0x3aeac7f2	0.0017912372
249	0xbc8b6f2d	-0.017020786
250	0x3be27079	0.0069103804
251	0xbcb479a2	-0.022030655
252	0xbd0de02f	-0.034637626
253	0x3ce09a21	0.027417244
254	0x3c6018a7	0.013677753
255	0x3cd97712	0.026546035

1.bias f4 [128]
0	0xbcebf092	-0.028801236
1	0x3d051ff3	0.032501172
2	0xbcdb1e85	-0.026747951
3	0x3c8b41ab	0.016999086
4	0xbc548b9b	-0.012972738
5	0x3cf212a2	0.0295499
6	0x3d12a2d6	0.035799824
7	0xbcebe6c6	-0.028796565
8	0xbd06d3d5	-0.032916863
9	0x3c96d7f9	0.01841353
10	0x3cb8db43	0.02256549
11	0x3c9ab36b	0.018884381
12	0xb9fb32a5	-0.00047912184
13	0xbc925166	-0.01786108
14	0x3c9b828d	0.01898315
15	0x3d0b35f6	0.033987008
16	0xbb37fea5	-0.0028075364
17	0xbc870901	-0.016483786
18	0x3c98dc79	0.018659817
19	0x3cc97bcb	0.024595162
20	0x3cd644c0	0.02615583
21	0xbbb68839	-0.005570438
22	0x3d03b828	0.032158047
23	0xbc80ddcb	-0.01573076
24	0xbbe8074d	-0.0070809484
25	0xbcbfd555	-0.023417154
26	0x3cd55e7b	0.026046028
27	0xbcbd7c15	-0.023130456
28	0x3c39afba	0.0113334
29	0x3d1f05cf	0.0388239
30	0xbcd82072	-0.026382659
31	0x3d27e9d5	0.040994484
32	0xbc526e82	-0.01284373
33	0x3ce21af2	0.02760074
34	0x3d22c3e0	0.039737582
35	0x3bb6f205	0.00558305
36	0x3cf870b5	0.03032718
37	0x3c5a07f9	0.013307565
38	0x3d0ec247	0.034853246
39	0x3c20cc3d	0.009814319
40	0x3ce73115	0.028221646
41	0x3b8c16d0	0.0042751804
42	0x3d0276eb	0.03185169
43	0x3bab666e	0.0052307164
44	0xbb8ddc17	-0.0043292153
45	0x3cafb116	0.021446746
46	0x3c984dc7	0.018591775
47	0xbce438c0	-0.027859092
48	0xbcde2281	-0.027116062
49	0x3cefa0e5	0.029251525
50	0x3c5c5fd9	0.013450586
51	0xbc191c05	-0.009345059
52	0x3c99d2f1	0.018777343
53	0x3bd6bdf5	0.0065534064
54	0x3cee6e65	0.029105375
55	0xbce3c427	-0.027803494
56	0xbc4d75a2	-0.012540253
57	0x3d1a497e	0.037667744
58	0x3c0c63a2	0.008568676
59	0xbcf34a92	-0.029698644
60	0x3cd65220	0.026162207
61	0xbc81b35f	-0.015832601
62	0xba2e15d2	-0.0006640825
63	0xbc960eb2	-0.018317554
64	0x3cc7d646	0.024394166
65	0x3cad77a9	0.021175222
66	0x3ce05322	0.02738339
67	0x3d17a926	0.037026547
68	0xbcf272bb	-0.029595723
69	0xbc6c5eeb	-0.014426927
70	0x3c5c8d78	0.013461463
71	0x3cd9e752	0.02659956
72	0x3c8f11b5	0.017464498
73	0xbcec04f0	-0.028810948
74	0x3c5be9da	0.013422454
75	0x3d04178d	0.032249022
76	0x3cf4afca	0.029868979
77	0x3cfd8a0e	0.030949619
78	0xbbc46515	-0.005993495
79	0xbcbf9079	-0.02338432
80	0x3cff077a	0.031131495
81	0xbc631ec9	-0.01386232
82	0x3c7996be	0.015233694
83	0xbcf2ab21	-0.029622616
84	0xbcc901c9	-0.024536984
85	0x3b8dda23	0.0043289824
86	0x3b96e770	0.004605226
87	0x3c69a7de	0.014261214
88	0x3cbdbeeb	0.023162326
89	0x3c984442	0.018587235
90	0x3d1b9621	0.03798497
91	0xbc1d5f31	-0.009605215
92	0x3cb0de7d	0.021590466
93	0x3b2cc2f8	0.0026361328
94	0xbc5df079	-0.013546103
95	0x3b02fc16	0.001998668
96	0xbc6887a5	-0.014192496
97	0xbd0ee7c7	-0.03488901
98	0xbbe3e190	-0.0069543794
99	0xbc57c138	-0.0131686255
100	0x3c867402	0.016412739
101	0xbc2af325	-0.010433947
102	0xbcba09b2	-0.022709701
103	0x3c3c0645	0.011476104
104	0x392b6719	0.00016346238
105	0xbca87f69	-0.020568566
106	0x3cfa0edd	0.030524665
107	0xbcb80165	-0.022461602
108	0x3cdc9bbf	0.026929734
109	0x3d145f6e	0.03622382
110	0x3b613157	0.0034361684
111	0x3c28d105	0.01030374
112	0x3c5c840e	0.013459219
113	0x3ab21a73	0.0013588205
114	0xba0c3c0f	-0.00053495256
115	0xbbad7c15	-0.0052943327
116	0x3bb7dce0	0.005611047
117	0x3c53cc80	0.012927175
118	0xbc9506de	-0.018191751
119	0x3ccc7030	0.024955839
120	0x3c01db0d	0.007925761
121	0x3c239a25	0.009985481
122	0x3ac54ad7	0.0015052211
123	0x3d020f26	0.031752728
124	0x3b47d007	0.0030488984
125	0xb9e5ea79	-0.0004385298
126	0xbc78be39	-0.015182071
127	0xbc87d973	-0.01658318

3.weight f4 [10, 128]
0	0xbdd00f25	-0.101591386
1	0xbdb339e7	-0.08751278
2	0xbdf5cf9e	-0.120024905
3	0xbd2410db	-0.040055137
4	0x3d6b8ace	0.05750542
5	0x3c285ce9	0.010276058
6	0xbd79c75e	-0.060981147
7	0xbd995923	-0.074877046
8	0x3cdaeba7	0.026723696
9	0xbe069ab3	-0.1314495
10	0xbdd0dfc2	-0.101989284
11	0x3e413607	0.18868266
12	0xbcffdae6	-0.031232309
13	0x3c7977fe	0.015226362
14	0x3d7794a9	0.060444508
15	0xbdd561f0	-0.10419071
16	0x3e1a13b7	0.15046583
17	0xbc502928	-0.012705125
18	0xbde17d82	-0.11010267
19	0xbdd8dc40	-0.10588884
20	0x3e393309	0.18085875
21	0xbcbb7081	-0.022880794
22	0xbd80a716	-0.06281869
23	0x3dc7770e	0.09739505
24	0xbc7f283f	-0.01557356
25	0x3cdcb307	0.026940836
26	0x3e20a7ee	0.1568906
27	0xbe05d90f	-0.13071083
28	0x3c726220	0.014793903
29	0x3d7b5412	0.061359473
30	0x3d269c92	0.04067666
31	0xbde161f2	-0.1100501
32	0xbe35f269	-0.17768253
33	0x3dc8d02d	0.098053314
34	0x3d78020d	0.06054883
35	0xbd999bf7	-0.07500451
36	0x3de67b95	0.1125404
37	0xbdf25be2	-0.118339315
38	0xbd9d6cf2	-0.07686795
39	0xbd250269	-0.0402855
40	0xbc9c8f20	-0.019111216
41	0xbc2fd1cb	-0.010731171
42	0x3c1dd500	0.009633303
43	0x3cca0285	0.024659405
44	0x3d0b6471	0.034031335
45	0xbda60ee5	-0.0810831
46	0x3ea99517	0.3312156
47	0xbd89773e	-0.06712197
48	0x3e01b5f9	0.12667073
49	0x3da53e86	0.08068566
50	0xbe017f13	-0.12646131
51	0x3c198882	0.009370925
52	0xbda01a22	-0.078174844
53	0xbd0eca5e	-0.03486096
54	0xbcb8a8f2	-0.022541497
55	0xbc9537c3	-0.018215066
56	0xbdaefad7	-0.08543938
57	0xbe261189	-0.16217627
58	0xbe11a4ee	-0.14223072
59	0x3c4c1b49	0.012457677
60	0xbc8ecfb8	-0.017433032
61	0x3e2dbd47	0.16966735
62	0xbba5ba7b	-0.0050576306
63	0xbe10207d	-0.14074893
64	0xbd08fa27	-0.03344169
65	0xbd87c1a9	-0.066287346
66	0xbd2c4a65	-0.042063136
67	0x3d1d4ce0	0.03840339
68	0xbbbb0237	-0.005707051
69	0x3e00c4d2	0.12575081
70	0x3b9aecd0	0.0047279373
71	0x3e1b329e	0.15156028
72	0x3d108e15	0.03529175
73	0x3d095ce9	0.03353587
74	0xbdb32879	-0.08747954
75	0x3c47ab87	0.012186891
76	0xbcc4d279	-0.024026142
77	0xbd4e18af	-0.05031651
78	0xbdc97245	-0.09836248
79	0xbd9ec852	-0.07753052
80	0x3d1592d0	0.036516964
81	0xbe196b69	-0.1498238
82	0xbdcf544a	-0.10123499
83	0xbda33912	-0.0796987
84	0xbe4bedd6	-0.19914946
85	0x3e05b453	0.1305707
86	0x3d83a781	0.06428433
87	0xbbf6a322	-0.007526771
88	0xba2eefbb	-0.0006673296
89	0xbd5b5d59	-0.05355582
90	0x3cba0d73	0.022711491
91	0xbdfc3f37	-0.12316745
92	0x3d954921	0.07289339
93	0x3df5e621	0.12006784
94	0xbcd45127	-0.025917603
95	0xbdf4600e	-0.119323835
96	0x3e25777d	0.16158862
97	0xbe2318bf	-0.15927409
98	0xbe03afa8	-0.12859976
99	0x3d57b5d2	0.05266363
100	0x3d826386	0.06366639
101	0xbcc9a00a	-0.024612445
102	0x3d69c54b	0.05707292
103	0xbe0b18ae	-0.13583633
104	0x3b98a2ca	0.004658078
105	0x3dc789c2	0.09743072
106	0xbe0e3c21	-0.13890125
107	0x3dbc2325	0.09186391
108	0xbd9a6d47	-0.07540374
109	0xbaee5042	-0.0018181878
110	0x3e221022	0.15826467
111	0xbe1caac2	-0.15299514
112	0x3c779e99	0.015113496
113	0xbe02987f	-0.12753485
114	0x3d673cd3	0.05645449
115	0xbca37bb3	-0.019956445
116	0xbd5210e8	-0.051285654
117	0x3d6a7876	0.057243787
118	0x3c94e3ab	0.018174967
119	0x3e3622a5	0.17786653
120	0x3c5863ce	0.013207389
121	0xbdba93e2	-0.09110238
122	0xbaae6445	-0.0013305029
123	0x3b14e245	0.0022717875
124	0x3df72d81	0.12069226
125	0xbd7f7eb7	-0.062376704
126	0x3e476bc2	0.194747
127	0x3e1b25c9	0.15151133
128	0x3d414e19	0.04719362
129	0xbdadb961	-0.08482624
130	0x3ceedb56	0.029157322
131	0x3dbd9ab2	0.092580214
132	0x3d991942	0.07475521
133	0x3e043688	0.12911427
134	0x3cae1e42	0.021254662
135	0x38b4cdc0	8.621393e-05
136	0x3c861c5f	0.01637095
137	0x3d96d699	0.0736515
138	0xbbf5a8d7	-0.007496934
139	0xbdcd7156	-0.10031383
140	0xbd4416c9	-0.047873292
141	0x3e2ee4c2	0.17079452
142	0xbd12d4f6	-0.035847627
143	0x3d83799d	0.0641968
144	0xbc058ba0	-0.008150965
145	0x3ce64b2d	0.028112018
146	0x3d1293e2	0.035785563
147	0xbe1788bd	-0.14798255
148	0xbe2f5b0f	-0.1712458
149	0xbd8de54f	-0.06928503
150	0x3cb94202	0.022614483
151	0x3d03d592	0.0321861
152	0x3e432b92	0.1905959
153	0xbe22f773	-0.15914707
154	0xbe2c69d5	-0.16837247
155	0x3e26ff0d	0.16308232
156	0xbdc2fe77	-0.095211916
157	0x3d0fba52	0.0350898
158	0xbd4a60fa	-0.04940889
159	0x3e8a14ce	0.26968998
160	0x3e11dc67	0.14244233
161	0x3cb4d6f8	0.022075161
162	0xbe210487	-0.15724383
163	0xbe075123	-0.13214545
164	0xbde8d2b3	-0.11368313
165	0xbccdb5f3	-0.025111174
166	0x3d2b7466	0.041859053
167	0xbd8b9179	-0.06814856
168	0x3d84e933	0.06489792
169	0x3dad7699	0.08469886
170	0xbbbf8cb1	-0.005845629
171	0x3d4f4bae	0.050609283
172	0xbc3d9adb	-0.011572565
173	0xbd242996	-0.040078722
174	0xbe25d61a	-0.16194955
175	0x3da7b3f1	0.08188618
176	0xbde081e0	-0.10962272
177	0xbdfdc3b0	-0.1239084
178	0x3c4744cb	0.012162398
179	0x3e307deb	0.17235534
180	0xbe02e2a2	-0.12781766
181	0x3e2dfec6	0.1699172
182	0xbdd5d4c8	-0.104409754
183	0xbe51ced2	-0.20489052
184	0xbd9082a3	-0.07056167
185	0x3e0cee4b	0.13762777
186	0x3d8dbed7	0.069211654
187	0x3bf54f01	0.0074862246
188	0xbde79f6e	-0.11309706
189	0xbd26c1ae	-0.04071205
190	0xbd46c45b	-0.048527103
191	0x3e46afca	0.19402996
192	0xbe50182e	-0.20321724
193	0x3d0e225b	0.034700733
194	0x3bb15600	0.0054118633
195	0x3d5ef537	0.054433074
196	0x3d91d3da	0.071204856
197	0x3d8dc027	0.06921416
198	0x3d956d8d	0.07296286
199	0xbd906af6	-0.07051651
200	0xbe023e4a	-0.12719074
201	0x3d774c21	0.060375337
202	0xbe0fd6f7	-0.14046846
203	0xbc70bfbe	-0.014694152
204	0x3d33265e	0.04373776
205	0x3dcdae99	0.100430675
206	0xbe0dd8aa	-0.13852182
207	0xbc74cd8b	-0.014941583
208	0x3ca6942f	0.020334331
209	0x3dac1207	0.08401876
210	0x3dabbd45	0.0838571
211	0x3d5c4c3f	0.05378365
212	0x3d21a4b2	0.039463706
213	0xbdc012d9	-0.09378595
214	0x3ce98e10	0.028510123
215	0x3e5016eb	0.20321243
216	0x3dc6e05e	0.097107634
217	0xbcd9b99a	-0.02657776
218	0xbdba6f52	-0.09103264
219	0x3db1268e	0.08649932
220	0xbe1d612f	-0.15369104
221	0xbe4af95b	-0.19821684
222	0xbe0771b0	-0.13226962
223	0xbd20e052	-0.03927643
224	0x3cb6d5c1	0.022318723
225	0x3e1eecd9	0.15520038
226	0xbe17bc41	-0.14817907
227	0xbdc130bf	-0.09433126
228	0x3e06a455	0.13148625
229	0x3d90a16d	0.070620395
230	0x3c6e18f2	0.014532315
231	0x3a3ee325	0.0007281772
232	0xbe309ad1	-0.17246558
233	0x3d893ea7	0.06701403
234	0x3d1fbdb9	0.038999293
235	0xbe49e399	-0.19715728
236	0x3d2ab305	0.041674633
237	0x3e18fdb5	0.14940532
238	0xbdcadc7b	-0.099053346
239	0x3e2585c1	0.16164304
240	0xbc645890	-0.013937131
241	0xbd4963db	-0.049167495
242	0xbbd1f46e	-0.006407312
243	0xbd3df553	-0.046376538
244	0xbe3d1815	-0.18466218
245	0x3d8442d6	0.064580604
246	0x3cba000b	0.022705099
247	0x3df96c7e	0.12178896
248	0x3d9dcacb	0.07704695
249	0x3d8c00e3	0.06836107
250	0xbd613725	-0.05498423
251	0x3dd3c695	0.10340611
252	0x3c37a615	0.011209031
253	0x3c53fa50	0.012938097
254	0xbd914cfb	-0.07094761
255	0xbdecb905	-0.11558727

3.bias f4 [10]
0	0x3cf1e1e2	0.029526655
1	0x3cf9004e	0.030395653
2	0x3cbbb443	0.022913104
3	0x3d46c822	0.048530705
4	0xbd9daef2	-0.07699384
5	0x3ce78df2	0.028265927
6	0xbd2bd2cf	-0.04194909
7	0x3d3c1df9	0.04592702
8	0xbd9b7c8f	-0.07592117
9	0x3d2afc7e	0.0417447
