simulation/saved_models/global_model_delta_12-03_23-21.pth (torch, 409416 bytes, 4 tensors)

fc1.weight f4 [128, 784]
000000 c4 6f 83 bc c9 3d 8d ba 79 b8 8f 3c d8 eb 26 bc
       -0.016044505 -0.001077586 0.017544018 -0.0101880655
000010 9f a9 ec 3c 40 67 83 bb 72 d4 b1 bb 94 7d 3e bc
       0.028889475 -0.004010111 -0.005426937 -0.01162662
000020 93 af ca 3c 57 be 70 3b 79 89 11 3b eb c9 d7 3b
       0.024741923 0.0036734545 0.0022207184 0.00658535
000030 cc 11 12 bc 37 11 f3 3c 04 b4 05 3d f2 7b a2 3b
       -0.008915376 0.029671295 0.03264238 0.004958623
000040 b8 9e 1e bc 0a 04 58 bc 7d f0 db bc 93 b2 de 3c
       -0.009681396 -0.013184557 -0.026848072 0.02718476
000050 3b e2 df bc 1d 01 d9 bc e7 d5 f5 3c 1d 68 0f 3c
       -0.027329555 -0.026489789 0.030009223 0.00875285
000060 a5 c7 60 bc 23 b0 c1 3c dc bf 90 3c 8f 01 a2 bc
       -0.013719474 0.023643559 0.01766961 -0.019776134
000070 1e 26 e3 bc cf 96 92 bc a8 ce a2 ba 91 cf 81 3b
       -0.027728137 -0.017894177 -0.0012421208 0.0039615114
000080 ea e2 9f 3b cb e9 44 3c 82 5f e2 bc a9 b0 8f ba
       0.004879345 0.012018631 -0.027633432 -0.0010962683
000090 de 49 3f 3a 3d b5 8b 3a 8c 49 76 3c f8 ea ea bc
       0.0007297079 0.0010658872 0.015032183 -0.028676495
0000a0 3d f2 9b 3c 7f d9 8f bc 5d 31 b6 3c fc d2 1a 3a
       0.019036407 -0.017559765 0.022240335 0.0005906073
0000b0 24 c5 ac bc 7f f8 ac 3c 94 41 32 bc e9 49 05 3d
       -0.021090098 0.021114586 -0.010879893 0.03254119
0000c0 0b 74 06 3d 7d fb 88 3a 9b 19 d1 3a 97 d0 52 bc
       0.03282551 0.0010450926 0.0015953066 -0.0128671145
0000d0 0d 4f d1 3c ed a3 1d 3c f3 b2 c6 bb e2 d0 a6 3b
       0.02555039 0.0096216025 -0.006063813 0.0050908187
0000e0 7c 77 fb 3a 68 66 99 ba 3f 39 a2 3c 24 d7 90 3c
       0.0019185389 -0.0011703493 0.019802688 0.017680712
0000f0 08 37 8c bb 4d 61 e9 bb aa fa 13 3d 1d e5 ab 3c
       -0.004279021 -0.007122195 0.036127724 0.020983273
000100 50 63 01 3d db 53 ec 3b bd 73 aa 39 0d 96 dc 3c
       0.031588852 0.007212145 0.00032511158 0.026927019
000110 2e 76 1a 3d 9b 9a c3 3b 6d 1e 9d 3b cb 02 0c 3b
       0.03771036 0.005969358 0.004794887 0.002136397
000120 6b e9 9f bb 08 9b 38 3b 9c b4 97 bb 83 5b ad 3c
       -0.0048801205 0.0028168578 -0.0046296846 0.0211618
000130 96 d9 25 3d 7c e7 ab 3a 79 20 9f bc 83 a0 a4 3c
       0.04049071 0.0013115252 -0.019424664 0.02009607
000140 5d d7 88 3a 1b 44 3b 3c bb 02 d4 3a a7 d4 f2 bc
       0.001044016 0.011429812 0.001617513 -0.029642416
000150 79 93 f0 3c e1 48 ef bb b0 0a 08 3d 6e 01 1d 3d
       0.029367195 -0.007302389 0.033213317 0.03833144
000160 3d 0e c7 bc b1 3f a5 3c 00 d2 83 3b 6b 34 9e 3c
       -0.024298782 0.020171972 0.0040228367 0.019312104
000170 f9 93 0e 3b 4a f0 01 3d cc 35 5d 3c 49 57 de 3c
       0.002175568 0.031723298 0.013501596 0.02714123
000180 67 45 e4 3c 6c 90 63 3c 14 43 cb 3c fc 3e 7d bb
       0.027865125 0.013889413 0.024812259 -0.0038642278
000190 95 50 71 3c 91 7b bc 3c a4 93 95 bb 45 f8 3f bb
       0.014728685 0.02300814 -0.0045647193 -0.0029292267
0001a0 d6 46 cd 3c 82 ec a7 3c d3 3b ee 3b 99 a4 d9 3c
       0.025058191 0.020498518 0.007270315 0.026567744
0001b0 81 95 d0 3c 30 70 b5 bc b1 bb df 3c ad c2 85 bc
       0.025461914 -0.022148222 0.027311178 -0.01632818
0001c0 08 de e2 bc 69 e2 dd bc ee 8e 0e 3d e3 2c 47 3c
       -0.027693763 -0.0270855 0.034804277 0.012156698
0001d0 05 7c 0b 3c ba 0c c0 bb c7 73 c8 bc 09 d1 de 3c
       0.008513455 -0.005860892 -0.02446927 0.027199285
0001e0 03 8e be 3c 9d c5 ab bb a3 47 25 bc 4e 82 97 bc
       0.023261076 -0.005242063 -0.01008788 -0.018494751
0001f0 ea 82 28 3d 09 e5 59 3c b4 9f b7 3c 0c 5d 09 3c
       0.041140474 0.013299235 0.02241502 0.0083840005
000200 a8 02 ec 3c 22 04 03 3c 08 5b 95 3c 76 b1 e2 bc
       0.02880986 0.007996591 0.018231884 -0.02767251
000210 c4 4b 04 3d d8 9f b0 3c 5b e5 ca 3a 15 0d c1 3c
       0.03229882 0.021560594 0.001547973 0.023565808
000220 0a 3b a9 3b a4 bb 91 3c f7 27 fc 3c 45 f0 ee bb
       0.0051645087 0.01778967 0.030780775 -0.007291826
000230 0b 39 c9 3c e7 eb e9 3c 5e 4a bd bb 04 7e c8 bc
       0.024563333 0.02855487 -0.0057766875 -0.024474151
000240 be 5e 94 3c ff 5f e6 3c a9 cd 80 bc 2f 37 dc bc
       0.018111583 0.028121946 -0.015723066 -0.026881782
000250 0e 6b 07 3c 9a f3 cb bc 3c e2 51 3c 72 44 c7 3c
       0.00826527 -0.024896432 0.012810286 0.02432463
000260 0f 43 89 3c 12 12 d4 3c 81 4f 86 bc cc 75 27 3d
       0.016755609 0.025887523 -0.016395332 0.040883824
000270 45 4d 46 3c a3 b9 04 bc 2f 9e dc bc 64 b3 77 bc
       0.012103383 -0.0081009 -0.026930897 -0.015118454
000280 13 08 8a bc a8 64 25 bd f5 a3 a5 3c 5b e0 b3 3c
       -0.016849553 -0.040379196 0.020219782 0.021957567
000290 30 d6 69 3c 75 22 fa 3c e3 af a6 3c b7 a0 c4 3c
       0.014272258 0.030534009 0.020347541 0.024002416
0002a0 77 23 e5 3c 41 aa 62 bc c5 2b 56 bc fe c7 59 bb
       0.027971013 -0.013834537 -0.013071959 -0.0033230777
0002b0 72 8f b1 bc ba b1 0a 3d 98 d8 a9 3c 36 8f f8 3c
       -0.021674845 0.0338609 0.020733163 0.030341726
0002c0 45 78 ad bc e0 a3 98 bc 28 7c 4e bc 7b 71 aa 3c
       -0.021175513 -0.01863283 -0.012602843 0.020806065
0002d0 2e 2e 08 3d ec b6 f7 3c 9c a4 d5 bc e0 39 a2 3a
       0.033247165 0.030238591 -0.026079468 0.0012376867
0002e0 f8 08 04 bd c1 71 cd bc d8 4d c1 bc 35 cc a2 bc
       -0.032235116 -0.025078656 -0.02359669 -0.019872764
0002f0 77 84 91 bc 96 40 0e 3c 86 47 28 3d 8a 82 de 3c
       -0.01776336 0.008682391 0.041083835 0.027161855
000300 fd ce eb bb 35 d5 f7 bb ef 1b dd 3c d3 15 e5 3b
       -0.007196306 -0.007563258 0.026990859 0.006991127
000310 7d f6 db bc dd 47 d3 3c f5 ec f6 bb 2c b6 54 3c
       -0.026850933 0.025791103 -0.0075355717 0.012982886
000320 f0 17 f7 3c 17 8c b8 3a 56 4b 8a 3a 93 a8 13 3d
       0.030162781 0.0014079836 0.0010551016 0.036049437
000330 ef d1 27 3d 7f a3 b7 3b 61 7e f0 bc a8 0d 99 3c
       0.040971693 0.005604207 -0.029357137 0.01868327
000340 5d 70 c2 bb e1 a6 1e 3b 14 93 27 3d 5b 99 95 bc
       -0.005933805 0.0024208354 0.04091175 -0.018261602
000350 1d b8 2f bc 89 26 23 bd d7 96 84 3c da 05 57 3a
       -0.010725048 -0.039831672 0.016185207 0.0008202471
000360 7a b3 69 bc 5e 7b 0d 3d ae 61 b3 bc 7a da 38 3c
       -0.014263982 0.03454148 -0.021897163 0.011282558
000370 36 63 94 3c 1e 4f 23 3d fd a3 9b 3c 88 d3 8c bb
       0.018113714 0.039870374 0.018999094 -0.0042976774
000380 34 c8 09 bc 0e 95 1c 3d 29 d8 e1 3c bd e6 d0 bc
       -0.008409549 0.038228087 0.027568894 -0.02550065
000390 4e 87 b5 bc e6 b0 9a 3c b2 7f bc bc 64 d8 6a bc
       -0.022159245 0.01888318 -0.023010109 -0.014333818
0003a0 49 e6 74 bc cb 7d ed bc 6e 92 29 3d e0 33 f9 3b
       -0.014947482 -0.028990647 0.04139941 0.007605061
0003b0 63 8f be 3a 23 f5 5c 3c 13 73 b8 bc bb 43 b8 bc
       0.0014538582 0.0134861795 -0.02251581 -0.022493234
0003c0 18 7b b4 bc 44 19 2d 3c 70 cb e8 3b ef 9d 66 bb
       -0.022031352 0.010565106 0.0071043298 -0.003518935
0003d0 17 76 08 3d 43 af 94 ba cb 67 dc bc d9 33 aa bc
       0.033315744 -0.0011343736 -0.026904961 -0.020776676
0003e0 f1 17 b5 bc 8e 76 05 3d d5 54 ec bc 7e 17 1a bc
       -0.022106143 0.032583766 -0.028849045 -0.009405015
0003f0 a8 3e 2a 3d eb 06 c0 3b 85 99 9b 3c 93 98 8a 3c
       0.04156366 0.0058601997 0.018994102 0.016918456

fc1.bias f4 [128]
000000 1d 0a cc 3c a5 e5 b2 3c d5 55 9f bc 23 73 23 bd
       0.024907166 0.021838019 -0.019450108 -0.039904725
000010 d6 89 0c 3d d6 b4 0a 3c 26 a6 d8 bb 0b 9f b6 3c
       0.034311138 0.008465966 -0.0066116033 0.022292634
000020 17 41 82 3c 3e 56 ce bc 70 ed 17 3c 0e d0 e0 3c
       0.015900178 -0.025187608 0.009272918 0.027442958
000030 80 a6 52 bb 3d 2a 65 3c 10 f5 e4 bc 78 78 99 bc
       -0.0032142699 0.013987121 -0.027948886 -0.018734202
000040 70 26 bd bc 4c 1e ec bc fc 37 0a 3c 6c c9 04 3d
       -0.023089617 -0.02882304 0.008436199 0.032418653
000050 c1 a8 c2 bc 0f e8 bc 3c 5e 14 16 bd 48 85 43 3c
       -0.023762109 0.023059873 -0.036640517 0.011933632
000060 ae 83 9e 3c 8a e1 6f bc 50 b5 a3 bc 22 c7 8a 3c
       0.0193499 -0.014641175 -0.019983917 0.016940657
000070 10 b7 23 bd 9b 10 b2 bc 98 1f 0c 3d 99 1c 99 3c
       -0.039969504 -0.021736434 0.034209818 0.018690394
000080 73 31 ba bc 22 ae a7 bc 80 a3 83 bc 83 fb be 3c
       -0.022728657 -0.020468775 -0.016069174 0.02331329
000090 1c 40 fb bc 8e 15 a1 3c 9c fb 99 bc fc bb 3f 3b
       -0.030670218 0.019663598 -0.018796735 0.0029256335
0000a0 b6 e9 5c 3c c4 0f e6 bb 58 0a f9 3c d5 58 9b bc
       0.013483455 -0.0070209224 0.03040044 -0.018963257
0000b0 9e f8 8b bc 53 b8 37 3c 63 cb 01 bd f7 51 9c bc
       -0.017086323 0.01121338 -0.031688105 -0.019082053
0000c0 26 44 6e bc dd 99 f4 bb 3f e4 66 bc 74 06 77 3b
       -0.014542615 -0.007464631 -0.014092504 0.0037693055
0000d0 93 6a e0 3c 51 59 e2 3c 84 18 10 3d 04 d6 ab 3c
       0.027394569 0.02763048 0.03517963 0.020976074
0000e0 14 59 e6 3c 7b 1a 59 3b ba 3b b7 bc a9 e7 a3 bc
       0.028118648 0.0033127356 -0.022367347 -0.020007925
0000f0 7c d2 a7 3c e3 a6 c1 3c 95 42 ed 3c e7 0f 91 3a
       0.020486109 0.023639148 0.028962413 0.0011067361
000100 e4 c7 1c 3c 83 23 58 bc 60 04 35 3c 9e 70 08 3d
       0.009569142 -0.01319206 0.011048406 0.033310525
000110 0f 02 53 3c 36 7f 5b bc b9 95 cb 3a c3 37 e8 bb
       0.012878909 -0.013397029 0.0015532292 -0.0070867254
000120 a9 75 e0 3c d8 3a ff bc c3 33 21 3c 46 42 ad 3b
       0.027399855 -0.031155989 0.009839001 0.0052874414
000130 2e 06 cb bb c4 e5 b7 3c d5 32 b8 bc ea 65 5c bc
       -0.006195805 0.022448428 -0.022485176 -0.013452033
000140 66 57 3c bb c9 84 2f bc 35 03 e4 bc 8e d9 5e 3c
       -0.0028738617 -0.010712811 -0.02783356 0.013601674
000150 cf 4a 2a 3c f6 21 24 bd bb 1b 8f 3c d3 23 a6 bc
       0.010393812 -0.04007145 0.017469278 -0.020280754
000160 31 10 e1 3c 7e e9 8b 3c 31 a6 2f 3d cc c9 2b bc
       0.027473541 0.017079111 0.0428831 -0.010485124
000170 de 6e 50 bc 4c da 0a bd 65 56 a8 bc 27 ec 13 bd
       -0.012721745 -0.03389959 -0.020549009 -0.036113884
000180 5e 0f ed 3c 82 9e 63 bc f4 69 ac 3c aa 28 e4 3c
       0.028937992 -0.013892772 0.021046616 0.027851421
000190 4e 41 60 bc c7 65 8d 3b 4f 79 ce bc 94 b3 04 bc
       -0.013687445 0.0043151113 -0.025204329 -0.008099455
0001a0 26 61 dc 3a bc 6e 4f ba d7 e4 e7 bc a0 62 a5 bc
       0.001681362 -0.0007912924 -0.028307362 -0.02018863
0001b0 9b ac e0 bc 00 c8 a8 3b ea 7a 03 3d c4 b5 b0 ba
       -0.027426055 0.005150795 0.03209964 -0.0013481905
0001c0 c9 0e f2 bb 53 cb c7 39 b2 ef 31 bc 4d ff c7 bc
       -0.0073870164 0.00038107726 -0.0108603705 -0.02441373
0001d0 7f 0e 78 3c 4b 52 d5 bb 3f e5 e8 3c dc 89 08 bd
       0.015140175 -0.006510054 0.028429626 -0.033334598
0001e0 08 3a d1 3b 70 a2 8f bb 94 c2 28 3c 4c b6 d0 bb
       0.0063850917 -0.0043833777 0.010300297 -0.0063693877
0001f0 3e ac 1f 3d d7 ff 23 bc a7 06 05 3c e2 49 ff bc
       0.038982622 -0.010009727 0.008119262 -0.03116316

fc2.weight f4 [10, 128]
000000 b2 9f 4e 3d 08 d6 a7 bd 0e b5 c6 3d c8 a4 42 3d
       0.050445266 -0.0819512 0.09702502 0.04752043
000010 f9 d4 94 bd ef 8f a9 bc 00 da 49 bd 19 9e 14 3d
       -0.07267184 -0.020698516 -0.049280167 0.036283586
000020 88 d1 47 3d 18 2e d9 bd 74 03 fc bc aa 2b da 3c
       0.04878381 -0.10604495 -0.030763365 0.026632149
000030 09 30 84 3d dc 2c 8d bd 3e 9c 66 3d 55 13 13 3e
       0.064544745 -0.06893322 0.056301348 0.14362843
000040 37 c4 81 3d 47 4a 28 3d 41 81 a0 bd cd 42 72 bc
       0.06336253 0.04108646 -0.07837153 -0.014786434
000050 d3 1c 08 bd e6 86 37 bd 5b d0 24 3d 4e ff 66 3d
       -0.033230614 -0.044806384 0.040237766 0.05639582
000060 85 74 a6 3d f3 cd e8 bd 7a 87 0e bd 76 a3 1c be
       0.08127693 -0.11367407 -0.03479717 -0.1529673
000070 ba 55 8a bd a7 62 dd bd f6 a4 52 bd 0c aa 8c bc
       -0.06754632 -0.10809832 -0.05142685 -0.017170928
000080 19 1d 1c be 3f c8 43 bd 4b 67 26 be 17 e4 25 be
       -0.15245475 -0.04779839 -0.1625034 -0.1620029
000090 68 dc b8 3d df d4 e6 3c 27 8d 85 3d 8c a1 d2 3d
       0.09026414 0.028177677 0.06521063 0.10284719
0000a0 26 8d 5f 3d 2c aa eb bd a2 61 00 3e 31 6f 02 bd
       0.05457797 -0.11507067 0.12537244 -0.03184432
0000b0 ea b0 d0 bd f3 36 2f be 2f 90 a7 bd fc 0d d0 3d
       -0.10189994 -0.17110805 -0.08181798 0.10158917
0000c0 5f aa ab bb 20 39 10 3e 60 e6 05 bd 34 29 85 3d
       -0.0052388157 0.14084291 -0.032690406 0.065019995
0000d0 06 97 29 bd 17 f0 5c bd 3a f6 93 bd 0f c1 87 3d
       -0.041403793 -0.053939905 -0.07224698 0.0662862
0000e0 46 96 4d 3d 5b 57 46 3d e8 6f e5 3c 3a 57 5e bd
       0.05019214 0.048423152 0.028007463 -0.054282404
0000f0 9f b3 a9 bb 4e 3b 6b 3c 7a 06 0f be c2 6f 81 bd
       -0.005178883 0.014357401 -0.13967314 -0.06320144
000100 bc ca 59 3d ee a5 6c 3d a5 99 eb bd 70 8e ce bd
       0.05317186 0.05777543 -0.11503915 -0.100857615
000110 45 48 b5 bd 59 63 9a 3d ed 36 68 bd d8 11 30 3d
       -0.08851675 0.0753848 -0.056693006 0.042985767
000120 62 a6 04 be 15 88 8d bd 2d 60 50 3d e4 a7 f4 bd
       -0.12954095 -0.06910721 0.05087297 -0.11946085
000130 12 81 bd 3d 50 b1 89 3d 2e 6d 36 3c 1e 88 dc 3d
       0.09253134 0.06723273 0.011134429 0.1076815
000140 7b 21 da bd 56 00 30 3d 84 79 cc bd e3 ac 8f bc
       -0.10650917 0.04296907 -0.09984115 -0.017538493
000150 ed 88 7a 3d 96 9a bb bd 60 47 57 bd e0 14 45 bc
       0.06116574 -0.09160344 -0.052558303 -0.012028903
000160 c4 24 04 3d 24 92 6c 3c 2b e0 1f 3e 8c 42 06 be
       0.032261625 0.0144391395 0.15612857 -0.13111323
000170 62 fd 0e b9 88 ab 15 3c 11 e1 3e 3c 4d 7c bd 3c
       -0.00013636568 0.0091351345 0.01165034 0.02313056
000180 9e a5 3a 3d 50 26 9f bd 98 e3 1c be 06 f3 32 bd
       0.0455681 -0.077709794 -0.15321195 -0.043688796
000190 3a e6 6d bd 09 11 83 3d f2 90 e2 3c 2a 2a 82 3d
       -0.05808089 0.063997336 0.027657006 0.063556984
0001a0 eb e4 bc 3c 49 9f a1 3d ec e5 db bb 23 50 22 bc
       0.023058375 0.07891709 -0.0067107584 -0.009906801
0001b0 9a 27 1f 3d fe b0 0a 3d 0c 02 97 bd 54 b6 55 3d
       0.038856126 0.0338602 -0.07373437 0.052175835
0001c0 8a 46 89 3d e0 5d 39 bd f4 17 9f 3c 32 a2 22 be
       0.067029074 -0.04525554 0.019420601 -0.15882185
0001d0 4a c5 27 3d 4a 15 05 be 57 6c 9d 3b 92 e5 c2 3d
       0.040959634 -0.12996402 0.004804175 0.09516443
0001e0 9e fb 9d bd 28 ab c6 b9 57 1b 9c bd 97 86 c0 bd
       -0.07714008 -0.00037893024 -0.07622402 -0.09400671
0001f0 f8 25 05 3e 22 ed 0d be de 2a 28 3d 74 f2 12 bd
       0.13002765 -0.1385999 0.041056506 -0.035875753
000200 4a e6 27 bd c8 28 02 3d a3 f4 0b 3d 76 8d b0 3d
       -0.040991105 0.031777173 0.03416885 0.086207315
000210 6c 1c 95 bb d7 32 ce bb 08 e1 b3 bd d2 63 1d be
       -0.0045505073 -0.0062926817 -0.08783156 -0.1537011
000220 1c dc 14 bd fe 35 9e bd 7c 71 3e 3d ed 4f 8e bc
       -0.036342725 -0.07725142 0.046494946 -0.017372096
000230 4a fb 75 bd 0a 43 f7 bd 6b 1c d5 3c 5a 5d f2 bd
       -0.0600541 -0.120733336 0.026014527 -0.11834212
000240 b4 08 c9 bc 12 eb 29 be ee 29 60 3a 2f 6f aa bd
       -0.024540283 -0.16593578 0.000855117 -0.08321988
000250 e1 af f2 bd d4 bc 45 bd ed b8 88 bd 11 7b 73 bd
       -0.118499525 -0.048275784 -0.06675897 -0.059443537
000260 6c 8f 86 bd 92 6b ae bd 27 a8 87 3d 78 50 ca 3d
       -0.06570324 -0.08516611 0.066238694 0.098786294
000270 7b 88 dd bc c6 89 82 bd f4 e8 90 bb 84 11 04 3d
       -0.027042618 -0.063739344 -0.0044223014 0.032243267
000280 52 a3 85 3d f2 6f 65 bd 52 7c 6b 3d 27 45 89 bd
       0.065252915 -0.056014962 0.057491608 -0.06702643
000290 86 45 f2 3d 95 73 a3 3b 1c 25 9d 3d 1a 38 b0 bc
       0.11829667 0.0049881437 0.07673094 -0.021511126
0002a0 b2 25 57 3b 49 27 b6 3d c0 ee d9 bd f8 a8 a3 bd
       0.0032828865 0.08894212 -0.10641241 -0.079912126
0002b0 e0 eb bb bc ac 3c 28 3d cc 26 62 3d ca 6c 13 be
       -0.022939622 0.041073486 0.05521278 -0.14396968
0002c0 af b0 9c bc 5e 34 19 be d4 28 55 bd 8e 02 13 bd
       -0.019127218 -0.14961383 -0.05204089 -0.03589111
0002d0 fb 34 ab bd 97 bb 0e bc 22 0c a7 3c 7c 39 06 b9
       -0.083597146 -0.008711717 0.020391528 -0.0001280065
0002e0 55 66 9c 3c 6a aa a8 bd 9d 07 0b 3d fc 62 be bd
       0.019091764 -0.08235629 0.033942807 -0.092962235
0002f0 06 47 3e bc a9 53 55 bd 8a d3 db 3d c7 e7 28 3d
       -0.011613613 -0.052081738 0.10733707 0.041236665
000300 62 fa b0 bc 56 c1 0d bd 38 fc c9 bd 14 f7 a6 3d
       -0.021603767 -0.034608208 -0.0986256 0.08152595
000310 54 de b3 ba e3 dc ac bd c0 08 92 3d a6 d6 46 bd
       -0.0013722875 -0.08440568 0.07130575 -0.04854455
000320 88 be 04 3d 5c 87 4a 39 7e 5e a2 3d b5 71 c8 3d
       0.032408267 0.00019314646 0.07928179 0.09787313
000330 e0 c1 bd bd f0 a0 fa bd 0c 39 3b bd 8e 9f c6 3d
       -0.09265494 -0.12237728 -0.0457087 0.096984014
000340 84 95 df 3d a6 db ce bc e0 de 94 3d 3e 58 75 3c
       0.1091719 -0.02525122 0.072690725 0.014974652
000350 4a dc 84 bc 2f 69 65 3d b6 76 e5 bd 81 e8 7f bd
       -0.016218323 0.056008514 -0.11204283 -0.062477592
000360 0c da 00 3d 30 6b d0 bc f4 60 c4 bd 1c 39 e8 3b
       0.031457946 -0.025441736 -0.09588805 0.007086886
000370 c9 b5 d8 bc 1e a3 cc 3d 2a a5 b9 bd 6d 0a 9b bd
       -0.02645387 0.0999205 -0.09064706 -0.07570348
000380 9c b3 fc bd 8c 83 04 be 47 f4 1a 3c a9 78 38 bd
       -0.12338945 -0.12940806 0.009457654 -0.045036945
000390 bd e4 39 bc 18 13 b3 bd ef 66 b8 3c 1a 63 82 3d
       -0.011346039 -0.08743876 0.02251002 0.063665584
0003a0 2f c6 74 bc d5 7c 92 bd 99 4f ab 3c f3 3c ca 3d
       -0.014939829 -0.07152716 0.020911979 0.098749064
0003b0 ec cd 4f 3d 84 54 90 3d e3 cc 22 be 5c 77 15 3d
       0.05073349 0.0704737 -0.1589847 0.036490783
0003c0 3f 49 56 bd fe c4 c3 bc e0 dc 6d bd a4 1a ee 3b
       -0.052315947 -0.023897644 -0.05807197 0.0072663594
0003d0 0d ea 1b bd a8 d2 be 3d 78 e6 72 bd 1a e3 f2 3d
       -0.038065005 0.09317523 -0.059301823 0.118597224
0003e0 28 da 3a 3c 66 45 03 3e 4a 1f 96 bd b3 fa 57 3d
       0.011404552 0.12819442 -0.07330187 0.05272932
0003f0 4b ee 86 bc b4 ac e6 3d 75 a8 4d bd a1 73 80 bd
       -0.016471049 0.11263409 -0.05020948 -0.062720545

fc2.bias f4 [10]
000000 cc ea bc bc 32 cf a4 bd 9e 67 8c 3d ca 3e 1f 3d
       -0.023061179 -0.08047332 0.06855701 0.03887824
000010 a8 6e bb bc bb d8 86 bc 01 8b 03 bd ab 02 10 3c
       -0.022879913 -0.016460767 -0.032114986 0.008789699
000020 8a 85 e7 bc c6 98 9c bd
       -0.028261919 -0.07646327
